weight/from_0_to_01/best_RNNRegressor_OR.pth (torch, 7498 bytes, 5 tensors)

rnn.weight_ih_l0 f4 [32, 2]
00000000: e239 743e 4357 9bbd 34fd 4c3f 2884 c13f
00000010: b021 efbd 003a eebd c856 0abe ab20 193e
00000020: 154e 76be 2204 62bf f061 e23e 2c05 39be
00000030: bba7 f1bf de70 ac3f 3e58 153d 1444 703e
00000040: ab42 553e 99fb 143f c620 9d3d dd83 963e
00000050: 8389 91be 2bfc bd3d c160 9040 3361 a6bf
00000060: c016 863d 44d2 8d3e 3d97 b0bc 2bb9 0c3c
00000070: f2bc 48be 6215 363e 0971 02be cd4b 3bbd
00000080: 91ee fa3e f4db 8b3f 1041 88bd 6956 6a3e
00000090: 6cc5 c53d 332e 71be 3c8b 0f3c 518f 6dbe
000000a0: ef9c a83e 9431 6d3f 7d81 0bbe 25f3 653d
000000b0: a844 59bc 5eee 28be 8381 9d3c f936 2ebe
000000c0: e9f4 83bd 75a4 ddbc e7c0 7fbc 80cf c73b
000000d0: c99a 52bd 4753 493e 1db3 2cbe 877f 48bd
000000e0: db40 02be 11f9 193e 5829 583f 2fe1 b8be
000000f0: 801f 51be 11c4 843d 8203 883d cc79 b73e
0.23850206 -0.07585003 0.8007386 1.5118456 -0.11676347 -0.11632156 -0.13509667 0.14953868
-0.24053223 -0.88287556 0.44215345 -0.18068379 -1.8879312 1.3471944 0.036461107 0.2346347
0.20826213 0.5819641 0.07672267 0.2939748 -0.28425226 0.09276613 4.511811 -1.2998413
0.06547308 0.27699482 -0.021556491 0.008589069 -0.19603327 0.17781594 -0.12738432 -0.045726586
0.49010137 1.0926499 -0.06653035 0.22884525 0.09656796 -0.2355278 0.008761223 -0.23199202
0.3293223 0.92653775 -0.13623615 0.056140084 -0.013260998 -0.1649718 0.019226795 -0.17013158
-0.06443197 -0.027055958 -0.015609956 0.006097734 -0.051417146 0.19660674 -0.16865201 -0.048949745
-0.12720053 0.15036418 0.84438086 -0.361093 -0.20422173 0.06482709 0.06641294 0.3583511

rnn.weight_hh_l0 f4 [32, 32]
00000000: ae61 983d b695 13be a0be 6dbc 58c0 50bd
00000010: 26a3 ce3d 8cea 1e3d debe 20be 273e 0ebe
00000020: 8a1d 17be 8141 053e c8d2 eb3c 1194 0bbe
00000030: 9810 8dbd 0014 97b9 503e 29bd 97ee d7bd
00000040: 90c9 bfbd 348a 25be 48fc f3bc 7ef1 f63d
00000050: c89d 553d 3cbd 39bd 304c 1bbc f41a 4ebd
00000060: f077 0fbe 7c82 3abd 6ea4 f23d 1409 41bd
00000070: c111 043e ff02 05be ecd0 dcbd 4098 cb3b
00000080: 8049 2c3b 82fd c13d a443 2b3d af72 23be
00000090: 44b8 5b3d 9d77 143e 2dde 25be 92f7 b2bd
000000a0: e561 2f3e 90c1 283c 0652 21be 00d4 3e3c
000000b0: 86f6 de3d 5b0e 043e 9a7d b93d 002b f5ba
000000c0: 3c5e 763d 0c8c 903d 5ceb 3d3d a020 54bc
000000d0: 1f3f ddbd e2bb f83d e2dd e73d 0034 e03c
000000e0: 9091 763c 2cfe 19bd 602d 1b3d 7c54 c4bd
000000f0: 7b4a 01be 96e1 c83d 40fc 893b 2033 d7bc
00000100: d483 13be 2446 0a3d 396b 29be 5629 6dbd
00000110: 6310 1d3e 8708 263e 1426 18bd 3193 27be
00000120: 54e1 663d a5d1 83bd dead 8e3d f4e7 ffbd
00000130: 0217 ff3d edb2 94bd c8aa 443d 4cd6 803d
00000140: a025 79bc 5070 813d b6eb d33d 205d 59bc
00000150: 6a2f edbd d9fa 10be e8fb a2bd 7192 0cbe
00000160: ea4d b43d e940 0ebe 5e59 c33d ac9d 2e3d
00000170: 3e0b 94bd 60cc 68bc 48a9 84bc 20a2 1b3d
00000180: b527 ecbd 9323 02be 316a 143e 46e0 df3d
00000190: 3ae0 dc3d 0b28 80bd c98b 283e 9e35 fc3d
000001a0: 6010 243c 5061 833c 4a46 fe3d 18c1 f93c
000001b0: 966d 13be 072f 253e 4203 c53d 8c15 25bd
000001c0: 7e91 f93d beb1 a5bd 225b a63d 941d febd
000001d0: 880f 0abe 5c30 833d 6919 87bd b05f 26bc
000001e0: 4084 c2bb 5681 e63d 3d2b 053e b40e c0bd
000001f0: bc84 26bd 02b5 c4bd 11ee efbd c0a3 71bb
00000200: ec0e 383d abf7 263e 98eb 633d b26a d9bd
00000210: 9b13 1d3e c51e 0dbe 450a 0fbe 73fd 1d3e
00000220: def3 a33d 40ab 21bd 18b4 d0bc f9e0 febd
00000230: 1207 8bbd ae95 0fbe d0aa 1abd d41e 0abd
00000240: fe11 d53d 2faf 32be 20f0 babd e8b1 0f3d
00000250: 36a5 9e3d 280b abbd 2059 36bc 7318 273e
00000260: 41de 1d3e bce4 d1bd 70e8 e53c 783a f4bd
00000270: ba54 963d f0e3 113d 4082 3fbb ed5c 06be
00000280: 1285 fb3d 5396 213e bc1d dcbd 529e e03d
00000290: 474f 2a3e a01c 6a3c 2209 62bd 113e 053e
000002a0: a879 1ebe 2832 8ebd e608 5cbd 40d1 2ebd
000002b0: 660d 15be 2874 eabc 004a c2ba f0fd 49bd
000002c0: a0bb d8bb 46e2 f03d 6af7 d83d 204e debc
000002d0: 2459 1a3d 2f80 d3bd 688f d3bd bb22 9fbd
000002e0: 00e5 143b df95 04be ee83 5dbd f0ec 2fbe
000002f0: 938e 82bd bd6c d7bd fadd a13d 3de9 293e
00000300: ee62 c53d 470f 1dbe 9a76 a03d 7453 debd
00000310: 761c b83d 1c78 13be 120d b13d aa62 2cbe
00000320: ea06 d63d 4187 2ebe db96 163e 4cd7 7bbd
00000330: 866e 12be c03e 8e3d ffcc d2bd c0ef 9a3b
00000340: ccf7 12be 880d 8d3d 43fe 25be c1e3 c6bd
00000350: 8038 8dbc 92a3 853d 38bc d43c c4fb 18be
00000360: ea02 0cbe c639 ea3d b125 143e 777f a9bd
00000370: 8830 d8bc 66c9 b4bd c20a ad3d a473 2a3d
00000380: 9867 d93c 301e b33c 203d 063c 58ff eb3c
00000390: b038 0cbc 0542 173e 6c85 233d 2580 313e
000003a0: 7116 86bd ca9c b3bd 60dd e73b c8bf 49bd
000003b0: 1a26 6ebd 4e49 c53d 0e15 ff3d b2c2 cf3d
000003c0: 9e63 d4bd 0aa9 ba3d c976 1f3e a550 213e
000003d0: d458 83bd c0b3 fd3c 3772 0cbe c0f3 3f3c
000003e0: b421 11be f2e5 01be ee6a c1bd 84db 4e3d
000003f0: c424 4ebd 0715 2c3e ea52 07be 9555 2c3e
0.07440506 -0.14412579 -0.014510781 -0.050964683 0.10089712 0.0387979 -0.1569781 -0.13890897
-0.14757362 0.13013269 0.028787032 -0.13630702 -0.06887931 -0.00028815866 -0.04131919 -0.10543554
-0.09364617 -0.16166002 -0.029783383 0.1205778 0.052152425 -0.045346484 -0.009478614 -0.050318673
-0.14010596 -0.045534596 0.11847769 -0.0471278 0.12897398 -0.12989424 -0.10782036 0.006213218
0.0026288927 0.09472181 0.041812554 -0.15961717 0.053642526 0.14498754 -0.16198035 -0.087386265
0.17127188 0.010300055 -0.15753946 0.011647224 0.10886864 0.12896101 0.0905716 -0.0018704832
0.060148463 0.07057962 0.046367034 -0.0129472315 -0.10803055 0.12145211 0.11321618 0.027368546
0.015049353 -0.037595913 0.03788507 -0.095864266 -0.12626068 0.09808652 0.0042109787 -0.026269495
-0.14405757 0.033758298 -0.16544808 -0.05790075 0.15338282 0.1621419 -0.03714569 -0.16364743
0.056367233 -0.06436471 0.06966756 -0.124954134 0.1245556 -0.0726069 0.048014432 0.06290874
-0.015206724 0.0632025 0.10347693 -0.013266832 -0.11581309 -0.14158191 -0.079582036 -0.13727738
0.088039234 -0.13891949 0.0953853 0.042630836 -0.07228707 -0.014208883 -0.016194 0.03799641
-0.11531011 -0.12708883 0.14493634 0.10931449 0.10784955 -0.062576376 0.16459574 0.12314914
0.01001367 0.016037613 0.1241575 0.030487582 -0.14397272 0.16131221 0.09619762 -0.04030375
0.121859536 -0.08090542 0.08122851 -0.12407985 -0.13482487 0.06405708 -0.065966435 -0.01015465
-0.0059361756 0.112551376 0.13004775 -0.093778044 -0.04065393 -0.09604837 -0.117153294 -0.0036871284
0.044936106 0.16305415 0.0556446 -0.10616054 0.1533951 -0.13781269 -0.13968761 0.15428714
0.08005498 -0.039469957 -0.0254765 -0.12445254 -0.06788458 -0.14021942 -0.037760556 -0.033720806
0.10403822 -0.1744964 -0.091278315 0.035081774 0.07746355 -0.08351737 -0.0111296475 0.1631792
0.15416814 -0.10248706 0.028064936 -0.119252145 0.07340379 0.03561777 -0.0029221922 -0.13121386
0.122812405 0.1578 -0.10747859 0.10967697 0.16631804 0.014289051 -0.05518449 0.13011958
-0.15476096 -0.0694316 -0.053719424 -0.042680025 -0.14555892 -0.02861984 -0.0014823079 -0.04931444
-0.0066141635 0.11761908 0.105940655 -0.027136862 0.037682667 -0.103271835 -0.10330087 -0.07770296
0.0022719502 -0.12947796 -0.054080896 -0.17180228 -0.0637485 -0.10518787 0.07903667 0.1659288
0.0963801 -0.15337859 0.078351215 -0.10855761 0.089898035 -0.14401287 0.08645071 -0.16834512
0.104505375 -0.17043783 0.14705984 -0.06148462 -0.14299974 0.06945562 -0.10293006 0.0047282875
-0.1435234 0.068873465 -0.16210274 -0.09711409 -0.017238855 0.06525339 0.025968656 -0.14939791
-0.13672987 0.11436801 0.14467503 -0.08276265 -0.026390329 -0.08827476 0.084493175 0.04161419
0.026538655 0.02186498 0.008193284 0.02880828 -0.008558437 0.14771278 0.039922163 0.1733404
-0.06547249 -0.087701395 0.0070759505 -0.049255162 -0.058141805 0.096331224 0.12455188 0.10144557
-0.10370563 0.09114273 0.15572657 0.1575342 -0.06413427 0.0309695 -0.13715445 0.011715829
-0.14173013 -0.12685373 -0.09444223 0.050502315 -0.05032803 0.16804896 -0.13215223 0.16829522

rnn.bias_ih_l0 f4 [32]
00000000: aec8 8ebd 36a9 3c3e 572f bd3c 9be1 49be
00000010: 400a 6ebd 1cfd a83c 4655 0fbd 1a02 e5bb
00000020: 2863 82bd 9085 f9bd c338 43bd ef84 85bd
00000030: 3482 06be e13a 36bd 309c 0cbd 383d b9bb
00000040: a2dd 683e 47a0 62be d800 5abd d37a 6d3e
00000050: 3087 403e 7ab2 ccbd 26a1 b73d e713 473e
00000060: 11c7 da3c 61f3 a3bd 9d3a 1ebe 6454 b33b
00000070: d8ff c1bd a886 77bd 3b0c b6bc 2fb0 30be
-0.0697187 0.18423924 0.023093862 -0.19714968 -0.058115244 0.020628504 -0.034993432 -0.006988776
-0.06366569 -0.12183678 -0.047661554 -0.06519496 -0.13135606 -0.044489745 -0.03432864 -0.00565305
0.22740796 -0.22131453 -0.05322346 0.23191385 0.1880157 -0.09994979 0.089662835 0.19441186
0.02670625 -0.08005405 -0.15452047 0.0054727066 -0.094726264 -0.060431153 -0.022222629 -0.17254709

rnn.bias_hh_l0 f4 [32]
00000000: fea0 883d 0a9b 143e 72c2 7f3d 19f4 7b3d
00000010: a632 83be fcef db3d 321f f13d af5f 5ebe
00000020: 73f6 653e 3bc9 6bbe 77e5 063d bd9f 113e
00000030: 9426 3fbe 0da6 6f3d eb89 733c f4d0 c53d
00000040: 88c2 453e b209 a4bd 2524 673e 100e 27bd
00000050: 825d 793e 283d 2bbe 62f3 8fbd ac0a cebd
00000060: 7d5b 633b 7deb b83d 82e6 333d cfc2 3f3d
00000070: 5ae1 cc3d 6333 823e 01f6 9f3d efca 90be
0.06671332 0.14512268 0.062441297 0.061512087 -0.2562458 0.10739133 0.11773528 -0.21716188
0.22457294 -0.23025982 0.03293368 0.14221092 -0.1866706 0.058507968 0.014864425 0.09658995
0.19312489 -0.08009662 0.22572382 -0.040784895 0.24352077 -0.16722548 -0.070288435 -0.10060629
0.0034691982 0.09029291 0.043921 0.046816643 0.1000392 0.2542983 0.078105934 -0.28279826

fc.weight f4 [1, 32]
00000000: e716 0fbd 4146 af3e 3d78 0d3d cdb6 c6bd
00000010: f507 4cbe e1d3 32be b60f 313f bbbe 35be
00000020: 95b2 c63d 8174 93be 4b67 873d 6d42 31bf
00000030: cef5 87be e81a 273b 0728 f9be 4dda 1d3d
00000040: e2e9 2d3e 33e8 46be e478 f33e f5d6 2d3e
00000050: 48d1 7e3e d48a 2bbe dc8c f03a 5712 c63d
00000060: 7dff f93c e8a0 e93a 711a 67be 1df1 e5bd
00000070: 70f7 94bd ca74 66be 441e 40be 3592 87be
-0.03493395 0.34233287 0.034538496 -0.09702835 -0.1992491 -0.17463638 0.691646 -0.17748539
0.097020306 -0.28799823 0.066114984 -0.6924198 -0.26554722 0.0025498215 -0.4866335 0.038538266
0.1698375 -0.19424514 0.4755317 0.16976531 0.24884522 -0.16752177 0.0018352526 0.09671467
0.030517334 0.0017824443 -0.2256868 -0.11227629 -0.072737575 -0.22505489 -0.18761545 -0.26478735
