weight/from_0_to_01/best_CNNRegressor_OR.pth (torch, 9610 bytes, 5 tensors)

conv1.weight f4 [16, 2, 3]
-0.16880389 -0.26301193 -0.23900495 0.14049041 0.07986012 0.13062143 0.14630449 -0.22043991
0.04530868 -0.03131181 -0.33917865 0.015505105 -0.18681477 -0.15724829 0.051339358 -0.030410111
-0.34334147 0.25929707 0.20798832 -1.2661666 0.06020692 0.39153832 0.34288374 0.15636206
0.18154496 0.16838309 0.14284396 -0.08452901 0.39076605 0.09579426 -0.10035673 -0.33715358
-0.052135915 -0.16446868 0.22854382 -0.33943328 -0.2990786 -0.3602223 0.32206863 0.29109973
0.26022562 -0.4050819 0.32235056 -0.028701825 -0.3682126 0.047648013 -0.2989871 0.3532856
-0.10028106 -0.37569308 0.33021712 -0.15594777 0.17155045 0.288723 0.40199566 -0.21584925
0.07771748 0.34185565 0.5339205 -0.35396183 0.24299645 -0.1056924 0.115765035 0.26870948
0.009342703 -0.17570351 0.33972007 -0.05712381 0.114479244 0.23435521 -0.2395325 -0.13270915
0.20769614 0.24937063 0.23563975 0.27837992 -0.26710525 0.21646422 -0.24695922 -0.367016
0.04430911 0.39828765 0.023439676 -0.23619613 -0.14046997 0.07588449 -0.0155721605 0.15090954
-0.28463823 0.060761064 0.0022921264 0.19883524 0.16417938 -0.0005519688 0.7168305 0.014333159
00000000: edda 2cbe 80a9 86be b7bd 74be b8dc 0f3e
00000010: b48d a33d a0c1 053e d8d0 153e 00bb 61be
00000020: 9895 393d d040 00bd d3a8 adbe 2009 7e3c
00000030: 5f4c 3fbe b205 21be 3849 523d a01e f9bc
00000040: 74ca afbe 96c2 843e e4fa 543e bf11 a2bf
00000050: 889b 763d b677 c83e 758e af3e 601d 203e
00000060: ece6 393e 9e6c 2c3e b045 123e 8c1d adbd
00000070: 7d12 c83e c82f c43d d487 cdbd 659f acbe
00000080: 788c 55bd 7a6a 28be 6407 6a3e 33ca adbe
00000090: d520 99be 0f6f b8be 2ee6 a43e 060b 953e
000000a0: 4b3c 853e e566 cfbe 220b a53e 1720 ebbc
000000b0: 5d86 bcbe 902a 433d d614 99be dae1 b43e
000000c0: 2860 cdbd d85a c0be 3812 a93e c6b0 1fbe
000000d0: ecaa 2f3e 80d3 933e 60d2 cd3e 9607 5dbe
000000e0: 582a 9f3d b407 af3e 04af 083f 7c3a b5be
000000f0: 10d4 783e 4275 d8bd 3816 ed3d 4a94 893e
00000100: 2312 193c 9feb 33be caef ad3e a8fa 69bd
00000110: 1874 ea3d d0fa 6f3e 0248 75be e8e4 07be
00000120: 4cae 543e 045b 7f3e 8c4b 713e d087 8e3e
00000130: 05c2 88be cca8 5d3e e1e2 7cbe 85e9 bbbe
00000140: 787d 353d 5cec cb3e 9004 c03c 66dd 71be
00000150: 5cd7 0fbe 5469 9b3d 6022 7fbc 0888 1a3e
00000160: 1abc 91be 98e0 783d 8037 163b 779b 4b3e
00000170: a41e 283e 00b2 10ba 3482 373f a0d5 6a3c

conv1.bias f4 [16]
0.21738127 -0.31404692 -0.15563768 0.18062079 0.017028587 0.20488088 0.2517173 0.11663138
0.2767939 0.1313674 -0.0061378633 0.0046850145 0.35052896 -0.31620312 -0.17835191 -0.20383567
00000000: 3299 5e3e c2ca a0be 7c5f 1fbe a8f4 383e
00000010: 897f 8b3c 4bcc 513e 17e1 803e 6fdc ee3d
00000020: eeb7 8d3e 2d85 063e 2120 c9bb c084 993b
00000030: 8878 b33e 60e5 a1be e2a1 36be 4cba 50be

conv2.weight f4 [32, 16, 3]
0.115061015 -0.0012360401 -0.124454215 0.09611179 -0.12441545 -0.109535806 -0.13011509 0.038691744
-0.09501994 0.06096974 1.3012614 0.023873165 -0.08963995 0.11267816 0.11534855 0.0812072
0.48150873 -0.13716345 -0.03374348 0.17157538 -0.068916366 -0.0070641786 -0.085096255 -0.0755799
0.13571429 0.16688004 0.0232061 -0.014852747 0.5098089 -0.11765507 0.074433565 -0.06503024
0.015710682 0.007177606 -0.08902329 -0.027580291 0.051211476 0.122691795 -0.07570526 0.046521023
0.06689778 0.12209374 -0.06325615 -0.00055496395 0.039946496 -0.029281214 -0.21930942 -0.13387483
-0.044703804 0.24148494 0.0205663 -0.06787484 0.11144298 -0.074780524 -0.0069389343 -0.06505553
0.08658679 -0.033618703 1.6945657 -0.05802524 -0.117723376 -0.37394816 0.04658389 0.060946032
0.61601734 -0.0010495335 -0.089636564 0.009429044 -0.103944026 -0.10276689 -0.89629763 0.05219294
0.033029005 0.6969646 -0.022953652 -0.07435556 0.39386585 -0.13402027 -0.11026725 0.031052783
-0.06689201 -0.05037511 -0.08821908 -0.007228002 -0.093965545 -0.13949308 0.13745171 0.08119036
0.13468367 -0.013599455 0.039659962 -0.0030110478 -0.035710774 0.10983655 -0.3045884 0.0023210943
0.05124402 -0.029135922 -0.036799937 0.07458398 0.047894835 0.060578123 -0.050663255 0.07964721
-0.111076914 -0.13290855 0.08483668 -0.04812371 0.035226002 -0.04841144 -0.09697881 0.021832362
-0.2733725 -0.005710438 0.079394534 0.0024552662 0.14048341 0.01585117 -0.006242466 0.09322739
-0.08346255 0.036874726 0.030286863 -0.11262793 -0.2100003 0.041566968 -0.05191209 -0.15867428
-0.055329725 0.13149008 -0.14180502 0.057822704 0.06432852 0.11563102 0.0075429976 0.022445068
-0.017055139 0.051689103 -0.009372801 0.03574334 0.012740701 -0.04935655 0.392514 0.049661174
0.10049793 -0.071196824 0.1345622 -0.05815085 -0.09517145 -0.089478776 -0.11368476 0.13895583
-0.018270105 0.12170681 -0.17092736 0.031429917 0.09197521 0.0018208844 -0.04761301 0.0050221533
-0.34693506 0.11760795 0.12124857 0.042980235 0.07094568 0.058988944 -0.12612092 -0.09701189
-0.053711727 -0.027871331 0.13091055 -0.03369981 -0.064142495 -0.07305127 0.023167402 -0.054570492
-0.113865584 0.04262726 0.10306251 -0.10408835 -0.016151443 0.020392282 0.002304256 0.023019403
0.08300467 -0.09742532 0.08400646 -0.12218251 0.10340984 0.016360104 0.26153225 0.066629305
0.02262424 -0.07333613 -0.037164383 -0.13019335 0.13288465 -0.021918498 -0.051904157 -0.050597645
-0.022244357 -0.12599653 -0.10376021 -0.04801707 -0.006105602 0.0067597628 -0.13754019 -0.06913043
0.05643587 -0.031085715 -0.13872142 -0.037793085 0.097013086 0.1215781 0.14263743 -0.14177063
0.0388114 -0.055095308 -0.0031480044 -0.06711766 0.029765159 0.040257767 0.0032074451 -0.13475327
0.111827165 -0.10457517 0.062481493 0.141951 -0.04351978 -0.10124482 0.08928038 0.07641001
0.10651466 0.10010445 0.062131196 -0.1026994 0.07949583 -0.07511176 -0.08168138 0.033531994
0.13786045 -0.03743103 0.010330945 0.0952594 -0.082764454 0.12686 -0.084030494 0.07814914
-0.11887552 -0.12905392 -0.098585874 -0.03642776 -0.06139069 0.0070803612 0.08441849 0.06483467
00000000: 1ca5 eb3d a002 a2ba dae1 febd 42d6 c43d
00000010: 87cd febd 4f54 e0bd e43c 05be 3c7b 1e3d
00000020: d099 c2bd 68bb 793d bc8f a63f a891 c33c
00000030: 2695 b7bd cfc3 e63d dc3b ec3d f64f a63d
00000040: 5088 f63e 9374 0cbe 9a36 0abd 75b1 2f3e
00000050: 0624 8dbd a07a e7bb f246 aebd a2c9 9abd
00000060: b0f8 0a3e 9ae2 2a3e b81a be3c f058 73bc
00000070: d682 023f 24f5 f0bd a070 983d 932e 85bd
00000080: b0b3 803c 2032 eb3b d851 b6bd 10f0 e1bc
00000090: 20c3 513d d645 fb3d 5c0b 9bbd d48c 3e3d
000000a0: b401 893d 480c fa3d 718c 81bd 007b 11ba
000000b0: f09e 233d 28df efbc a692 60be 7c16 09be
000000c0: 561b 37bd d447 773e a87a a83c f701 8bbd
000000d0: 383c e43d 8826 99bd 0060 e3bb d53b 85bd
000000e0: 6a54 b13d c4b3 09bd 87e7 d83f e0ab 6dbd
000000f0: f418 f1bd 2276 bfbe c0ce 3e3d 8ca2 793d
00000100: 50b3 1d3f 8090 89ba 6093 b7bd 477c 1a3c
00000110: 9be0 d4bd 7277 d2bd c373 65bf 44c8 553d
00000120: 6c49 073d 466c 323f 4c09 bcbc ba47 98bd
00000130: c9a8 c93e 9c3c 09be ccd3 e1bd 6862 fe3c
00000140: aefe 88bd 2256 4ebd 34ac b4bd e0d8 ecbb
00000150: 0271 c0bd 46d7 0ebe 24c0 0c3e 2247 a63d
00000160: 84ea 093e 40d0 5ebc 7c72 223d 0055 45bb
00000170: 7645 12bd fcf1 e03d 03f3 9bbe 801d 183b
00000180: 40e5 513d 75ae eebc 88bb 16bd 7cbf 983d
00000190: 602d 443d c420 783d 4684 4fbd 141e a33d
000001a0: 4b7c e3bd 2e19 08be dabe ad3d 5e1d 45bd
000001b0: 2449 103d 134b 46bd d49c c6bd c8d9 b23c
000001c0: 7bf7 8bbe a01e bbbb 9a99 a23d 88e8 203b
000001d0: e2da 0f3e 50da 813c 9a8d ccbb 00ee be3d
000001e0: 6aee aabd f409 173d 281c f83c 79a9 e6bd
000001f0: 520a 57be 2042 2a3d c6a1 54bd 837b 22be
00000200: 6ca1 62bd 56a5 063e 5635 11be 80d7 6c3d
00000210: acbe 833d f5cf ec3d 402b f73b b8de b73c
00000220: 38b7 8bbc f4b7 533d 6090 19bc 9c67 123d
00000230: 60be 503c 182a 4abd 98f7 c83e 8469 4b3d
00000240: dcd1 cd3d a4cf 91bd acca 093e 962f 6ebd
00000250: 40e9 c2bd a640 b7bd 8ed3 e8bd 704a 0e3e
00000260: 30ab 95bc 6c41 f93d 9507 2fbe a8bc 003d
00000270: 805d bc3d beaa ee3a dc05 43bd e090 a43b
00000280: 79a1 b1be 70dc f03d 2c51 f83d 0b0c 303d
00000290: f84b 913d 649e 713d d825 01be 2bae c6bd
000002a0: d400 5cbd 6b52 e4bc 6a0d 063e d008 0abd
000002b0: 245d 83bd e79b 95bd 90c9 bd3c 4f85 5fbd
000002c0: 5c32 e9bd ec99 2e3d 7012 d33d 462c d5bd
000002d0: 0850 84bc b70d a73c 0003 173b 3093 bc3c
000002e0: 5afe a93d ed86 c7bd 940b ac3d d33a fabd
000002f0: 8ac8 d33d a005 863c 8ee7 853e f274 883d
00000300: 7856 b93c 4131 96bd ae39 18bd 6851 05be
00000310: ea12 083e 6c8e b3bc 7499 54bd 7a3f 4fbd
00000320: cc39 b6bc 3c05 01be 3c80 d4bd 8cad 44bd
00000330: 8011 c8bb 0081 dd3b 56d7 0cbe 4194 8dbd
00000340: 4c29 673d 78a7 febc fd0c 0ebe eccc 1abd
00000350: ccae c63d f0fd f83d 8c0f 123e 522c 11be
00000360: b4f8 1e3d 9eab 61bd c04e 4ebb fc74 89bd
00000370: 10d6 f33c 54e5 243d 0034 523b c3fc 09be
00000380: a405 e53d 822b d6bd 98ec 7f3d 9a5b 113e
00000390: cc41 32bd 7259 cfbd a2d8 b63d da7c 9c3d
000003a0: 5c24 da3d 9003 cd3d 487d 7e3d 1054 d2bd
000003b0: b6ce a23d 32d4 99bd 9148 a7bd d858 093d
000003c0: 4a2b 0d3e 4851 19bd 2043 293c 5c17 c33d
000003d0: 6980 a9bd 96e7 013e 2e18 acbd a80c a03d
000003e0: 0275 f3bd b626 04be 64e7 c9bd 4635 15bd
000003f0: ce74 7bbd 6002 e83b 9ae3 ac3d 0ac8 843d

conv2.bias f4 [32]
-0.039128996 -0.026533194 0.07642416 0.16886427 -0.13978548 -0.052319348 -0.0782405 0.1318211
-0.021540254 -0.13129213 0.100573294 -0.084958225 0.09564222 0.12642166 0.091165915 0.0051922123
-0.11414832 -0.00021833404 0.052468512 -0.0027095973 0.06790776 0.025778785 -0.015334862 0.10582173
0.064288355 -0.13491513 0.1261008 0.06254915 -0.12144725 0.108487844 -0.074408844 0.059822503
00000000: ba45 20bd 245c d9bc 4584 9c3d c1ea 2c3e
00000010: ed23 0fbe d04c 56bd 8e3c a0bd 1cfc 063e
00000020: 3075 b0bc 7271 06be 5ff9 cd3d 94fe adbd
00000030: 11e0 c33d ae74 013e 32b5 ba3d 6f23 aa3b
00000040: 98c6 e9bd 99f0 64b9 39e9 563d 8093 31bb
00000050: 3913 8b3d 082e d33c 133f 7bbc 10b9 d83d
00000060: 9da9 833d 3127 0abe 9120 013e c519 803d
00000070: 56b9 f8bd e02e de3d aa63 98bd 7108 753d

fc.weight f4 [1, 32]
0.269523 1.2477126 -0.15083323 -0.20549071 0.034879655 0.083852515 -0.13972928 -0.092218645
0.24215575 -0.040850997 -0.108550765 -0.023462543 -0.09182288 -0.28835192 -0.16311716 -0.030081583
-0.05671855 -0.0029967744 0.114421256 0.12234311 -0.14352006 -0.08392252 0.03350004 0.10370599
0.13184899 0.15226893 -0.11731417 0.034645688 -0.03110069 0.2057654 0.09139614 0.24189927
00000000: ebfe 893e 0cb5 9f3f 0774 1abe 286c 52be
00000010: f8dd 0e3d deba ab3d 3115 0fbe 21dd bcbd
00000020: adf7 773e 6053 27bd dd4f debd 8534 c0bc
00000030: a20d bcbd dda2 93be 2f08 27be a76d f6bc
00000040: b651 68bd 8865 44bb b155 ea3d 068f fa3d
00000050: ecf6 12be 92df abbd 5737 093d ce63 d43d
00000060: 6c03 073e 63ec 1b3e 6942 f0bd a3e8 0d3d
00000070: e0c6 febc 2ab4 523e e62d bb3d 71b4 773e
