weight/from_0_to_01/best_CNNRegressor_FE.pth (torch, 9610 bytes, 5 tensors)

conv1.weight f4 [16, 2, 3]
000000 b0 9f ca 3d c0 3f d1 bc 64 d1 8c 3d 0c c0 82 3e
       0.09893739 -0.025543094 0.068758756 0.25537145
000010 14 65 4d 3e 28 33 69 3e a6 63 cf 3e 90 a7 74 3e
       0.2005809 0.22773421 0.40505713 0.23892045
000020 08 22 a3 3e 23 11 be be 28 e9 f7 3d d8 26 eb bd
       0.318619 -0.3712245 0.12105018 -0.11482018
000030 34 2b a4 bd 34 76 09 be 78 d1 25 3d 88 53 54 3e
       -0.08016053 -0.13423997 0.040482968 0.2073499
000040 e8 18 d0 bd 06 df c1 3e f5 c4 ce be 99 7f 8e 3c
       -0.101610005 0.37865466 -0.4038464 0.017394828
000050 99 46 45 be 80 45 ee 3c f3 0a 39 3e e8 bb 87 be
       -0.19265212 0.029085875 0.18070583 -0.2651055
000060 34 37 74 3e 1f ae b7 bf 9a e9 41 be bc 76 84 3e
       0.23849183 -1.4350013 -0.18936768 0.25871837
000070 40 ea 80 bd 22 e0 27 be e2 05 a9 3e 50 7a 7e 3d
       -0.0629468 -0.16394094 0.330123 0.062128365
000080 30 76 10 3e 20 87 9f 3d 69 9c 99 be 9b ae b6 be
       0.14107585 0.07789445 -0.30002144 -0.35680088
000090 1a a7 bf 3e 0f 4d a8 be 68 6b 59 bd b8 94 86 bd
       0.37432176 -0.3287129 -0.053080946 -0.065713346
0000a0 24 c5 a2 3d 24 77 88 3e d8 9b 33 3e e4 aa b2 bd
       0.07947758 0.26653397 0.17539918 -0.08724001
0000b0 7e d5 c0 3e f0 b0 f0 3c 03 f4 3e be 90 5b 98 3d
       0.37662882 0.029381245 -0.1864777 0.07439339
0000c0 f9 1a 76 be 9d 04 67 3f 90 6f 7f 3e 78 af 30 bd
       -0.24033727 0.90241414 0.24944901 -0.04313609
0000d0 d8 f4 15 3e e0 d0 4d bd 26 b0 5f be 32 c0 1f be
       0.14644182 -0.050248027 -0.21844539 -0.1560066
0000e0 b8 1b bb bd 10 bf b1 bc 4a 23 9f be 8f b9 45 be
       -0.09136146 -0.021697551 -0.3108161 -0.19309066
0000f0 b0 35 6a 3e 58 8c 8e be e0 88 39 3e 90 ab 6e bd
       0.22872043 -0.2784145 0.1811862 -0.058269083
000100 b1 22 39 3d ca d8 84 3e 5e 8e b5 3e e0 c7 c4 3d
       0.0451991 0.25946647 0.3546018 0.09608436
000110 60 e5 7d bd fe 30 93 be 7b 66 4e be 78 0e ac 3e
       -0.061986327 -0.28748316 -0.2015628 0.3360479
000120 a8 12 df 3d 52 2b b0 be a0 dc 5b 3e 8b 50 b3 be
       0.1089223 -0.3440805 0.2147088 -0.35022387
000130 91 f1 4c 3d e0 7a 95 3c e0 4e 2d 3e 30 66 ea 3c
       0.050035063 0.018247068 0.1692462 0.02861318
000140 86 7e 82 3e dd 4a bb be e4 9e 31 3e c0 5b 2a bd
       0.25487155 -0.36580554 0.17345768 -0.041591406
000150 66 00 89 3e 2d 8e 37 41 00 89 03 bb 58 fe 7e 3e
       0.26758116 11.472211 -0.0020070672 0.24901712
000160 5f 0e 23 3e 7c bb ad be 0b 3a 66 be 18 e0 a3 3e
       0.15923451 -0.33932102 -0.22483079 0.32006907
000170 d8 e1 89 be e8 a5 a6 3e aa ed d0 be 50 46 31 bd
       -0.26930118 0.3254845 -0.40806323 -0.043279946

conv1.bias f4 [16]
000000 24 14 5a be e4 9d ad be 14 02 9f bd a6 bb 4c be
       -0.21296746 -0.33909523 -0.07764068 -0.19993457
000010 20 ad 20 bc bc 88 be be 07 5d 37 be 25 0d dc 3d
       -0.009806901 -0.37213695 -0.17906581 0.107446946
000020 66 c6 1e 3e eb a2 b8 be 95 32 50 3e 88 4b a2 bd
       0.1550537 -0.36061797 0.20331796 -0.07924563
000030 0b 4e a1 3e d8 b9 8f be 85 7d c2 bd fb 39 8f be
       0.31504855 -0.28071475 -0.09496597 -0.27973923

conv2.weight f4 [32, 16, 3]
000000 ee a5 fa bd 48 31 88 bd 18 7d 29 3d 80 76 d7 bb
       -0.1223868 -0.06650025 0.041379064 -0.0065754056
000010 3e 3e 78 bd c0 89 6f 3b c0 fd d3 bb 2a 26 24 bd
       -0.060606234 0.0036550611 -0.0064694583 -0.04007546
000020 26 47 fe bd 00 f8 45 3b c6 d3 df 3d 30 9a 17 bc
       -0.12415914 0.0030207634 0.109290645 -0.00925307
000030 7e d3 9a 3d 80 5d 20 bd 28 7b 07 3e 5a a6 07 be
       0.0755987 -0.03915167 0.13230574 -0.13247052
000040 f0 99 48 bd 40 5b 45 bc 60 73 13 bd ee 4a 0a 3e
       -0.04897493 -0.0120456815 -0.035998702 0.13505146
000050 96 d3 01 be ca e4 77 bd ed 5a b6 3d f4 4a ad bd
       -0.1267837 -0.060520925 0.089040615 -0.08461562
000060 8c 95 03 3e da da bd 3d 60 42 88 3d 28 11 0c 3e
       0.12850016 0.09270258 0.06653285 0.1367842
000070 58 a8 e6 bd c9 87 11 be b8 5e f4 bc 49 41 d9 bd
       -0.11262578 -0.14211954 -0.029830322 -0.10608155
000080 f5 83 c6 bd 42 56 94 3d 66 fd 77 bd 18 bc ea 3d
       -0.096931376 0.07243015 -0.060544394 0.11461657
000090 71 92 83 bd 19 af ef 3c 02 0c f3 bd ec b9 44 3d
       -0.06424416 0.029258298 -0.11867525 0.04802887
0000a0 d0 1d 33 bc e0 0c 67 3c b6 a9 d0 3d 14 fa 91 bc
       -0.010932401 0.014102191 0.1018862 -0.017819442
0000b0 20 7e 73 3c 00 89 ce 3b e8 0f f9 3d d8 70 c0 3d
       0.0148616135 0.0063029528 0.12161237 0.09396523
0000c0 2c 4b bd 3d 43 4d 0e be 8c c6 f9 3d 88 58 08 3e
       0.092428535 -0.1389666 0.12196073 0.13315022
0000d0 3e 39 84 bd ca 58 0f be a8 22 70 3d d2 0a a9 3d
       -0.064562306 -0.13998714 0.0586268 0.08254017
0000e0 de ac a4 3d 73 6e 0b be 17 88 a9 3c 74 5f 5a 3d
       0.08040784 -0.13616352 0.020694776 0.053313687
0000f0 a0 a6 cf bd e8 ec 42 3d 74 db 3e 3d 28 a9 fc 3d
       -0.10139203 0.047589213 0.046596006 0.123369515
000100 90 83 5d 3d bc 8c 71 3d ec b6 2f 3d d0 3f 40 3d
       0.054080546 0.058972105 0.042899057 0.046935856
000110 64 1e ac bc 54 41 cb 3d ed de 52 be be e8 46 bd
       -0.021010585 0.0992457 -0.20592852 -0.048561804
000120 fa d8 d5 3d 81 bf a8 bd e0 94 60 3c bc 0b f3 3d
       0.104417756 -0.082396515 0.01370737 0.118674725
000130 c4 14 c7 bc da 85 04 3e 28 20 e8 3d bf b5 86 bd
       -0.024301894 0.12941685 0.11334258 -0.06577634
000140 04 53 cd bd 20 c2 b6 bc 76 ff 04 be 7c 3f f2 bd
       -0.100255996 -0.022309363 -0.12988076 -0.11828515
000150 a4 f6 36 bd 49 bc 36 3d a8 14 ad bd 5c 43 ff bc
       -0.04466881 0.044613156 -0.084512055 -0.03116005
000160 98 7c 0b 3e b3 71 07 be e0 4d af bc 50 7b 8c bc
       0.13621747 -0.13226967 -0.021399438 -0.017148644
000170 76 53 a3 3d 1c 9c ec bd 9b b9 05 be 94 b1 1f 3d
       0.07974903 -0.11553213 -0.13059084 0.03898771
000180 ba 46 b3 bd e7 f4 85 bd 50 43 ad 3d 6c 88 56 3d
       -0.087537244 -0.06540852 0.084601045 0.052376196
000190 80 82 b9 bb 38 b8 e6 3d f7 5d a7 bd 78 b0 fd bd
       -0.0056613088 0.11265606 -0.08172219 -0.12387174
0001a0 a8 9e 9c bc 84 45 f7 3d b0 da 06 3c e7 28 11 be
       -0.019118622 0.12073806 0.00823085 -0.1417576
0001b0 7a 01 c3 3d 81 de 8f bd 9c fd f2 3d 11 7d 04 be
       0.09521766 -0.07024861 0.118647784 -0.12938334
0001c0 18 af f0 3d 9a e9 07 bd 4f e4 11 be 30 61 d7 3c
       0.117521465 -0.033181764 -0.14247249 0.02629146
0001d0 e4 e3 95 3d 48 c4 01 bd 17 4b d0 3d e4 62 17 bd
       0.07318857 -0.03168133 0.10170572 -0.036959544
0001e0 c6 00 8c 3d de df 9f 3d ef cd fb bd d2 63 13 3e
       0.06836085 0.07806371 -0.12295138 0.14393547
0001f0 44 b5 d8 bc 1e c7 d2 bd c8 61 be 3d 59 ba ea 3d
       -0.026453622 -0.10291885 0.09295994 0.11461324
000200 1c f1 fb 3d b2 6d 94 bd 70 51 7e 3d 48 9b 62 3d
       0.12301847 -0.07247485 0.062089384 0.05532387
000210 78 1d 03 bd b7 81 c5 3d 2c 55 ad bd 8e a5 a7 bd
       -0.032010525 0.09643882 -0.08463511 -0.08185874
000220 08 db 8a 3c a0 dc 4f 3c 8f 15 86 bd 84 e1 00 bd
       0.016950145 0.012686878 -0.06547081 -0.03146507
000230 50 52 00 be 20 4a 38 3d fa 50 05 bd e4 96 eb 3d
       -0.125314 0.044992566 -0.03254793 0.115033895
000240 77 14 0c be 0e 8a b4 3d 72 7b 03 3e 74 8b b9 3d
       -0.13679682 0.08815394 0.1284006 0.09059802
000250 00 6e cc 3b 46 95 5e bd f0 19 c2 3c 0b f0 cc bd
       0.006238699 -0.054341577 0.023694009 -0.10006722
000260 5e 96 f8 bd 90 ae 87 3d b1 c4 ee 3d 78 b1 ca 3d
       -0.12138055 0.06625092 0.1165861 0.09897131
000270 60 58 db 3d 57 9e bb 3d 1c 46 3c 3d 9c 82 e8 3d
       0.107102156 0.0916106 0.0459653 0.11353037
000280 14 59 7b 3d d0 59 f6 3d 60 f4 63 3d 08 3d f6 3d
       0.06136425 0.12028849 0.055652976 0.120233595
000290 60 cc 4d 3c ec dc 48 bd 8e cf 3c bd fe 86 0d 3e
       0.012560934 -0.049038813 -0.046096377 0.13821027
0002a0 04 f5 f9 3d 5b d4 94 3d 26 99 b1 bd 82 5c b9 bd
       0.12204936 0.07267066 -0.08671789 -0.090508476
0002b0 b8 40 b5 3d 20 48 e6 3d b4 95 c4 bd 6f 74 b3 bd
       0.08850235 0.112442255 -0.09598866 -0.08762442
0002c0 94 f0 07 3e 44 70 3b bd 58 f9 d9 3d c4 39 ca bc
       0.13275367 -0.04576136 0.10643262 -0.024685748
0002d0 e0 c5 d1 3d 30 f3 22 3e 26 27 f8 bd f4 4e 39 3d
       0.1024282 0.15913081 -0.12116842 0.04524131
0002e0 88 ca 81 bc 80 57 d0 bd 00 bb 59 3a 9e 6f 38 3c
       -0.015843645 -0.10172939 0.0008305758 0.01125708
0002f0 6e 86 b7 bd 28 f3 0a 3e 22 d6 cb 3d 65 2d fe bd
       -0.08961187 0.13569319 0.09952952 -0.12411002
000300 d8 d1 b6 bd 3a d1 d0 3b 97 46 e4 bd 2c ae a7 bd
       -0.08926743 0.006372598 -0.111462764 -0.081875175
000310 9c 67 45 3d a6 5b 8e 3d e0 af 0c be 50 a1 b3 3c
       0.048194513 0.06951074 -0.13738966 0.021927506
000320 e3 e7 98 bd cb 86 06 be 0d 0c e4 bd c2 fd 2d bd
       -0.07466104 -0.13137357 -0.11135111 -0.04247833
000330 ce 1c 09 3e fb 4b 3a bb 16 ca 03 3e 4a e3 0b 3e
       0.13389894 -0.0028426636 0.12870058 0.13660923
000340 20 e8 a7 3c ec bd 46 3d b1 95 09 be 04 e9 1d bd
       0.020496428 0.048520967 -0.13436009 -0.0385523
000350 2e 76 13 3e 20 2f b8 3b 05 ad d4 bd e0 e9 dc 3b
       0.1440055 0.005620852 -0.10384563 0.0067417473
000360 7c 19 c5 bc 41 60 f0 3d 68 41 06 3d d8 9c 97 3c
       -0.024060003 0.11737109 0.03277722 0.018507406
000370 3c 34 9f bc 74 b4 db bd ac fa 00 be 94 4f b1 3d
       -0.019434087 -0.10727778 -0.12595624 0.086577564
000380 c0 5d e0 3c e8 37 e4 3c ed 88 81 bd a6 86 12 3e
       0.027388453 0.02785869 -0.06324945 0.14309177
000390 c0 c2 9c bb 10 de 3a 3d fe 5b 0c bd 5f f2 9c bd
       -0.004783958 0.04562193 -0.034267418 -0.07663416
0003a0 77 cd 8e bd a2 94 4b bd 53 e6 e1 bd d0 69 3e bd
       -0.06972783 -0.049702294 -0.11030259 -0.04648763
0003b0 34 54 dc 3d 24 15 15 3d 4e 0a c5 3d 84 f8 4e 3d
       0.10758248 0.036397114 0.09621106 0.05052997
0003c0 f2 59 95 3d de e3 01 3e 40 08 78 bc fa e5 bd bd
       0.07292546 0.1268458 -0.015138686 -0.0927238
0003d0 c0 9a c0 bb 6c 79 69 3d ac df 1b bd 44 fc 5f 3d
       -0.0058778226 0.057000563 -0.038055107 0.05468394
0003e0 35 d6 0e be f2 2a b7 bd f4 98 ca bc 18 06 60 bd
       -0.13948901 -0.08943738 -0.024731137 -0.05469331
0003f0 cc dd 3d 3d 4f e8 28 3e 1e 9a b0 bd 7c 43 69 bd
       0.0463541 0.16494869 -0.086231455 -0.056949124

conv2.bias f4 [32]
000000 a9 d4 ea 3d e8 43 5e bc 67 07 19 3d 0c 11 c0 bb
       0.11466343 -0.013565995 0.037360575 -0.005861407
000010 62 6c a4 bd 87 4b d8 bb 8b 8d 5e 3d 96 d5 08 3e
       -0.08028485 -0.0066008004 0.054334205 0.13362727
000020 39 b3 37 be 6d d2 94 bb 9b 6f ad 3c 86 a4 23 3d
       -0.17939462 -0.0045416863 0.021171382 0.039951824
000030 d4 4c 0f 3d ee 4b 0b be f6 a8 9b 3c 1e c2 30 3e
       0.03498538 -0.13603184 0.019001465 0.1726155
000040 35 24 51 3d 18 52 12 be 0e 96 dc bd 66 44 5b 3c
       0.05105992 -0.14289129 -0.10770808 0.013383007
000050 6f 31 c4 3b 73 36 d3 3c 6a f2 33 3e 74 75 64 bd
       0.0059873383 0.0257828 0.17572942 -0.055776075
000060 27 1d 09 3e 74 69 ee bd 12 f9 e1 bc 2c 41 87 3d
       0.13390027 -0.11641207 -0.027584586 0.066042274
000070 8a a4 ca 3d 2f a8 7f 3d 9a 82 17 be 96 3b 45 bd
       0.098946646 0.06241625 -0.14795914 -0.04815253

fc.weight f4 [1, 32]
000000 8d 19 04 be a4 36 21 39 fb 7e ba bd 83 0e 4f bd
       -0.12900372 0.00015374512 -0.09106251 -0.05055095
000010 d9 e2 48 3b 60 9e 08 be 75 e5 2e 3c 88 7c 82 bf
       0.003065279 -0.13341665 0.010674824 -1.0194254
000020 b1 71 b7 3d ae 8c 8c 3c e5 4e 03 3e 65 b9 54 3c
       0.08957232 0.017156925 0.12823065 0.012983655
000030 df 74 33 be 69 b2 ab 3c 00 73 77 3e 6e 0e 7e bf
       -0.17525052 0.020959096 0.24164963 -0.9924077
000040 4c 37 36 3a 65 42 08 3e ac 66 0d bd 43 cc 86 3a
       0.0006950989 0.13306578 -0.034521744 0.0010284263
000050 ba c8 bf bb 02 13 9d 3d 02 1e be bd ff bb 59 bc
       -0.005852786 0.07669641 -0.09283067 -0.013289451
000060 cf 7f 8b bd cf 53 e0 bc 83 e9 a0 3d cb 12 b6 bd
       -0.06811487 -0.027383713 0.07857039 -0.08890303
000070 c1 77 27 be 89 db 03 be 63 ad 11 3d 22 47 d1 3d
       -0.16354276 -0.12876715 0.035565745 0.10218646
