weight/from_0_to_01/best_RNNRegressor_DA.pth (torch, 7498 bytes, 5 tensors)

rnn.weight_ih_l0 f4 [32, 2]
000000 2b 99 6a 3e 53 9c 96 be 55 9c 92 be bc a3 3f 3e
       0.22909991 -0.2941614 -0.28634897 0.18714803
000010 ff 27 d5 bd dd 40 3f 3e 18 66 16 be be f4 1c bd
       -0.10408019 0.18677087 -0.14687383 -0.03831934
000020 08 d0 33 3d 68 de bd 3e 8a ac 21 3f f2 72 2f bf
       0.043899566 0.37083745 0.631539 -0.6853477
000030 87 a7 14 3e ac 6b 81 bd 19 f0 a7 3d 03 68 80 bc
       0.14517032 -0.06319365 0.08200092 -0.015674597
000040 69 74 f6 bf 22 fc b6 3f 50 00 14 3c bd ff 4e be
       -1.9254276 1.4295695 0.009033278 -0.20214744
000050 70 8c 05 3f de 7f 9a 3f bd 2e 11 3e 73 35 4e be
       0.52167416 1.2070272 0.14177985 -0.20137577
000060 ea 72 51 3e 68 44 22 3f 76 0f a1 3c 6a 3e b7 be
       0.20453992 0.6338563 0.019660693 -0.35789806
000070 2a aa a2 3d 55 48 2b be 2c c3 08 3e 10 9c 74 3e
       0.079426125 -0.16726811 0.13355702 0.23887658
000080 a1 dd b9 3f 18 b9 25 bf d9 1b 02 bd e4 2e a1 3e
       1.4520761 -0.64735556 -0.03176484 0.31481087
000090 46 04 95 be a1 16 2d 3e e7 e3 cc be 79 8d 86 bf
       -0.29104823 0.16903163 -0.40017626 -1.0511924
0000a0 a6 f1 00 3a 97 66 85 be ce 2b 51 be fe 15 1d bf
       0.0004918821 -0.26054832 -0.20426866 -0.6136168
0000b0 0a 7b fa 3d 08 aa 4b be f5 5b e6 3d e0 23 21 bd
       0.12230499 -0.1988908 0.11248008 -0.039340854
0000c0 b5 08 fa bd 76 e6 46 3e 04 90 b8 3d b7 3f 5d be
       -0.12208692 0.19423851 0.09011844 -0.21606337
0000d0 65 26 c4 3d 6e 10 32 be 11 bc 16 40 5d 46 37 bf
       0.09577636 -0.1738908 2.3552287 -0.7159174
0000e0 ef 68 00 3e 1e 82 5a bd 2c b6 f4 bd 53 bf 33 3e
       0.12540029 -0.053346746 -0.11948809 0.17553453
0000f0 10 25 12 bf 11 41 a2 bf b9 c8 a6 3e 39 db 6e 3f
       -0.570878 -1.2676107 0.32575014 0.9330326

rnn.weight_hh_l0 f4 [32, 32]
000000 e1 f2 0c be 42 39 b4 bd 3a a7 f5 3d 8b ad cb bd
       -0.13764526 -0.087999836 0.119947866 -0.0994521
000010 48 f6 5c 3d 4e d8 08 be 3a 03 fc 3d 9c c9 31 bd
       0.05394581 -0.13363764 0.12305303 -0.04340516
000020 ac 23 55 3d 49 40 b2 bd 0d 75 9d bd 10 0e 2b bd
       0.052035972 -0.08703668 -0.07688341 -0.041761458
000030 1a 03 28 be b1 51 ee bd fe 7d d7 3d 9b 6c 1e 3e
       -0.16407433 -0.11636675 0.10522078 0.15471117
000040 c0 a0 23 be ce 3f c2 3d 66 9d 9f 3d 70 90 2d 3c
       -0.1597929 0.09484826 0.07793693 0.010593519
000050 64 ff 16 be d7 66 0f be 41 14 2f 3e 99 1f 01 3e
       -0.14745861 -0.14004074 0.1709757 0.1260971
000060 f6 b8 f1 3d 08 43 5c 3d 5d 69 00 3e 3e 4f e6 3d
       0.118028566 0.053774863 0.12540193 0.11245583
000070 8a b5 9e bd 60 f0 27 3d b0 b9 5f bc 90 e3 b2 bc
       -0.077494696 0.041000724 -0.013655111 -0.021837026
000080 80 0c e9 bc 00 60 e7 37 9f 2a 24 be e0 bc be 3c
       -0.028448343 2.758205e-05 -0.16031884 0.023283422
000090 66 8d 91 bd 74 a9 25 bd 28 0d 72 bd 13 a9 b1 bd
       -0.07107048 -0.040444806 -0.059094578 -0.086748265
0000a0 a8 68 7b bd a7 8c b0 bd 46 92 f8 3d f0 65 90 3c
       -0.061379105 -0.08620577 0.121372744 0.017626733
0000b0 60 cf cd 3b 15 65 34 be 94 6d 74 3d 12 4c b5 3d
       0.0062808245 -0.17616685 0.059674814 0.088524
0000c0 a8 9d 37 bd 40 5e 16 bc 68 9d 7b 3d 93 05 10 3e
       -0.044828087 -0.009177744 0.06142941 0.14064626
0000d0 1d d3 d7 bd 10 fc ee bd 63 dd 2e be 50 6c 98 3c
       -0.105383135 -0.11669171 -0.1707664 0.018606335
0000e0 92 14 ff bd 98 13 87 bc 66 a1 ff 3d 9c 1f 1a bd
       -0.12455095 -0.016488835 0.12481956 -0.0376278
0000f0 36 5b ef 3d 06 23 c1 3d d9 75 02 3e 4e 29 e7 3d
       0.11687319 0.09430508 0.12740268 0.11287175
000100 23 e0 92 bd 64 09 2c bd c5 5c e2 bd 34 90 04 3d
       -0.07171657 -0.042001143 -0.11052851 0.032364085
000110 78 16 b7 bc 85 20 34 3e 86 e1 95 3d 68 51 c4 bc
       -0.022349581 0.1759053 0.07318406 -0.023964599
000120 93 6f 16 3e 42 7b bd bd 47 ac c6 bd fc 34 f3 bd
       0.14691 -0.09252025 -0.09700828 -0.1187534
000130 c3 4d bf bd 40 8a 9e bc dd 2a 2c 3e 49 a1 a0 bd
       -0.09341004 -0.019353032 0.16813226 -0.07843263
000140 78 5c 43 3d 1e cb ce bd 00 08 49 bc 8d 70 0e 3e
       0.047695607 -0.10097335 -0.012269974 0.13910122
000150 ba 31 17 be 9a aa d0 3d 35 08 2c 3e 8f eb 14 3e
       -0.14765063 0.1018879 0.16800006 0.14542983
000160 22 3b 00 be d4 49 3e 3d 00 0b c0 bb 18 3d 91 bc
       -0.12522557 0.046457127 -0.0058606863 -0.017729327
000170 d4 f7 0f be 64 35 37 bd b0 24 75 3c 55 e5 28 3e
       -0.14059383 -0.04472865 0.01496236 0.16493733
000180 60 05 3d bd 21 fe 1c 3e 5b b5 0b be b8 24 7a 3d
       -0.046147704 0.15331317 -0.136434 0.061070174
000190 2a 73 f4 3d 5a 9b b2 3d 2c af 45 bd 32 2a 14 be
       0.11936028 0.08721037 -0.04826276 -0.14469221
0001a0 ed 35 1f be 29 9d 2b 3e b8 84 e5 bc 6c 20 23 3d
       -0.15547915 0.1675917 -0.028017387 0.03982584
0001b0 f2 fd a3 bd ad 14 06 be 9a 93 03 be 68 63 c3 bd
       -0.080074206 -0.13093825 -0.12849274 -0.095404446
0001c0 34 d9 58 3d 40 19 9f 3c 25 ef c2 bd cd 4a 09 3e
       0.052941516 0.01942122 -0.095182694 0.1340744
0001d0 76 d8 14 be 30 27 01 3d 48 61 df bc b2 e5 e1 3d
       -0.14535698 0.031531513 -0.027268067 0.11030139
0001e0 da 10 c3 3d 12 25 f8 3d 10 1e f5 bc 12 50 9c 3d
       0.095246986 0.121164456 -0.029921561 0.0763246
0001f0 bd 05 0a 3e 5e a8 b0 3d f3 08 14 3e d8 df a0 bc
       0.13478751 0.086258635 0.14456539 -0.019637987
000200 df 18 91 bd d2 6f ee 3d da 15 a1 3d 30 cd b7 bc
       -0.07084822 0.11642422 0.07865496 -0.022436708
000210 39 00 01 be 50 9a 4c bd c4 64 7c bd 10 bb 9c bd
       -0.12597741 -0.04995185 -0.061619535 -0.07652867
000220 fc 33 dd bd d6 19 13 be 00 48 84 b8 00 10 82 3a
       -0.10800931 -0.14365324 -6.3076615e-05 0.0009922981
000230 83 4e 28 3e 88 95 85 bc ec 2b 06 be 18 6e 0c be
       0.164362 -0.016306654 -0.13102692 -0.13713872
000240 df 88 05 3e 81 f0 2d 3e 05 ff fd bd 80 d8 68 bb
       0.13040493 0.16986276 -0.12402157 -0.0035529435
000250 dc 31 3f 3d 8a fe 2c be 31 2f 05 be c4 b1 e4 bd
       0.04667841 -0.16893974 -0.13006283 -0.111667186
000260 20 91 32 3d b0 14 dc bd e7 a2 e7 bd f4 6d 90 3d
       0.043595433 -0.10746133 -0.11310368 0.07052222
000270 67 7b 11 3e cc 9a ef bd 20 8b b7 bb 0b 41 1e be
       0.1420723 -0.11699447 -0.005601302 -0.154545
000280 f9 37 1b 3e 4f 3f 0d 3e 00 eb 14 ba 67 49 0b 3e
       0.1515807 0.13793682 -0.00056807697 0.1360222
000290 00 7e 63 3b 44 8d 11 be 00 32 e0 3c ce 48 da bd
       0.0034712553 -0.14214045 0.027367592 -0.10658418
0002a0 b4 2c 23 bd f7 d7 0f 3e 2e b1 e5 3d e1 71 01 be
       -0.039837554 0.14047228 0.11215435 -0.12641098
0002b0 23 f8 04 be 00 d4 56 3d e9 34 02 3e e4 d5 3a bd
       -0.12985282 0.052448273 0.12715496 -0.04561414
0002c0 3e 70 88 3d 52 cf aa 3d c9 21 18 3e 4b 6b 2a 3e
       0.066620335 0.083403245 0.14856638 0.16642492
0002d0 44 51 90 3d 98 81 94 bc 9b 65 30 3e 43 80 9c bd
       0.0704675 -0.018128201 0.1722626 -0.076416515
0002e0 b0 97 48 bc a2 63 bc bd 20 7e 2c 3d 19 1a 28 be
       -0.012243196 -0.09198691 0.04211247 -0.16416205
0002f0 11 f3 2d be 50 95 d8 bd 24 f0 16 be 6c 6a 01 bd
       -0.16987254 -0.10575354 -0.14740044 -0.031595632
000300 6e 3b eb 3d 8e aa b8 3d 80 30 b3 3b 00 d5 b6 3b
       0.11485945 0.09016906 0.005468428 0.005579591
000310 02 25 c6 3d 1c 16 4b 3d 48 28 fd bc 88 02 da bc
       0.096750274 0.049581632 -0.030902997 -0.026612535
000320 de a2 f3 3d 3f af 1d 3e 63 b2 10 3e 20 cb 2c be
       0.11896299 0.15398882 0.14130549 -0.16874361
000330 18 af d7 bc b2 f1 aa 3d e0 39 20 bd 37 1b 0d 3e
       -0.026328608 0.08346881 -0.039117694 0.13779913
000340 00 7c f2 bb 9f f4 10 3e e0 93 bd bd b0 81 52 bc
       -0.007400036 0.14155816 -0.092567205 -0.012848303
000350 6f 50 00 be 9d 82 21 3e f8 ab 1e 3d 3e de 8f bd
       -0.12530683 0.15772481 0.03873822 -0.07024811
000360 6a 30 d6 3d 94 e4 34 bd 1e 5c b7 3d f2 11 ae bd
       0.10458453 -0.0441633 0.08953117 -0.084995165
000370 29 20 ee bd 16 7f b6 3d a5 32 22 3e 40 75 1b bd
       -0.11627228 0.089109585 0.15839632 -0.037953615
000380 6a ef 29 be 78 84 4b bd e1 d1 10 be 11 20 2b 3e
       -0.16595235 -0.04968688 -0.14142562 0.16711451
000390 3c aa 31 bd e8 a9 12 3d 68 04 33 be f0 e4 37 3d
       -0.04337524 0.035806566 -0.1748215 0.044896066
0003a0 50 88 42 3d 45 15 09 3e 58 25 2d 3d fd a1 17 3e
       0.04749328 0.1338702 0.042271942 0.14807887
0003b0 36 2c 31 be 0f 93 15 3e 18 05 5d bd c1 74 32 3e
       -0.17302021 0.1460688 -0.053959936 0.1742735
0003c0 f2 e1 da bd a7 1e 0f 3e f2 aa ed bd 08 9b 16 be
       -0.10687627 0.13976537 -0.11604871 -0.14707577
0003d0 05 a3 a0 bd 18 95 99 3c 7d 50 0b 3e 80 9a c8 3c
       -0.078435935 0.018747851 0.13604923 0.024487734
0003e0 7f 98 9d bd 66 78 2c be dd c1 1f 3e 70 a7 d1 bd
       -0.07695102 -0.16842803 0.15601297 -0.10237014
0003f0 0a 99 f9 bd d0 16 2a 3c c4 90 1e be 96 7d c5 3d
       -0.12187393 0.0103814155 -0.15484911 0.09643094

rnn.bias_ih_l0 f4 [32]
000000 8b 8d df bd 47 94 88 3d 1c 00 86 be d0 68 0a 3e
       -0.10915669 0.06668907 -0.26171958 0.13516545
000010 6b ad 8b be 43 42 02 3e 48 67 3c bd e2 4e 59 bd
       -0.27280745 0.1272059 -0.045996934 -0.053053744
000020 31 96 f7 bc c3 cb 41 3e 31 c1 8a 3c d3 51 b2 3d
       -0.030222984 0.18925385 0.016937824 0.08707013
000030 8f 7d 3a 3e 45 3e 9c 3e 7c be 38 3d 66 35 da 3c
       0.1821196 0.30516258 0.045103535 0.02663679
000040 94 a0 37 bd bf 44 83 be dd b2 a3 3d 8d 60 8e be
       -0.044830874 -0.25638387 0.079931 -0.27808037
000050 ed 85 dd 3b 83 45 11 be e4 7b fd 3c 17 2f 5b 3d
       0.00676035 -0.14186673 0.030942865 0.053511705
000060 30 60 f3 bc 3f f6 e9 3d 9f 96 7e 3d aa 67 63 3e
       -0.029708952 0.11423921 0.062155362 0.22207513
000070 9c 59 c6 bc 88 df 22 be eb 5e 35 be ff 3a 8b 3e
       -0.024212651 -0.15905583 -0.1771199 0.27193448

rnn.bias_hh_l0 f4 [32]
000000 fd 34 45 3c ae 14 43 3d c9 ab cd bd e8 9d ca bc
       0.012036559 0.047627144 -0.10042531 -0.024733499
000010 c3 ad 6e be 03 4f d8 3d 52 d3 91 3e 28 44 83 bb
       -0.23308472 0.10561945 0.28481537 -0.0040059276
000020 56 bc bd 3b a5 b4 e6 3c dd cb af 3e b9 7f de 3d
       0.0057902737 0.02816231 0.34335223 0.10864205
000030 6b 84 21 3e 28 73 cd 3d 7c 80 59 bd 50 d2 16 be
       0.1577317 0.1003173 -0.053101048 -0.14728665
000040 30 da 84 3e df 56 7b be 62 81 5c 3d 8a a7 8a bd
       0.25947714 -0.24544857 0.053834327 -0.06770237
000050 b1 81 9b 3e c9 35 33 be f1 a3 29 3e 75 46 06 be
       0.30372384 -0.17500986 0.16566445 -0.13112815
000060 b2 54 18 bd 03 8e 03 3e 49 ef 5a 3e 1b 41 46 bd
       -0.037190147 0.12847142 0.21380343 -0.048401933
000070 55 36 7e bd 94 d0 eb bd f1 c4 52 be 15 65 d2 3d
       -0.062063534 -0.115143925 -0.2058294 0.10273186

fc.weight f4 [1, 32]
000000 d1 c0 bc bc 68 83 ab be cd d6 3b be 68 3a 7a 3e
       -0.02304116 -0.33498693 -0.18343659 0.24436343
000010 39 b4 b9 be fb 93 27 be 85 5b 70 3e 85 e0 7b bb
       -0.3627031 -0.16365044 0.23472412 -0.0038433385
000020 b9 03 0c 3f 00 b3 b0 3d 3a f9 84 3e 92 70 d0 3d
       0.5469318 0.086278915 0.25971395 0.10177721
000030 b3 0f d3 3d 27 f5 80 3e c3 2a ea 3c 80 86 2b be
       0.10305729 0.25187036 0.028584844 -0.16750526
000040 0e dd 14 bf 74 7d 91 be b5 6c b2 be dd b8 11 be
       -0.581498 -0.28416026 -0.34848562 -0.14230676
000050 06 18 d6 3e d3 d7 0f be 96 a0 d8 3d 93 0a 8a bc
       0.41815203 -0.14047174 0.10577504 -0.016850745
000060 93 ee 5f be 9e 84 95 3e 8b 0a 21 3e e3 c0 51 bf
       -0.21868353 0.2920274 0.15726678 -0.81934947
000070 8d 42 4c bd d6 62 75 be ad 18 d0 be 88 62 29 3e
       -0.049868155 -0.23963484 -0.40643826 0.16541493
