weight/from_0_to_01/best_MLP_DA.pth (torch, 11952 bytes, 5 tensors)

layers.0.weight f4 [64, 2]
0	0x3e8c59ae	0.2741217
1	0x3dcf87e7	0.10133343
2	0xbf479509	-0.77961785
3	0xbdfd80f7	-0.12378114
4	0x3d0cb799	0.03435478
5	0x3f3c329f	0.7351474
6	0xbf0151e2	-0.5051557
7	0xbf18eb7b	-0.59734315
8	0xbd018005	-0.03161623
9	0x3df74858	0.12074345
10	0x3f0c2305	0.54740936
11	0x3c219046	0.009861058
12	0xbedb84fd	-0.428749
13	0x3ed3e22a	0.41383487
14	0x3ece571d	0.40300837
15	0xbea0de69	-0.31419685
16	0xbe815989	-0.25263622
17	0x3e8da44e	0.27664417
18	0xbe1cc9e1	-0.15311386
19	0x3e20ca50	0.15702176
20	0xbeaf2c74	-0.34213603
21	0x3ee1941f	0.4405832
22	0x3f1065bb	0.5640523
23	0x3f0af785	0.54283935
24	0x3efcc124	0.49366105
25	0xbf936698	-1.1515684
26	0xbeff099c	-0.4981202
27	0x3ed94e0a	0.42442352
28	0xbe6f5bbf	-0.23374842
29	0x3ed8ac2d	0.4231886
30	0x3e5a07a9	0.21291985
31	0x3f09b916	0.53798044
32	0x3c742700	0.014901876
33	0x3dd92e70	0.106045604
34	0xbe8990b3	-0.2686821
35	0x3f1f705a	0.6228081
36	0x3e8440ae	0.25830597
37	0x3f8d82c5	1.1055533
38	0xbeb26d12	-0.3484884
39	0xbf9488b8	-1.1604223
40	0xbea40e71	-0.32042268
41	0xbe1c0b88	-0.15238774
42	0xbed52eb8	-0.41637206
43	0x3eb77eb4	0.35838854
44	0xbea7b515	-0.32755342
45	0x3e349931	0.17636563
46	0xbee7c4d6	-0.4526736
47	0x3f02bf72	0.5107337
48	0x3df67a93	0.12035098
49	0x3eb5ad5b	0.35483822
50	0x3eaac7d2	0.33355576
51	0x3d998168	0.074953854
52	0x3e643687	0.22286426
53	0x3ed6fd21	0.41989997
54	0xbfb1aad3	-1.3880256
55	0x3eed7295	0.46376482
56	0x3ceb48a0	0.028721154
57	0xbdd18b10	-0.10231602
58	0xbf057135	-0.52125865
59	0x3ea06718	0.31328654
60	0xbeea360b	-0.45744357
61	0xbda401f5	-0.08008186
62	0x3eecf342	0.4627934
63	0xbf245eaa	-0.64206946
64	0x3eca530a	0.3951648
65	0x3f3c5b89	0.7357717
66	0xbf9a433d	-1.205177
67	0xbe5682ab	-0.20948283
68	0xbed4fd9f	-0.41599748
69	0x3e503227	0.20331632
70	0xbf01645b	-0.50543755
71	0x3f20d87a	0.6283032
72	0xbe1b30a9	-0.15155281
73	0x3f0e0e96	0.55491006
74	0x3dc743c0	0.09729719
75	0xbf1a7f18	-0.6035018
76	0x3e60bc70	0.21946883
77	0xbe49e8b0	-0.1971767
78	0x3db47628	0.08811599
79	0xbe53a070	-0.20666671
80	0xbef7eff4	-0.48425257
81	0xbafb385a	-0.0019166574
82	0x3e4498ca	0.1919891
83	0x3f59df36	0.8510622
84	0x3e70eb24	0.23527199
85	0x3d872484	0.06598762
86	0x3f0a950d	0.54133683
87	0xbd0a4f80	-0.033767223
88	0x3e35dca9	0.17759956
89	0x3f411c90	0.7543421
90	0x3eb36ba5	0.35043064
91	0x3f3d45f4	0.73934865
92	0x3dc6afe0	0.09701514
93	0xbf11c11e	-0.569353
94	0x3eaa75bc	0.3329295
95	0xbef018a3	-0.46893796
96	0xbe34031c	-0.17579311
97	0x3eb67b4e	0.3564095
98	0x3e046cf8	0.12932193
99	0x3e7b4350	0.24537396
100	0x3f014c15	0.50506717
101	0xbf01aabf	-0.5065116
102	0xbf0d0782	-0.5508958
103	0xbe971848	-0.29510713
104	0x3f01654b	0.50545186
105	0xbe7c7f7d	-0.24658008
106	0x3ed6fad2	0.41988236
107	0xbf29a8ec	-0.6627338
108	0xbe785016	-0.242493
109	0xbf5dc57a	-0.8662945
110	0xc019c79f	-2.402809
111	0x3ec42a84	0.38313687
112	0xbef3aaea	-0.47591335
113	0xbe978d2b	-0.2959989
114	0xbeadf65c	-0.3397702
115	0x3ca2b746	0.019862782
116	0xbd05b680	-0.03264475
117	0xbe62b628	-0.221398
118	0xbe69eeff	-0.22845076
119	0xc010eaca	-2.2643304
120	0x3f213fd7	0.62988037
121	0x3eaa01b7	0.33204433
122	0xbe912347	-0.28347227
123	0x3e0dfcac	0.13865918
124	0xbeb4f057	-0.35339615
125	0x3e30423a	0.17212763
126	0xbf3acbe6	-0.72967374
127	0x3e76c722	0.240994

layers.0.bias f4 [64]
0	0x3d9a627a	0.07538314
1	0x3f1737b2	0.5906936
2	0xbf277fe8	-0.65429544
3	0xbdd0b9a0	-0.10191655
4	0x3c98a5c1	0.018633725
5	0xbc1cc730	-0.009568974
6	0xbef8a1ce	-0.48560947
7	0x3f16fa74	0.5897591
8	0xbf04e2f2	-0.5190879
9	0xbe322452	-0.17396668
10	0x3e586947	0.2113391
11	0xbe584e0f	-0.21123527
12	0xbe0ae5c3	-0.1356421
13	0x3eb3f0c1	0.35144618
14	0x3d2bf9c3	0.04198624
15	0xbf20e474	-0.6284859
16	0xbf19b384	-0.60039544
17	0x3e39a0aa	0.18127695
18	0xbe963dc1	-0.2934399
19	0x3e445a94	0.19175178
20	0xbed1e02f	-0.4099135
21	0x3ec6eb95	0.3885161
22	0xbddd7b3a	-0.10814519
23	0xbed1213a	-0.40845662
24	0xbd1db97b	-0.038506966
25	0xbf2b454a	-0.669026
26	0xbe174252	-0.14771393
27	0x3ecce036	0.4001481
28	0xbef8bff0	-0.48583937
29	0x3f1693e3	0.5881941
30	0x3eceef88	0.40417123
31	0xbefd05be	-0.49418443
32	0xbe83912f	-0.25696704
33	0x3df37d74	0.11889163
34	0x3e8e42c4	0.27785313
35	0x3eb48bff	0.3526306
36	0x3eae7007	0.34069845
37	0xbe9f5b5d	-0.31124392
38	0xbf0b59ee	-0.54434097
39	0xbd9922f0	-0.07477367
40	0x3eb00dae	0.34385437
41	0x3ea3702a	0.31921512
42	0x3e960ea0	0.29308033
43	0xbf3225f2	-0.6958915
44	0xbea69ade	-0.3254003
45	0xbdbd4022	-0.09240748
46	0xbe7cfeb2	-0.24706534
47	0x3eae69d5	0.34065118
48	0x3dcaa20b	0.098941885
49	0xbf0d74ab	-0.55256146
50	0xbebd5957	-0.36982223
51	0x3f05bba4	0.5223944
52	0xbe481991	-0.19541003
53	0xbf02067a	-0.5079113
54	0x3ea9ac95	0.33139482
55	0x3eae1e09	0.3400729
56	0xbf063b95	-0.52434665
57	0x3e624394	0.22096092
58	0xbe882ec9	-0.26598194
59	0x3e5d6348	0.21619904
60	0x3ef161e5	0.47145
61	0xbe860425	-0.26175037
62	0x3e71bcb9	0.23607148
63	0x3eb970b4	0.36218798

layers.2.weight f4 [32, 64]
0	0x3cc3f961	0.023922624
1	0x3ce8f102	0.028435234
2	0x3ee1da9d	0.441121
3	0x3ca56468	0.020189479
4	0x3cae5949	0.021282809
5	0x3d83518a	0.06412037
6	0x3cbd32c0	0.023095489
7	0x3dc953a2	0.09830405
8	0xbd67c8a4	-0.05658783
9	0xbd4ea13a	-0.050446726
10	0xbec655db	-0.38737378
11	0xbe13a11a	-0.14416924
12	0xbe67cceb	-0.22636764
13	0xbba48bcd	-0.0050215484
14	0xbe76a571	-0.24086548
15	0x3c0b202d	0.008491558
16	0x3defe76a	0.117140606
17	0xbe5d4228	-0.21607268
18	0x3e1debf4	0.1542204
19	0x3ffa7d88	1.9569559
20	0xbd2d4ca4	-0.04230942
21	0x3d8b70c7	0.0680862
22	0xbd460976	-0.048348866
23	0x3c469ed1	0.012122826
24	0xbd932a8e	-0.07185851
25	0xbcf5dc48	-0.030012265
26	0xbd04f02e	-0.032455616
27	0x3f3e0613	0.7422802
28	0xbb3103c0	-0.0027010292
29	0x3cc9a7a8	0.024616078
30	0xbada684a	-0.0016663161
31	0x3c5cda40	0.013479769
32	0x3dfe7664	0.12424925
33	0xc00ef29c	-2.2335577
34	0x3ea4e346	0.32204646
35	0xbe133c4e	-0.14378473
36	0xbd999ee1	-0.07501007
37	0x3dec42b6	0.115361616
38	0x3b10f0c0	0.0022116154
39	0xbdcdf6e0	-0.10056853
40	0xbd41708e	-0.04722648
41	0x3d01c137	0.031678405
42	0x3da965fe	0.082714066
43	0xbdf5b8c0	-0.11998129
44	0x3e9125cc	0.2834915
45	0x3d695356	0.05696424
46	0xbd884ac8	-0.066548884
47	0xbd3a3625	-0.045461792
48	0x3d52e487	0.051487472
49	0x3dcd04ce	0.10010682
50	0x3d81f9ee	0.063464984
51	0x3e056164	0.13025433
52	0xbe4cf628	-0.20015776
53	0x3d87599c	0.066088885
54	0x3db9af2a	0.09066613
55	0xbfb1db5d	-1.3895069
56	0x3b576600	0.0032867193
57	0xbe5ed29f	-0.21760033
58	0x3d4f2ff8	0.050582856
59	0xbe625206	-0.22101602
60	0xbd984298	-0.07434577
61	0xbd21dce8	-0.039517313
62	0x3de173a2	0.11008383
63	0x3ed8ace2	0.423194
64	0xbdf34e1f	-0.11880135
65	0xbc4ceca6	-0.012507593
66	0xbd807776	-0.06272785
67	0xbd3ae65c	-0.045629844
68	0xbd8e172f	-0.06938016
69	0x3da2361f	0.07920479
70	0x3da4581a	0.080246165
71	0x3dabb683	0.08384421
72	0x3d9a1992	0.075244084
73	0xbd68c8cc	-0.05683212
74	0xbe06ffc1	-0.131835
75	0xbd1827a5	-0.037147183
76	0xbd798771	-0.060920183
77	0xbd785f13	-0.060637545
78	0x3c27c8de	0.010240762
79	0x3d49bbb4	0.049251273
80	0x3d919204	0.071079284
81	0xbcb27039	-0.021782028
82	0x3c4e47e4	0.012590382
83	0xbd3e1f04	-0.046416298
84	0xbd801cc2	-0.06255485
85	0xbdbfdc40	-0.09368181
86	0xbd0459b0	-0.032312095
87	0x3c80da90	0.015729219
88	0xbcd793d9	-0.026315616
89	0xbd36ae50	-0.04459983
90	0xbe0d9f26	-0.13830242
91	0xbdca5623	-0.098797105
92	0x3de1f032	0.11032142
93	0xbdd17dbf	-0.10229062
94	0xbcbd9c09	-0.023145692
95	0xbc51af50	-0.012798145
96	0xbdb16dbb	-0.086635076
97	0xbd92851a	-0.07154293
98	0xbd05a197	-0.032624807
99	0x3d5111cd	0.051042367
100	0xbd5df32a	-0.054186977
101	0xbdbcb634	-0.0921444
102	0xbdd79cba	-0.1052794
103	0xbdf61e04	-0.12017444
104	0xbb37a097	-0.0028019303
105	0xbe086904	-0.1332131
106	0xbc44972d	-0.011998934
107	0x3c317130	0.010830209
108	0xbe09b1c3	-0.13446717
109	0xbd4cdb0c	-0.050013587
110	0x3d3f778c	0.04674487
111	0x3d4897f9	0.048973057
112	0x3ddcbb54	0.107779175
113	0xbcaf69a8	-0.021412686
114	0xbbb937e0	-0.005652413
115	0xbd9e6b91	-0.077353604
116	0xbd86b310	-0.06577122
117	0xbdf0f708	-0.117658675
118	0xbe0e184d	-0.13876458
119	0x3d6ff53c	0.058583483
120	0xbdbd9f2e	-0.09258877
121	0xbc24d0ca	-0.010059545
122	0xbd8fe4a8	-0.070260346
123	0xbd93e646	-0.072216555
124	0x3d8e6a3c	0.06953856
125	0x3d63f818	0.055656523
126	0xbddfac59	-0.109215446
127	0xbd0431e1	-0.03227413
128	0x3b29a6a4	0.002588668
129	0x3d990761	0.074721105
130	0x3da6713f	0.08127069
131	0x3d7802b8	0.060549468
132	0xbd5039eb	-0.050836485
133	0xbdfdd37a	-0.123938516
134	0x3df3b0fc	0.118989915
135	0xbe0e1062	-0.13873437
136	0xbcb8d2b8	-0.022561416
137	0xbd4e11f5	-0.050310094
138	0xbd9aadaa	-0.07552655
139	0xbd8b5243	-0.068027996
140	0xbbae0ced	-0.0053115995
141	0x3da4c476	0.080452845
142	0x3b887463	0.004164265
143	0x3d489a64	0.048975363
144	0xbd150df4	-0.03639026
145	0xbd4d6fee	-0.050155573
146	0xbd89d23f	-0.067295544
147	0x3db7e5cd	0.08979378
148	0xbd12a470	-0.03580135
149	0xbba2835e	-0.004959508
150	0x3d8d4046	0.06897025
151	0x3c728ee0	0.014804572
152	0x3de05c93	0.10955157
153	0x3db86414	0.090034634
154	0xbe0d7708	-0.13814938
155	0x3d92f8a8	0.07176334
156	0xbd853d26	-0.06505804
157	0xbd43150a	-0.047627486
158	0x3d872beb	0.066001736
159	0xbdf6ad6a	-0.12044795
160	0xbde0aa0d	-0.109699346
161	0x3dd5b652	0.104351655
162	0x3db0776c	0.08616528
163	0x3dd49d60	0.103815794
164	0xbe08e3e3	-0.13368182
165	0x3dde637a	0.108588174
166	0xbdb9dbfc	-0.09075162
167	0xbd8ba240	-0.06818056
168	0xbd3e9a3d	-0.04653381
169	0xbb1ca82b	-0.0023903947
170	0xbbb1258f	-0.0054060887
171	0x3d6413d8	0.055682987
172	0xbd91fe58	-0.0712859
173	0x3c723e58	0.014785372
174	0x3da82ac0	0.08211279
175	0x3db34c5b	0.08754798
176	0x3d47072d	0.048590828
177	0xbdbed9f6	-0.093189165
178	0x3c87f368	0.016595557
179	0xbd3c6fd6	-0.046005093
180	0xbbd25140	-0.006418377
181	0xbd11f7a4	-0.03563656
182	0x3dc055e1	0.0939138
183	0x3b6233c7	0.0034515725
184	0xbd373538	-0.044728488
185	0x3db6405f	0.088989966
186	0xbc808e48	-0.015692845
187	0x3c9d7e18	0.019225165
188	0xbdfbfd7b	-0.12304207
189	0xbd3b2534	-0.045689777
190	0xbdadcdbf	-0.084865086
191	0x3c337f3f	0.010955631
192	0x3d31cd40	0.043408632
193	0xbdb6c798	-0.08924788
194	0xbdf0db88	-0.11760622
195	0xbd72da78	-0.05929038
196	0x3da98c86	0.08278756
197	0x3d2ce5dc	0.0422114
198	0x3d3ffcfc	0.046872124
199	0xbdaa37fc	-0.083114594
200	0xbdd2bba8	-0.10289699
201	0x3cb6d510	0.022318393
202	0xbd0f97fc	-0.035057053
203	0x3ccde6f0	0.025134534
204	0xbdfe5984	-0.124194175
205	0x3d22afe4	0.039718524
206	0xbdc5ecb6	-0.0966429
207	0xbdbf1b44	-0.093313724
208	0xbdad1c2c	-0.08452639
209	0x3deb82be	0.114995465
210	0xbdc75378	-0.09732717
211	0xbdf5a5fe	-0.11994551
212	0xbb84a100	-0.004047513
213	0x3c7744a0	0.015092045
214	0xbde8f180	-0.113741875
215	0x3d81158e	0.06302939
216	0xbcadd518	-0.021219775
217	0x3ddf8eb4	0.1091589
218	0xbdb3c030	-0.08776891
219	0xbd2da32c	-0.04239194
220	0xbd290198	-0.041261286
221	0xbce80fc8	-0.028327838
222	0xbd3e34bc	-0.04643701
223	0x3d1f6448	0.038913995
224	0xbdf4e80c	-0.11958322
225	0xbc626680	-0.013818383
226	0xbcbb1ad8	-0.022839949
227	0xbb91e7c0	-0.0044526756
228	0x3c914ba8	0.017736271
229	0x3d882552	0.06647743
230	0x3dcfe2e8	0.10150701
231	0xbd2f7000	-0.04283142
232	0x3dc3a31e	0.095525965
233	0xbd669894	-0.056297854
234	0x3cd39a80	0.025830507
235	0xbd7f4700	-0.06232357
236	0x3d93a2a2	0.07208754
237	0xbd5a30f0	-0.053269327
238	0x3b22de00	0.002485156
239	0xbdfc8dfa	-0.123317674
240	0xb92ebc00	-0.00016663969
241	0xbdd102d6	-0.10205619
242	0xbaf39c80	-0.0018586069
243	0xbd7bdbd8	-0.061488956
244	0xbda6fef4	-0.08154097
245	0xbd6002bc	-0.054690108
246	0xbd950c50	-0.07277739
247	0x3bfb2d40	0.0076653063
248	0xbd886dc2	-0.0666156
249	0xbddff952	-0.10936226
250	0xbd803d14	-0.0626165
251	0x3c4161f0	0.011803135
252	0xbc06c4b0	-0.008225605
253	0xbd862372	-0.065497294
254	0x3caddaa8	0.021222427
255	0x3cd722b8	0.026261672

layers.2.bias f4 [32]
0	0x3b6824c8	0.0035422314
1	0xbd73f6e0	-0.05956161
2	0xbc647520	-0.01394394
3	0x3dc09dd4	0.09405103
4	0x3dc1ebfe	0.0946884
5	0xbdce6b42	-0.100790516
6	0x3ded5da8	0.11590129
7	0x3d4f9978	0.05068347
8	0xbdc3bc4c	-0.09557399
9	0xbd917a44	-0.071033984
10	0x3d15d1f2	0.036577173
11	0x3b61a440	0.0034430176
12	0x3de6724a	0.11252268
13	0xbdda3377	-0.106543474
14	0xbbab8610	-0.0052344874
15	0x3d0c770b	0.034293216
16	0x3d352b26	0.044230603
17	0x3d5b880f	0.053596552
18	0x3d98dd6c	0.07464108
19	0x3db67f18	0.0891096
20	0x3da9c657	0.082897834
21	0xbc90662f	-0.01762685
22	0x3d41e909	0.04734138
23	0xbdb7e538	-0.08979267
24	0x3d690f76	0.05689951
25	0xbdcd55c6	-0.100261256
26	0x3d83b1ce	0.06430398
27	0xbd52b2d8	-0.05144009
28	0xbdc89d04	-0.09795573
29	0xbbc81020	-0.006105438
30	0x3d1c3477	0.038135972
31	0x3cb474dd	0.022028381

layers.4.weight f4 [1, 32]
0	0xbc51be98	-0.012801789
1	0x3bc9a1df	0.0061533297
2	0xbd926738	-0.07148594
3	0xbe25f136	-0.16205296
4	0xbf1ea382	-0.61968243
5	0xbcf5c0fc	-0.029999249
6	0xbe188df6	-0.14897904
7	0xbd8146a5	-0.063123025
8	0x3d81e4b4	0.0634245
9	0xbcf820b0	-0.030289024
10	0x3dd3bd63	0.10338857
11	0x3e033319	0.12812461
12	0xbde7921c	-0.11307165
13	0x3d4eabb0	0.050456703
14	0xbded2f2b	-0.11581262
15	0xbd9f8291	-0.077885754
16	0x3e6bf80d	0.23043843
17	0x3e4db7aa	0.20089594
18	0xbe082a97	-0.13297497
19	0x3e4b334e	0.1984379
20	0xbdfe149b	-0.12406274
21	0x3cb84fe4	0.022499032
22	0xbdc5f6ab	-0.09666189
23	0x3df33faa	0.11877377
24	0xbd996bc9	-0.074912615
25	0x3d6d54f4	0.057942346
26	0x3dcb5dd8	0.09930009
27	0xbc9f5320	-0.019448817
28	0xbcba9690	-0.022776872
29	0xbdd948f9	-0.106096216
30	0x3e5f0500	0.21779251
31	0xbca2485c	-0.019809894
