weight/from_0_to_01/best_CNNRegressor_DA.pth (torch, 9610 bytes, 5 tensors)

conv1.weight f4 [16, 2, 3]
00000000: acae dfbd 434b b5be 6c99 b9bd 8ca2 ba3e
00000010: 9807 413e 080a 443e 985f fbbd 13af e6be
00000020: 898f 29be c0dc a8be dc59 913e 1284 63be
00000030: 4802 913d 5018 aebe 9c02 febd 8076 a3bd
00000040: c02b efbc c08b dbbc e043 453c 715b bebf
00000050: 36ba 933e 3aea 34be 438b 733e b29e c6be
00000060: 50b0 a13e a4de eb3e e25b cabe a8fe c5be
00000070: 6159 ac3d 9893 6f3e 56f2 1bbe a7bc 0e3f
00000080: 9856 913e 0077 aabe 5ce6 03be 54eb edbd
00000090: 5d2b c7be acdf 26be b4c4 8b3e b6b3 9d3e
000000a0: 2d53 8e3f 2033 cc3d d4ea 293e 07ed ac3e
000000b0: 99b8 cbbe 4e66 803e 51c7 353f 72cf c03e
000000c0: 808e 2ebd f3e4 c83e eccf b8be 94b5 b5bd
000000d0: 5703 383e 8ee5 98be 74a2 b1bd 797d a53e
000000e0: 46ac b83e 8480 bc3e a916 083f e8ce d73d
000000f0: d897 bbbe 1e87 08be b42e 1dbe d001 febc
00000100: e033 0dbd 0433 b4bd b2c9 aa3e e870 f03d
00000110: dcd1 be3e f474 903e 0ccc f6bd 4af8 af3e
00000120: b2a3 1cbe bdd7 393e 7085 0d3e 78c0 663d
00000130: 0244 d7be 39ce cbbe 70c6 7fbd de9c 99bd
00000140: 3c7a b5be dc29 683e 2522 10be c87c a0be
00000150: 4621 0ebe d840 0dbe 5e69 4dbe 1027 92be
00000160: feba 643e a835 b7bd 480c 78bd c962 d4be
00000170: 7273 96be 2852 a4bd 2437 fe3d 5e3f 45be
-0.10921988 -0.35408983 -0.09062466 0.36452138 0.18850553 0.19144452 -0.122740924 -0.45055446
-0.1655866 -0.3298092 0.2838887 -0.2221835 0.07080513 -0.34002924 -0.124028414 -0.079815865
-0.029195666 -0.026800036 0.012040108 -1.4871656 0.28853005 -0.17667475 0.23783593 -0.3879295
0.31579828 0.460683 -0.39523226 -0.3867085 0.08415485 0.23396146 -0.15229163 0.5575661
0.28386378 -0.33293915 -0.12880844 -0.11617151 -0.3890027 -0.16296262 0.2729851 0.3080117
1.1119133 0.09970689 0.16593486 0.33774588 -0.39789274 0.25078052 0.7100726 0.37658268
-0.042616367 0.39237174 -0.36096132 -0.08872524 0.17970024 -0.29862636 -0.086735636 0.3232229
0.36068934 0.368168 0.53159577 0.10537511 -0.36639285 -0.13332793 -0.15349847 -0.031006724
-0.0344733 -0.08798793 0.33357006 0.11740285 0.37269485 0.28214228 -0.120506376 0.34369117
-0.1529682 0.18148704 0.13820434 0.056335896 -0.42044073 -0.39805773 -0.062445104 -0.07500623
-0.3544482 0.22672218 -0.14075525 -0.313452 -0.1387988 -0.13794267 -0.20059726 -0.28545427
0.22336957 -0.08945781 -0.060558587 -0.41481617 -0.29384953 -0.080234826 0.12412861 -0.19262454

conv1.bias f4 [16]
00000000: 7ec0 5fbe 028d 923e b61d 8ebe 918b d23e
00000010: ce52 f1bc cbb8 99bd 99cb 963d 7af3 99be
00000020: a5ab 413d 489e 4fbd 0bc3 1c3e f22e c6be
00000030: 32a6 df3d 6c8a 803e 1a5c a13d 929d 993e
-0.21850774 0.28623205 -0.27757043 0.41122106 -0.02945843 -0.075059496 0.07363052 -0.3006857
0.047282834 -0.05068806 0.15308778 -0.3870769 0.10920371 0.25105608 0.07878895 0.3000303

conv2.weight f4 [32, 16, 3]
00000000: 4666 07be a0fc 633c cc34 073e c019 e63c
00000010: ce12 06be 7474 96bd de7c b03d d8ee 0cbe
00000020: 80bd 663d 645f 4bbd 5dd0 0fbe c84d 18bd
00000030: 300a d73d 66ac f6bd 3f5e e8bd 9ef0 70bd
00000040: e153 f1bd 10ed 5d3d d8e8 babc a8e7 953c
00000050: 0442 7b3d 6673 64bd f8a4 e13d 61f3 e2bd
00000060: de71 ccbd 45f5 d0bd a2a0 0e3e 506c 343c
00000070: 00eb b63d 29d3 e9bd 080c 143d a3d4 9abd
00000080: 6474 c9bc 8a63 e6bd 90ae 283c 0c60 d7bc
00000090: 003f 373d 7bbb f5bd ffa8 f5bd 58d8 053d
000000a0: 9c0c 513d 0d6c 87bd 006a 3a3b f6dc 46bd
000000b0: 54da 073e 9836 b33c 9e10 c0bd b053 3e3d
000000c0: 20f9 0b3d 90f4 0cbc c2bf e2bd b63a 8ebd
000000d0: cd0b 08be 7c38 903d 0064 91bb 38e4 d9bc
000000e0: c2b7 d03d 3650 d2bd aca5 613d 7842 553d
000000f0: da85 083e acbf 0bbe 28cb fabc f0b5 b93d
00000100: 78cc 8bbc 14d4 efbd 5a7c 8a3d aabd cebd
00000110: 46c3 3abd ea51 d23d 7e14 2fbd ea32 08be
00000120: 8498 06be fca9 23bd 754d e6bd 84a4 e53d
00000130: 6178 a4bd 2248 dabd d7e0 aebd fc20 f23d
00000140: 56f9 13bd e0c9 c33d 666f 02bd 8002 cfbd
00000150: b618 a9bd 966a 073e 644d d7bc 446b 3a3d
00000160: 7b45 0cbe 483e d83d bc40 46bd 203d fe3c
00000170: b348 bbbd 88d7 973d d037 7f3d d296 51bd
00000180: 1474 f03d 30fd 543c 3736 11be 4a75 95bd
00000190: 53bf 3a3f 607d c33c 784b 9a3d 95e9 0ebe
000001a0: 00a0 be3d a446 53bd 3613 3540 2c71 543d
000001b0: 48bb bb3c b7e7 35bd 7c65 643d dc49 423d
000001c0: ea53 f0bd e4b6 c13d acee d0bc 47f5 103f
000001d0: 1a3c 853d 12f4 013e 831c 29be a026 c93c
000001e0: 02a2 8d3d 7c49 2bbe 8c68 3ebd 7851 9fbc
000001f0: 7486 37be 0952 10be 64c4 e0bc 81b2 373e
00000200: 274e 01be 1f0e f5bd a045 62bd c6e7 c5bd
00000210: b407 323d d211 e93d 9876 463d d6aa debd
00000220: ce44 5f3e 7e2e 10bd 8418 f33d 9cd3 03bd
00000230: 8eda d5bd 43c2 cbbd 8b8e 2e3e ac32 0d3e
00000240: 2535 13be e0fb d0bd 603f 543d 063b 873d
00000250: 8b03 0abe be66 ca3d 9e20 bd3d 2415 0d3e
00000260: d29a bebd 381b 123e 40e1 c9bc e46f 1e3d
00000270: 82d4 59bd 584e 043d f037 cabd b0c6 01be
00000280: 4038 56bc f46a 4dbd be92 883d 0650 0cbd
00000290: d9f8 fdbd 34f8 fd3d 11c7 97bd f8e8 03be
000002a0: 40c7 d5bc e032 5a3d 3a1a 10be 5ea2 06bd
000002b0: 4836 b53c c063 103c d888 ca3d 6881 6fbd
000002c0: e0d0 db3d 9a4f 04be dc76 16bd 00a4 053e
000002d0: dc47 103e 80bd 8a3d 3457 3dbd 5066 6dbc
000002e0: d875 9b3c 45d8 97bd 0ce7 923d ea32 013e
000002f0: d3ae d1bd c4e3 003e db09 c3bd 3807 0f3e
00000300: 3cc6 8e3d c823 4fbd f032 52bc a013 04be
00000310: bf47 36bd 10b9 7a3d d062 093e 004c ca39
00000320: b403 fa3d 9b54 91bd e8d4 153f 18df f9bc
00000330: d53e b0bd c0d5 4dbd 2029 343c 38fb 0f3e
00000340: d126 0cbd 943e 2a3d cd51 93bd 1f11 923e
00000350: f0f7 fc3d b0cc e63d 74ce a23e 4285 7fbd
00000360: e881 ea3d 686c 4b3d ca57 acbd 0cb6 ddbc
00000370: cd9c c63d 40ef e93b e49c 083e 1e3f b2bd
00000380: f4f5 f73d fee2 8f3d 84a6 623d a42a 403d
00000390: a6de c03d 1f42 483f 0031 05bc a807 95bd
000003a0: ffd2 eabd e001 ce3b b273 073e b8fd a13d
000003b0: e843 7abd aa4a af3d f611 1ebe af1b 07be
000003c0: 1c1b 0f3e a86f 40bd 9b68 86bd b7e6 fdbd
000003d0: be45 323f 981f 973c 20d0 e1bd b0c5 9fbc
000003e0: adde 97bd 5226 e4bd ac5a 2f40 50e6 fa3c
000003f0: 5a4e 91bd 8915 0b3d f007 0d3c 446f 633d
-0.13222608 0.013915211 0.13203734 0.02808845 -0.13093111 -0.073464304 0.086175665 -0.13762987
0.056333065 -0.04965152 -0.14044328 -0.037183553 0.1049999 -0.12044601 -0.11346101 -0.05882322
-0.11783577 0.05418116 -0.022816107 0.018298939 0.061342254 -0.055774115 0.110177934 -0.11081577
-0.09982656 -0.102030315 0.13928464 0.011012152 0.089315414 -0.11417229 0.036144286 -0.075600885
-0.024591632 -0.11249454 0.010295525 -0.026290916 0.044737816 -0.1199865 -0.11995124 0.032677025
0.051037416 -0.06612406 0.0028444529 -0.04855057 0.1326688 0.021876618 -0.093781695 0.04646653
0.03417313 -0.00860323 -0.11071731 -0.06944792 -0.13285752 0.070420235 -0.0044369698 -0.026598081
0.10191299 -0.10269205 0.055089638 0.052065343 0.1333231 -0.13647336 -0.03061445 0.09067905
-0.017065272 -0.117103726 0.067619994 -0.10094769 -0.045596384 0.1026953 -0.042744152 -0.13300672
-0.13144118 -0.03995703 -0.112452425 0.112130195 -0.08030773 -0.106582895 -0.085389785 0.118226975
-0.036126457 0.09559989 -0.03184452 -0.10107899 -0.08256666 0.13224253 -0.02628202 0.045512453
-0.1369838 0.10558754 -0.04840158 0.031035006 -0.09144726 0.07414156 0.062309086 -0.051169224
0.1174089 0.012999818 -0.14180838 -0.07297762 0.7294819 0.023863494 0.07533926 -0.13956292
0.09307861 -0.05158104 2.8292975 0.05186574 0.022916451 -0.044410434 0.055760846 0.04743372
-0.11734755 0.09458712 -0.025504433 0.56624264 0.06505604 0.12690762 -0.16514783 0.02455455
0.06915666 -0.16727251 -0.046486422 -0.019448027 -0.17922384 -0.14093794 -0.027437396 0.17939188
-0.12627469 -0.11965584 -0.05524218 -0.09663348 0.043464378 0.11380352 0.048452944 -0.10872428
0.2180359 -0.03520059 0.1186991 -0.03218423 -0.104420766 -0.09949162 0.17046563 0.13788861
-0.14375742 -0.10204291 0.05181825 0.06603055 -0.13477914 0.09882878 0.09234737 0.13777596
-0.093068734 0.14268196 -0.02464354 0.038680926 -0.05318118 0.032301277 -0.098739505 -0.1267345
-0.0130749345 -0.050150827 0.06668614 -0.034256004 -0.124009795 0.124008566 -0.07411016 -0.1288184
-0.026095986 0.053271174 -0.14072505 -0.03286969 0.02212061 0.008812845 0.09889382 -0.05847302
0.10733199 -0.1292099 -0.036734447 0.13050842 0.14089912 0.067744255 -0.04622574 -0.014489725
0.01897709 -0.07414297 0.07172975 0.12617078 -0.10238423 0.12586886 -0.09523364 0.13967597
0.06971404 -0.050571233 -0.012829527 -0.12898111 -0.044502016 0.061211646 0.134166 0.00038585067
0.122077376 -0.07096215 0.58527994 -0.030501887 -0.08605734 -0.050252676 0.010996133 0.14060676
-0.034216706 0.041563585 -0.07193337 0.28528687 0.12351978 0.1126951 0.31798136 -0.062382944
0.11450559 0.04966393 -0.08415182 -0.027064346 0.09697876 0.0071391165 0.13341099 -0.08703445
0.12107459 0.07025717 0.055334583 0.046915665 0.09417467 0.7822589 -0.008129358 -0.07276851
-0.114660256 0.0062868446 0.13227728 0.07909721 -0.061099917 0.08559163 -0.15436539 -0.13194154
0.13975185 -0.046981484 -0.06562921 -0.12397521 0.6963767 0.018447682 -0.11026025 -0.019503444
-0.07415519 -0.111401215 2.7399092 0.0306274 -0.070950225 0.033956084 0.0086078495 0.055526033

conv2.bias f4 [32]
00000000: 144c cbbc fc8f edbc 396f 813d 9167 10be
00000010: da07 82be 19a0 583d 2d70 d73d 8562 8fbd
00000020: e9c8 933d ba33 04be d57d 0cbe b87a c13c
00000030: 784b 91bd db59 96bd 5ae0 583c b035 18bc
00000040: c47e 793e 9ef5 583d d6df ae3b ee07 e0bd
00000050: 5c10 f9bd 268e 0f3b f064 b1bd 0254 a8bd
00000060: efff a1bd b435 a73d 0dc5 163c 4861 053e
00000070: f0a5 5d3d 6c77 be3b e9e0 84bd d062 193c
-0.02481655 -0.028999321 0.06320042 -0.14102007 -0.25396615 0.052887056 0.10519443 -0.07001213
0.07216055 -0.12910357 -0.13719876 0.023618087 -0.07094473 -0.07341357 0.013237083 -0.009290144
0.24364763 0.052968614 0.005336742 -0.109390125 -0.121613234 0.0021904795 -0.086618304 -0.08219148
-0.079101436 0.0816454 0.009202254 0.13025391 0.05411333 0.005812576 -0.06488211 0.009361938

fc.weight f4 [1, 32]
00000000: 1b3c 2b3e 3607 a3bd f0d7 153f 8037 4b3c
00000010: 02ef fabe e481 983e 3564 64be e5a6 3fbe
00000020: 9cbf bb3c d45f 07bd 756a c7bc 9920 03be
00000030: 27af 4fbc 4871 7e3d b26e b4bd 01c1 9cbd
00000040: 8b8c 9ac0 eec1 28be 5501 403d 0ced 5d3d
00000050: 29da 22be 7a37 b43e e883 f6bd f039 9ebc
00000060: 0008 cb39 9be1 dfbd a60d 163f 5dfa 313e
00000070: 78b1 76be 197d 04be 4263 78bd d438 38be
0.16722147 -0.0796036 0.5853262 0.012403369 -0.49010473 0.297866 -0.22303851 -0.18716009
0.022918515 -0.033050373 -0.024342755 -0.12805404 -0.012676037 0.062119752 -0.08810176 -0.07654
-4.829656 -0.16480228 0.04687627 0.054181144 -0.15903534 0.35198575 -0.12036878 -0.019314736
0.00038725138 -0.10931703 0.58614576 0.17380662 -0.24091136 -0.12938346 -0.060641535 -0.17990428
