weight/from_0_to_01/best_MLP_FE.pth (torch, 11952 bytes, 5 tensors)

layers.0.weight f4 [64, 2]
1.8596228 -0.57495135 -0.7798149 -0.68413985 1.8812267 -0.0040975986 -0.21382885 -0.13387884
1.3578178 -0.20731725 -0.48389643 -0.554067 -0.69960254 -0.61880493 1.8588928 0.21999097
2.3344522 0.0020751597 0.26054636 -0.25996634 -0.14124218 -0.09835981 -0.43952933 0.13933855
0.21469486 -0.48877978 -0.1623922 0.35710484 -0.38736555 0.34663284 1.2000118 -0.60459566
-0.33574665 0.2979964 0.30969268 0.22064412 -0.4815472 -0.28095958 -0.11695809 0.5146915
0.98368275 -0.54686826 -0.03945297 -0.22734997 -4.4878073 0.39780214 -0.23659259 -0.45983094
-0.06253803 -0.28734702 3.1071167 -0.117319375 -2.0848684 0.56966484 -0.13798201 -0.2594474
2.2658672 0.54693985 0.05200845 -0.16358036 -0.09296286 -0.083025396 -0.05609131 0.33612537
0.69207823 0.22760057 2.0740974 -0.14598922 0.14330542 0.25843155 -0.17692228 -0.29442692
0.05145538 -0.26943722 0.13473117 -0.9314894 1.1903816 0.5904364 -0.18793035 0.46386752
0.6410455 -0.8431505 2.6268249 -0.14915238 -0.29189584 0.045853972 0.22616889 0.39248654
0.07974371 0.05117986 -0.14084718 0.24701844 0.67878085 0.5157132 0.007500116 -0.3130506
0.5300612 -0.43493685 -0.010506511 0.15238649 1.3227249 0.31331486 -0.5942672 -0.36928833
-0.13091207 -0.6188559 -0.87689126 -0.18634939 2.0458775 -0.012157746 0.4524284 -0.20345634
1.3181834 -0.39472324 0.3519145 0.5212905 0.47701555 -0.0009936386 0.7522277 -0.009861328
0.46703953 -0.691255 -0.35317558 -0.26976243 0.24408351 0.19484568 -0.40887374 -0.5173894
00000000: 1f08 ee3f 0330 13bf f3a1 47bf ca23 2fbf
00000010: 09cc f03f 2645 86bb f3f5 5abe 8917 09be
00000020: f9cc ad3f f94a 54be 46c1 f7be 56d7 0dbf
00000030: 2719 33bf 006a 1ebf 33f0 ed3f 5045 613e
00000040: aa67 1540 67ff 073b 5566 853e 4f1a 85be
00000050: caa1 10be de70 c9bd fd09 e1be c4ae 0e3e
00000060: f8d8 5b3e 5841 fabe 244a 26be 72d6 b63e
00000070: c754 c6be dc79 b13e fd99 993f c8c6 1abf
00000080: fce6 abbe fc92 983e 0a90 9e3e 88f0 613e
00000090: 5b8d f6be efd9 8fbe b987 efbd d2c2 033f
000000a0: a2d2 7b3f 8fff 0bbf 7099 21bd 6ece 68be
000000b0: 1e9c 8fc0 b9ac cb3e 5445 72be f66e ebbe
000000c0: f013 80bd 261f 93be 00db 4640 2445 f0bd
000000d0: 7c6e 05c0 8ed5 113f 284b 0dbe 4ad6 84be
000000e0: f803 1140 4004 0c3f d006 553d 9c81 27be
000000f0: 5063 bebd 3809 aabd 00c0 65bd a018 ac3e
00000100: 0a2c 313f 2010 693e 03be 0440 337e 15be
00000110: a8be 123e 2451 843e 1d2b 35be 20bf 96be
00000120: e0c2 523d adf3 89be f8f6 093e 1776 6ebf
00000130: 6d5e 983f d726 173f d070 40be 0b80 ed3e
00000140: 8f1b 243f b6d8 57bf e61d 2840 67bb 18be
00000150: 5f73 95be 60d1 3b3d d198 673e fff3 c83e
00000160: ac50 a33d f9a1 513d 3e3a 10be 67f2 7c3e
00000170: 95c4 2d3f c805 043f 88c3 f53b 2b48 a0be
00000180: 17b2 073f 0bb0 debe 8023 2cbc 340b 1c3e
00000190: 0d4f a93f ce6a a03e e521 18bf 5c13 bdbe
000001a0: d00d 06be 576d 1ebf f27b 60bf 60d2 3ebe
000001b0: a8ef 0240 4831 47bc b2a4 e73e dc56 50be
000001c0: 3cba a83f 2a19 cabe 232e b43e 4b73 053f
000001d0: 623b f43e fb3c 82ba ff91 403f 6891 21bc
000001e0: ce1f ef3e 16f6 30bf 6ed3 b4be 4d1e 8abe
000001f0: 07f1 793e a085 473e e657 d1be a273 04bf

layers.0.bias f4 [64]
0.5762845 -6.671407e-05 -0.0058784215 0.14388159 -0.15626778 -1.1543924e-05 -0.12152767 -0.22004472
-0.021538198 -0.060076073 0.31226215 -0.3003601 -0.70260656 -0.35718003 -0.11256383 0.48893958
-0.2982278 -0.3123022 -0.41908264 0.026318256 0.22393529 -0.21499443 -0.0006630357 0.18806008
-0.4419434 0.032056972 -0.39586547 -0.019026935 0.30256936 -0.45854634 -0.48984027 -0.33987743
0.61628795 0.49205235 -0.40190786 0.2694285 -0.4759003 -0.010229869 0.25874093 0.45520478
-0.0012643189 0.4622388 -0.088522136 -0.17878103 -0.14321907 0.084809765 -0.51716816 0.004286121
-0.46195388 -0.3384719 0.61884767 -0.19887608 -0.09149766 0.6288025 -0.0107838055 -0.43251896
0.493243 -0.53981835 -0.019254243 -0.0103254635 -0.54944444 -0.37226185 -0.14777035 -0.5557438
00000000: 6287 133f d8e8 8bb8 c69f c0bb b255 133e
00000010: a904 20be c7ac 41b7 80e3 f8bd 6753 61be
00000020: e070 b0bc 5412 76bd d3e0 9f3e cdc8 99be
00000030: 06de 33bf 4de0 b6be de87 e6bd 4a56 fa3e
00000040: 50b1 98be 13e6 9fbe 0092 d6be 6299 d73c
00000050: 4b4f 653e 8027 5cbe 93cf 2dba d292 403e
00000060: 6846 e2be 2c4e 033d e1ae cabe 60de 9bbc
00000070: 5fea 9a3e 96c6 eabe 58cc fabe 6a04 aebe
00000080: 0cc5 1d3f 49ee fb3e dec6 cdbe 88f2 893e
00000090: 34a9 f3be 2e9b 27bc b179 843e 9a10 e93e
000000a0: 81b7 a5ba 90aa ec3e 184b b5bd 6012 37be
000000b0: 05a8 12be beb0 ad3d 2265 04bf 9772 8c3b
000000c0: 3885 ecbe 304c adbe cd6c 1e3f 2ca6 4bbe
000000d0: 2063 bbbd 33f9 203f 8fae 30bc 2073 ddbe
000000e0: 598a fc3e 8931 0abf 13bb 9dbc 222c 29bc
000000f0: 64a8 0cbf 1b99 bebe 1c51 17be 3a45 0ebf

layers.2.weight f4 [32, 64]
0.040966094 0.045656644 0.009945159 0.050315544 -0.9725033 -0.042616755 0.03665729 -0.049635883
-0.006819675 0.08274968 -0.01016272 0.098607466 0.08539836 -0.06121393 -0.11106672 0.031044649
-0.12919983 -0.08599803 0.10695934 0.07437088 0.07654972 0.010833725 0.07477778 -0.078381404
-0.09762193 0.0335106 -0.0034590268 0.05178371 0.11228611 0.03174217 -0.024941161 -0.009541903
0.04391492 0.0947579 0.050963387 -0.06942299 -0.054655343 -0.07351792 0.1151207 -0.0052020876
0.09842403 0.06992267 0.07914296 -0.026454387 -0.07448183 0.10402694 0.07119911 0.078788325
0.032039374 0.09343286 0.036088854 -0.003847137 -0.033424184 0.057614926 0.41055176 0.04585944
0.10670327 -0.018432656 -0.0995545 -0.07529538 0.071840286 -0.11394191 0.03587431 -0.011565983
0.028903065 0.011859845 0.35028452 -0.10908906 -0.6357501 -0.019049855 0.09475066 -0.05794006
-0.13785698 0.09265317 -0.04487085 0.08778596 0.09889163 0.040818214 -0.02715099 0.058238003
-0.060783222 -0.09373046 -0.01807578 0.091377266 -0.0823505 0.028701633 -0.08571479 -0.0856845
-0.055707857 -0.06763283 0.08646563 0.096655816 -0.057916064 -0.09089096 0.010565281 0.0322688
-0.0062791295 0.029654298 -0.024379224 0.084960796 0.047037765 -0.14056693 0.06805458 -0.0928419
-0.12525712 -0.14572339 -0.07112269 -0.067852244 -0.04206215 -0.03521713 0.034714576 -0.07871518
0.11286034 0.096242204 -0.10729571 0.018254757 0.06498824 0.01925847 0.24933544 -0.07390112
0.052866414 -0.034181066 -0.00973139 0.06341198 0.00076161325 0.05845134 0.05208573 -0.08226423
-0.05553969 0.08664804 -0.17732173 -2.0507305 0.8886683 -0.1466974 0.10934365 -0.06987068
0.06463438 0.117543586 0.052061975 -0.085495874 -0.044732153 0.00015769088 -0.061555427 -0.027725395
0.07527162 0.1801031 -0.016538948 -0.12763488 0.029015746 -0.117785275 -0.01141604 0.79549277
0.0891656 0.054037392 -0.015755575 0.014774501 0.025881778 -0.018900007 -0.027968526 0.12171087
-0.04663437 0.062326174 0.028649643 0.04262129 0.047177494 0.1063878 -0.06985607 -0.05021696
0.09402805 0.04375299 0.032386333 -0.030907508 0.10902187 -0.79345185 0.011450059 -0.7901757
-0.07122539 0.07894379 0.06510731 -0.01791875 0.06408276 -0.41742992 -0.2761987 0.0021377206
-0.10668879 0.11469991 -0.10029022 -0.090580955 -0.061780617 0.0667717 0.07952996 0.028450191
0.054143593 -0.09997762 0.65259343 0.26450583 -2.8804483 -0.039018907 -0.04994212 0.49110538
0.11186858 -2.014996 -0.009319077 0.056766316 -0.08901189 -0.41929555 0.40575787 0.04466189
-0.113105126 -2.5409243 0.08501513 -0.31043226 0.13134909 0.057923943 -0.04479839 -0.2744338
0.029606491 0.0800088 -0.0562245 -0.039879546 -0.15853633 0.06678128 -0.009464785 0.07494863
-0.026135474 -0.021992218 0.117805436 0.1445196 0.012059987 0.21094985 -0.116847426 -0.1629077
0.20020595 0.07592482 -0.112725526 0.44686112 -0.10114387 -0.18119161 -0.23778792 2.3653038
-0.09573476 0.08721547 -0.17507385 -0.09753692 0.06199427 0.026508482 0.63899225 0.0724829
-0.07058521 1.00936 -0.034731656 0.0108879525 0.010942444 -0.08575232 -0.02528669 0.12435724
00000000: 10cc 273d 7602 3b3d 05f1 223c ac17 4e3d
00000010: faf5 78bf e88e 2ebd f425 163d ff4e 4bbd
00000020: 9577 dfbb aa78 a93d 8a81 26bc b6f2 c93d
00000030: 56e5 ae3d 75bb 7abd f376 e3bd 5951 fe3c
00000040: f64c 04be bc1f b0bd 800d db3d c34f 983d
00000050: 19c6 9c3d f07f 313c 1825 993d 6e86 a0bd
00000060: 02ee c7bd 6942 093d d7b0 62bb 281b 543d
00000070: 43f6 e53d 1404 023d 6851 ccbc a455 1cbc
00000080: 22e0 333d 6e10 c23d fcbe 503d a42d 8ebd
00000090: 48de 5fbd 9090 96bd 67c4 eb3d 4676 aabb
000000a0: 8a92 c93d 9e33 8f3d b415 a23d dfb6 d8bc
000000b0: ee89 98bd 140c d53d d7d0 913d c65b a13d
000000c0: b83b 033d ba59 bf3d e8d1 133d 4020 7cbb
000000d0: cce7 08bd a1fd 6b3d d733 d23e 1cd7 3b3d
000000e0: 3e87 da3d 1500 97bc 3be3 cbbd 7734 9abd
000000f0: 0021 933d 605a e9bd f1f0 123d 407f 3dbc
00000100: 1fc6 ec3c cc4f 423c 7e58 b33e 166a dfbd
00000110: 85c0 22bf 710e 9cbc a20c c23d 8e52 6dbd
00000120: 612a 0dbe f2c0 bd3d 7fca 37bd 20c9 b33d
00000130: b287 ca3d 0031 273d c16b debc f98a 6e3d
00000140: d4f7 78bd c1f5 bfbd a813 94bc 0124 bb3d
00000150: 61a7 a8bd b01f eb3c 3c8b afbd 5b7b afbd
00000160: ec2d 64bd 1583 8abd e414 b13d 7cf3 c53d
00000170: 6539 6dbd 0a25 babd 001a 2d3c 4a2c 043d
00000180: 28c1 cdbb 92ed f23c f0b6 c7bc edff ad3d
00000190: acaa 403d c7f0 0fbe 3360 8b3d e523 bebd
000001a0: 6743 00be 8338 15be c6a8 91bd 1ef6 8abd
000001b0: 5c49 2cbd d63f 10bd df30 0e3d 6d35 a1bd
000001c0: 5223 e73d a21a c53d dabd dbbd 008b 953c
000001d0: 8e18 853d f0c3 9d3c ca51 7f3e 7859 97bd
000001e0: 748a 583d 7201 0cbd 6870 1fbc 24de 813d
000001f0: 00a7 473a ac6a 6f3d d957 553d 267a a8bd
00000200: 967d 63bd 8774 b13d d493 35be 2b3f 03c0
00000210: c47f 633f d837 16be 90ef df3d 5c18 8fbd
00000220: 085f 843d b1ba f03d f03e 553d 7618 afbd
00000230: 1039 37bd d359 2539 8b21 7cbd 5e20 e3bc
00000240: 0228 9a3d f26c 383e b07c 87bc b8b2 02be
00000250: 6eb2 ed3c 6839 f1bd 580a 3bbc 6aa5 4b3f
00000260: 749c b63d 5056 5d3d d611 81bc c010 723c
00000270: 0606 d43c 30d4 9abc 401e e5bc 8c43 f93d
00000280: ae03 3fbd bb49 7f3d a8b2 ea3c a993 2e3d
00000290: 303d 413d d9e1 d93d b310 8fbd 4db0 4dbd
000002a0: c791 c03d 5636 333d 88a7 043d be31 fdbc
000002b0: dc46 df3d a91f 4bbf 0799 3b3c f448 4abf
000002c0: 9ede 91bd 48ad a13d fb56 853d 58ca 92bc
000002d0: d23d 833d 60b9 d5be ea69 8dbe 0019 0c3b
000002e0: a77f dabd c9e7 ea3d f564 cdbd 8282 b9bd
000002f0: ac0d 7dbd 9abf 883d 9be0 a23d 6010 e93c
00000300: acc5 5d3d 11c1 ccbd 5d10 273f 4f6d 873e
00000310: 4459 38c0 4ad2 1fbd 1c90 4cbd 2a72 fb3e
00000320: 5b1b e53d b2f5 00c0 0baf 18bc cc83 683d
00000330: de4b b6bd e8ad d6be 7fbf cf3e 63ef 363d
00000340: a9a3 e7bd 819e 22c0 6a1c ae3d faf0 9ebe
00000350: 6080 063e a841 6d3d 847e 37bd 9682 8cbe
00000360: 5089 f23c a7db a33d a94b 66bd bc58 23bd
00000370: 5957 22be a0c4 883d 3012 1bbc ab7e 993d
00000380: 101a d6bc 0629 b4bc fa43 f13d f2fc 133e
00000390: 4097 453c 3d03 583e b44d efbd 47d1 26be
000003a0: ca02 4d3e 797e 9b3d a4dc e6bd fbca e43e
000003b0: 8424 cfbd 4b8a 39be ad7e 73be 2361 1740
000003c0: 9610 c4bd 069e b23d 8f46 33be 70c1 c7bd
000003d0: b4ed 7d3d 5128 d93c ff94 233f ea71 943d
000003e0: fb8e 90bd b532 813f c842 0ebd 6263 323c
000003f0: f047 333c ea9e afbd 0826 cfbc 02af fe3d

layers.2.bias f4 [32]
0.100396834 -0.022528714 -0.04508782 -0.07455731 0.041499775 -0.0006528497 0.047205895 0.064313434
0.088430084 -0.002796285 0.09805583 -0.050396413 -0.05476879 0.051464822 -0.16765305 -0.02248945
0.04041639 -0.124236345 -0.03804739 -0.08787511 0.080143794 0.020112298 0.0261423 0.015202516
-0.01628275 0.011759043 -0.08987988 -0.030103693 -0.12043335 -0.010361426 -0.011747194 -0.0102863405
00000000: db9c cd3d 238e b8bc 02ae 38bd 81b1 98bd
00000010: abfb 293d 0024 2bba f85a 413d c3b6 833d
00000020: d51a b53d e141 37bb 7fd1 c83d 786c 4ebd
00000030: 3d55 60bd c7cc 523d 3ead 2bbe cc3b b8bc
00000040: a88b 253d a06f febd 94d7 1bbd def7 b3bd
00000050: 6e22 a43d 8cc2 a43c 6028 d63c f913 793c
00000060: 6763 85bc 00a9 403c f112 b8bd 059c f6bc
00000070: c3a5 f6bd f8c2 29bc 4e77 40bc 0a88 28bc

layers.4.weight f4 [1, 32]
0.10071463 0.024325002 -0.03747864 -0.41713145 0.022261862 0.070660904 0.09260979 -0.022618355
-0.010469909 0.07070344 -0.05713794 -0.065575145 -0.13165577 0.0078121824 0.2651056 0.029658606
-0.03736985 0.093432024 -0.1603891 0.057342615 -0.013777587 -0.1342999 -0.118124634 -0.00075528404
0.006172061 0.032610342 0.020297762 -1.3706751 -0.092077255 -0.20686546 -0.0012951723 0.02806785
00000000: 7943 ce3d 3a45 c73c 3483 19bd 4192 d5be
00000010: 825e b63c aab6 903d 34aa bd3d 214a b9bc
00000020: fb89 2bbc f7cc 903d 7909 6abd 434c 86bd
00000030: c5d0 06be 56fd ff3b ecbb 873e 9bf6 f23c
00000040: 2111 19bd 4a59 bf3d 0a3d 24be 17e0 6a3d
00000050: 63bb 61bc ea85 09be 54eb f1bd 41fe 45ba
00000060: 003f ca3b 6c92 053d 7e47 a63c 4872 afbf
00000070: 0093 bcbd 8ad4 53be c5c2 a9ba 8cee e53c
