weight/from_0_to_01/best_MLP_OR.pth (torch, 11952 bytes, 5 tensors)

layers.0.weight f4 [64, 2]
0.30275637 -0.11840989 -1.7872989 0.17054692 -2.0527992 0.9989795 0.20950413 -0.13132676
-0.5603495 -0.3209823 -0.7262983 0.40872884 0.18094015 0.9198756 -0.49853015 -0.24241264
-0.06476009 0.5272501 -0.7493822 0.53848624 0.7010784 0.5386815 0.21543437 -0.5995997
-0.06613301 -0.47792733 -0.284017 -0.5702917 -0.014925301 -0.34622464 -0.23507825 -0.26134038
0.3111426 -0.33939776 -3.395694 0.3239234 0.60488456 0.4598738 0.37648097 -0.31356415
-0.19706102 0.011765748 0.06352409 0.43802187 -0.4062465 -1.0251387 -0.38970923 -0.34262303
0.25017652 -0.19490407 -0.6279534 -0.037249386 -0.14958093 -0.112801164 0.5634315 0.08883566
0.3485834 -0.16020757 0.5033069 -0.5699202 0.04211296 -0.23004289 -0.6336118 -0.011599215
-0.762311 0.31791303 -0.23155832 0.69976825 -0.5476372 0.21659237 0.21679604 -0.6833141
0.04327655 0.0069850087 -0.7217286 0.6610601 -0.55244446 0.23060478 -2.9898648 0.94933957
-0.45551792 0.6778942 0.028044164 -0.06539941 -0.7073393 0.016708246 -0.64876556 0.34810692
0.073953144 -0.26407817 -0.6504178 -0.6897368 0.022325078 -0.5023636 -0.2689047 -0.46456236
0.1567154 0.16836816 -0.16090246 0.34617567 0.016178308 -0.033040605 -0.46511227 0.73233217
0.013296199 -0.0034516437 -0.19921647 0.92824453 0.29251343 1.1252424 -0.20770119 0.3147034
0.20094945 0.71014154 0.37362403 0.29906127 -0.60905397 -0.3749807 0.101886235 -0.0052550854
-0.55643404 0.48304677 0.3865971 0.7218481 0.21731146 -0.098890565 0.26804477 -0.74118155
00000000: e202 9b3e e280 f2bd 36c6 e4bf daa3 2e3e
00000010: 1061 03c0 1fbd 7f3f 4088 563e 867a 06be
00000020: 1173 0fbf cb57 a4be afee 39bf e844 d13e
00000030: 6048 393e f87c 6b3f 583f ffbe 053b 78be
00000040: f0a0 84bd ddf9 063f 83d7 3fbf 3cda 093f
00000050: e079 333f 08e7 093f d49a 5c3e 5e7f 19bf
00000060: be70 87bd e4b2 f4be ad6a 91be a3fe 11bf
00000070: 4089 74bc 5b44 b1be 5ab8 70be 68ce 85be
00000080: 154e 9f3e 8bc5 adbe 0d53 59c0 4ad9 a53e
00000090: b7d9 1a3f 9474 eb3e 1dc2 c03e 7b8b a0be
000000a0: 5dca 49be 20c5 403c eb18 823d 6744 e03e
000000b0: 8bff cfbe bf37 83bf f887 c7be 496c afbe
000000c0: 2317 803e ef94 47be 8ec1 20bf d092 18bd
000000d0: be2b 19be 4c04 e7bd 0c3d 103f 78ef b53d
000000e0: 8679 b23e 740d 24be b9d8 003f 4ae6 11bf
000000f0: a47e 2c3d 5d90 6bbe 6234 22bf a20a 3ebc
00000100: d026 43bf 7fc5 a23e a01d 6dbe 0324 333f
00000110: f431 0cbf 64ca 5d3e c8ff 5d3e aced 2ebf
00000120: c042 313d 80e2 e43b 35c3 38bf 3c3b 293f
00000130: 006d 0dbf a923 6c3e f259 3fc0 eb07 733f
00000140: a539 e9be 798a 2d3f e0bc e53c 20f0 85bd
00000150: 3014 35bf bbdf 883c 8015 26bf 123b b23e
00000160: bf74 973d 4135 87be c881 26bf 9792 30bf
00000170: 15e3 b63c e79a 00bf e0ad 89be 1edb edbe
00000180: 007a 203e b468 2c3e 9dc3 24be f03d b13e
00000190: 5f88 843c 9655 07bd 3223 eebe 1f7a 3b3f
000001a0: 4dd8 593c f934 62bb 67ff 4bbe 6fa1 6d3f
000001b0: 52c4 953e f107 903f 9faf 54be ce20 a13e
000001c0: b1c5 4d3e d6cb 353f a64b bf3e 8f1e 993e
000001d0: f6ea 1bbf 78fd bfbe bba9 d03d da32 acbb
000001e0: 7672 0ebf e851 f73e 0ef0 c53e 09cb 383f
000001f0: e586 5e3e 2387 cabd 2a3d 893e 13be 3dbf

layers.0.bias f4 [64]
0.049669143 0.51729435 0.2923808 -0.12263419 -0.11065638 0.3307578 -0.109726995 0.44643545
-0.6629086 0.51666915 -0.45614758 -0.61428154 0.15264536 -0.043925107 -0.6209475 -0.19750947
-0.08620564 0.26581192 -0.30020466 0.36028802 0.3422864 -0.04179516 0.31027153 -0.68194246
-0.10040967 -0.59060436 0.19027926 -0.15798742 -0.2661854 -0.52914906 0.20615277 0.61118674
0.26939574 0.13476455 -0.43108562 -0.5541121 -0.5144205 0.4525242 0.3946162 0.0053664832
0.2811605 -0.14743239 0.4434149 0.46533653 0.37999195 -0.5009736 0.23214245 0.38631988
-0.52432466 0.41654718 0.2414101 0.14461388 -0.011784386 0.097571895 -0.5022227 0.09414902
-0.27368408 -0.029447868 -0.46189994 0.47860324 0.1496062 -0.33875543 0.03186095 0.2295854
00000000: df71 4b3d 676d 043f f0b2 953e a227 fbbd
00000010: d09f e2bd 1659 a93e 8cb8 e0bd 3093 e43e
00000020: 61b4 29bf 6e44 043f 2d8c e9be 8e41 1dbf
00000030: 114f 1c3e d0ea 33bd 6af6 1ebf ec3f 4abe
00000040: 958c b0bd 8018 883e 6db4 99be ac77 b83e
00000050: 2a40 af3e 6731 2bbd e9db 9e3e c893 2ebf
00000060: 96a3 cdbd d931 17bf 91d8 423e 74c7 21be
00000070: 7449 88be 5076 07bf b619 533e bc76 1c3f
00000080: 3dee 893e b8ff 093e 41b7 dcbe 4ada 0dbf
00000090: 10b1 03bf 40b1 e73e 220b ca3e 53d9 af3b
000000a0: 45f4 8f3e 84f8 16be 4707 e33e 9740 ee3e
000000b0: 4e8e c23e ce3f 00bf c0b6 6d3e b8cb c53e
000000c0: 243a 06bf ac45 d53e 3634 773e a915 143e
000000d0: 4c13 41bc c6d3 c73d ab91 00bf 34d1 c03d
000000e0: 5220 8cbe a83c f1bc 267e ecbe 7c0b f53e
000000f0: 5e32 193e 5a71 adbe a180 023d 6f18 6b3e

layers.2.weight f4 [32, 64]
0.07536264 0.07075166 0.020085054 -0.02929372 -0.10699335 -0.10815474 -0.07761215 0.046130676
-0.042364255 0.012516638 -0.04729521 0.06512718 0.06770737 0.07427578 -0.070479766 -0.09210327
-0.15300393 0.028773895 -0.00022058905 -0.032283228 -0.11349744 0.07387815 0.12477698 -0.07026017
-0.07489821 -0.094220206 -0.07280517 -0.08936686 -0.052079678 0.061376974 -0.15308124 0.04565843
0.050418694 0.042544767 -0.09769894 -0.111160114 -0.08647211 -0.14910191 0.060355034 0.08849502
-0.04491507 -0.062167957 0.07060717 -0.0033157195 -0.040541805 0.036945745 -0.04919452 -0.08149524
0.013232663 0.038346678 0.03247732 0.056836028 0.009256491 0.011560421 -0.075738 -0.06266947
-0.07025777 0.025341868 0.045760185 -0.076236926 -0.05680086 0.019395594 0.04339978 0.058467507
0.007097262 0.015280211 0.046332758 -0.11773075 -0.063354224 -0.08598194 -0.041509148 0.043257684
-0.09900673 -0.107278295 -0.014446141 -0.06660485 0.0086028585 0.12250315 0.12428217 -0.078208864
0.08366694 0.00024836816 -0.0683399 0.0346526 -0.119044356 -0.04290979 -0.0035683038 -0.01652968
-0.12913917 0.056070954 -0.035425972 -0.08177512 0.06316221 0.02905567 0.071736015 0.0023765701
0.06091852 -0.043781005 0.086159766 -0.036415935 -0.08502361 -0.13252445 -0.027258703 0.044805266
-0.059025224 0.058043674 0.071798645 -0.109412186 -0.12266856 -0.0030807555 -0.1026033 -0.02034189
0.05793561 0.098722376 -0.102454685 0.020741882 -0.06422252 0.06198215 -0.1072903 -0.044886187
-0.12921284 -0.046197142 -0.08616315 0.008862143 0.008812377 -0.00895368 0.055476826 0.089199886
0.10113823 -0.03418287 -0.12694179 -0.04391551 -0.07979517 0.07013317 0.07989759 -0.03669262
-0.042693004 -0.050932594 0.07612842 -0.044985905 -0.0390272 0.01681672 0.0894434 -0.080449596
-0.009325798 -0.13016567 -0.006725942 0.011776468 -0.10329864 0.10120761 0.039481025 -0.11063762
0.059303395 -0.07882397 0.085269675 0.033656754 -0.113779634 0.10432629 0.046869162 0.08447439
-0.005438061 0.06896151 -0.015485004 -0.053499207 0.026481643 -0.031436153 -0.08024281 -0.104860485
-0.13193837 0.06988323 0.012710853 -0.07022991 -0.050673068 0.048712045 0.0591353 0.03447817
0.06736496 0.114368446 -0.05303105 0.01954243 -0.055931307 -0.108932614 0.03328794 0.04152967
-0.072437726 -0.09882751 0.110000685 0.066943966 -0.044375967 -0.112952776 -0.07184037 -0.08275476
-0.0013056186 0.33087143 1.2630111 -0.122491494 -0.06978357 0.22886074 -0.09908801 0.0150440335
-0.10789235 0.0012621371 0.055561524 -0.08432864 -0.09049919 -0.110921234 0.10140377 -0.040647537
-0.41560733 2.3087575 -0.08219139 0.026082154 0.10104809 0.08503349 0.2508784 0.020274103
-1.4399939 -0.068949595 -0.117851414 -0.12672621 0.0016787946 -0.08037113 0.068751894 0.072135
0.51058686 -0.09140884 -0.002292797 -0.08107656 -0.11620471 -0.047749534 0.10453655 0.23649964
-0.08319651 -0.0037174523 0.30475315 -0.0019244722 0.07672037 -0.11549881 -0.18191157 -0.110551246
-0.012367547 -0.12616132 -0.10308891 0.113140225 -0.05905218 0.38787624 -0.41899937 0.69114935
0.017182112 0.043071277 0.058226094 0.050626285 0.31920463 -0.15265404 0.068114996 -0.15054694
00000000: ba57 9a3d 3fe6 903d 6989 a43c 62f9 efbc
00000010: 541f dbbd 3b80 ddbd 1ef3 9ebd 85f3 3c3d
00000020: 2486 2dbd 9612 4d3c 9fb8 41bd 6661 853d
00000030: 29aa 8a3d e61d 983d b257 90bd a4a0 bcbd
00000040: 10ad 1cbe 3bb7 eb3c ec4d 67b9 6b3b 04bd
00000050: 5971 e8bd 6d4d 973d 138b ff3d 90e4 8fbd
00000060: 3c64 99bd 86f6 c0bd e11a 95bd f905 b7bd
00000070: 8051 55bd 6c66 7b3d 54c1 1cbe 5504 3b3d
00000080: d583 4e3d 6c43 2e3d 6216 c8bd eaa7 e3bd
00000090: 4a18 b1bd 2cae 18be d736 773d e13c b53d
000000a0: ddf8 37bd d4a3 7ebd 7e9a 903d 8b4c 59bb
000000b0: 2a0f 26bd 6c54 173d 3180 49bd fae6 a6bd
000000c0: d0cd 583c 6811 1d3d f006 053d e5cc 683d
000000d0: 8aa8 173c ec67 3d3c 861c 9bbd da58 80bd
000000e0: 4ee3 8fbd c099 cf3c 086f 3b3d 1b22 9cbd
000000f0: 05a8 68bd 82e3 9e3c f8c3 313d a07b 6f3d
00000100: 2690 e83b da59 7a3c 6bc7 3d3d d21c f1bd
00000110: dcbf 81bd 4d17 b0bd 7f05 2abd f82e 313d
00000120: 0ac4 cabd b9b4 dbbd 82af 6cbc 2068 88bd
00000130: 01f3 0c3c eee2 fa3d a687 fe3d f82b a0bd
00000140: 9359 ab3d 6937 8239 caf5 8bbd e2ef 0d3d
00000150: 87cd f3bd 2dc2 2fbd 34da 69bb 4069 87bc
00000160: 0f3d 04be a8aa 653d d31a 11bd b779 a7bd
00000170: 305b 813d 2806 ee3c 55ea 923d 3bc0 1b3b
00000180: b385 793d b653 33bd 8874 b03d e028 15bd
00000190: dc20 aebd 7db4 07be a54d dfbc ba85 373d
000001a0: 6fc4 71bd 34bf 6d3d 2b0b 933d 7f13 e0bd
000001b0: a739 fbbd 80e6 49bb ae21 d2bd 09a4 a6bc
000001c0: e44d 6d3d f52e ca3d c3d3 d1bd e1ea a93c
000001d0: 1987 83bd ffe0 7d3d 04bb dbbd 94da 37bd
000001e0: 5f50 04be 3739 3dbd 4e76 b0bd 8632 113c
000001f0: ca61 103c 75b2 12bc ab3b 633d 6eae b63d
00000200: 8f21 cf3d 5603 0cbd 07fd 01be c0e0 33bd
00000210: a66b a3bd fba1 8f3d 59a1 a33d 004b 16bd
00000220: dcde 2ebd b29e 50bd 38e9 9b3d 2443 38bd
00000230: fcda 1fbd 38c3 893c 1a2e b73d c2c2 a4bd
00000240: 3bcb 18bc 264a 05be 4a65 dcbb 16f2 403c
00000250: 3d8e d3bd ef45 cf3d dbb6 213d fa95 e2bd
00000260: 1ee8 723d 766e a1bd dea1 ae3d aadb 093d
00000270: 4c05 e9bd 06a9 d53d e1f9 3f3d e900 ad3d
00000280: c331 b2bb b13b 8d3d d0b4 7dbc fc21 5bbd
00000290: 08f0 d83c 32c3 00bd 5856 a4bd 18c1 d6bd
000002a0: da1a 07be f01e 8f3d 2e41 503c b3d4 8fbd
000002b0: 908e 4fbd 4886 473d db37 723d fb38 0d3d
000002c0: a4f6 893d 013a ea3d 1637 59bd 7217 a03c
000002d0: 3a18 65bd 1018 dfbd ef58 083d 041b 2a3d
000002e0: 3b5a 94bd 1466 cabd 0a48 e13d eb19 893d
000002f0: 93c3 35bd c953 e7bd 0b21 93bd 547b a9bd
00000300: 4a21 abba fb67 a93e 59aa a13f d2dc fabd
00000310: b0ea 8ebd 785a 6a3e a8ee cabd 407b 763c
00000320: aaf6 dcbd 4b6e a53a 7b94 633d 7eb4 acbd
00000330: a457 b9bd ac2a e3bd c8ac cf3d 087e 26bd
00000340: 7cca d4be afc2 1340 f653 a8bd 3eaa d53c
00000350: 4df2 ce3d 0a26 ae3d 2273 803e e015 a63c
00000360: b851 b8bf 7235 8dbd 155c f1bd 84c4 01be
00000370: 000b dc3a 9e99 a4bd cbcd 8c3d 84bb 933d
00000380: d2b5 023f 8f34 bbbd c042 16bb 780b a6bd
00000390: bcfc edbd 0495 43bd 4217 d63d f62c 723e
000003a0: ef62 aabd 80a0 73bb 9b08 9c3e 923e fcba
000003b0: 921f 9d3d a48a ecbd 0747 3abe b168 e2bd
000003c0: 40a1 4abc 6f30 01be 4720 d3bd 10b6 e73d
000003d0: b3e0 71bd b797 c63e 1687 d6be 2aef 303f
000003e0: 80c1 8c3c 826b 303d 7c7e 6e3d 825d 4f3d
000003f0: ca6e a33e 5751 1cbe e07f 8b3d fa28 1abe

layers.2.bias f4 [32]
-0.12439289 0.023937572 -0.073120095 0.05046271 0.06652969 -0.022714915 -0.04559685 0.054717023
-0.032184545 0.040249415 -0.02197069 -0.103932075 0.05978118 0.086387195 -0.11654869 -0.015006163
-0.052171335 0.010213472 -0.12996057 0.0018517392 0.05675066 0.001253948 0.07106374 0.13094099
0.037323754 -0.020433825 -0.021002218 0.081451036 -0.05821261 0.046206422 -0.009600667 -0.14819327
00000000: b3c1 febd ba18 c43c fdbf 95bd fdb1 4e3d
00000010: b840 883d a114 babc c3c3 3abd f51e 603d
00000020: f1d3 03bd 92dc 243d e0fb b3bc 57da d4bd
00000030: 1cdd 743d c5eb b03d 14b1 eebd 69dc 75bc
00000040: 9cb1 55bd 6856 273c 6214 05be 0fb6 f23a
00000050: 6173 683d 835b a43a de89 913d 6515 063e
00000060: cbe0 183d d664 a7bc d80c acbc cdcf a63d
00000070: 5970 6ebd f242 3d3d 1e4c 1dbc fabf 17be

layers.4.weight f4 [1, 32]
0.097855054 -0.114739634 -0.0051649786 -0.12561503 0.1746247 0.06993682 -0.42812338 0.030984228
0.038126383 -0.2162186 0.0049253404 0.28155404 0.008829579 0.22123168 0.09565483 -0.11750286
0.031294063 0.25466108 -0.05375643 -0.2397037 -0.05380314 0.023886774 -0.06790818 -0.15585956
0.18643391 -0.042369876 -0.12772062 -0.10355033 -0.086906746 -0.114681885 -0.14131522 -0.14838727
00000000: 3b68 c83d 9dfc eabd fb3e a9bb 3aa1 00be
00000010: d1d0 323e 093b 8f3d fd32 dbbe a3d2 fd3c
00000020: 692a 1c3d 6968 5dbe c064 a13b da27 903e
00000030: f0a9 103c 8f8a 623e aee6 c33d 57a5 f0bd
00000040: 342e 003d f062 823e b42f 5cbd e374 75be
00000050: ae60 5cbd 32ae c33c 7213 8bbd a699 1fbe
00000060: 88e8 3e3e 098c 2dbd 32c9 02be 3212 d4bd
00000070: 2afc b1bd 56de eabd f0b4 10be d5f2 17be
