weight/from_0_to_01/best_RNNRegressor_FE.pth (torch, 7498 bytes, 5 tensors)

rnn.weight_ih_l0 f4 [32, 2]
000000 c1 9a 08 bf 35 85 03 3e f3 e9 98 3e 2c e3 df bd
       -0.53361136 0.12843783 0.2986599 -0.109320015
000010 32 09 80 41 a4 36 91 b8 c6 ef f4 bf 00 b8 04 be
       16.00449 -6.9243164e-05 -1.9135673 -0.12960815
000020 af 0d a2 3c ee ef 14 39 3b 1f 81 3d 4b 98 a7 3a
       0.019781915 0.0001420376 0.06304785 0.0012786476
000030 e9 29 5a 3c a5 50 67 ba 15 a8 08 3f c3 23 a1 bc
       0.013315656 -0.00088239677 0.5338147 -0.019670373
000040 42 c9 cb bc eb 0c 46 3a a5 0e c9 bd c5 5b ea ba
       -0.02487624 0.00075550255 -0.09817246 -0.0017880133
000050 fd 05 bd 3c 7b ea 91 3a 99 e1 30 bd 03 f1 d7 3a
       0.023074144 0.0011132503 -0.043183897 0.0016475025
000060 38 ce b2 bd 66 3a 99 3a f9 3f a9 bf d3 82 01 bd
       -0.08730739 0.0011690378 -1.3222648 -0.031618904
000070 3b 20 13 bd 47 b4 86 3a d8 35 f4 bc 0b de 25 3b
       -0.03591941 0.0010277116 -0.029810831 0.002530935
000080 0f 5b e2 c1 0e c2 17 3d 4d 71 d5 c0 e9 2f 6a bd
       -28.294462 0.0370503 -6.6700807 -0.057174597
000090 af 78 ef be dd 82 02 37 31 2b c9 bf 2a 2c 8d bd
       -0.46771762 7.779073e-06 -1.5716306 -0.06893189
0000a0 e6 d1 53 3f 37 f7 33 3d 7b 1a dd 41 48 37 5e bd
       0.82742155 0.043936934 27.63793 -0.05425194
0000b0 ea 85 b4 bd 78 cb 84 3e 04 2e b4 bd a8 d3 38 be
       -0.088146046 0.25936484 -0.08797839 -0.1804949
0000c0 41 3a ec c1 c6 a1 c1 3d aa e8 dd c0 5f 57 6c 3d
       -29.528444 0.09454684 -6.9346514 0.05770051
0000d0 b7 79 ae bd 36 3c a7 ba 70 bb 19 3e 1b 6e 3e be
       -0.08519309 -0.0012759033 0.15012908 -0.1859669
0000e0 53 da c1 bf 1b 0c 90 bd aa 09 ea 3f af 88 ed 3d
       -1.5144752 -0.07033559 1.8284199 0.11598336
0000f0 40 25 39 bc 01 37 5c 39 fb 67 be bb c7 30 99 ba
       -0.011300385 0.00021001326 -0.0058107353 -0.001168751

rnn.weight_hh_l0 f4 [32, 32]
000000 cc 9d 1f bd aa f9 b3 bd ba 87 e4 bd 81 f0 11 3e
       -0.038968846 -0.08787854 -0.111587 0.14251901
000010 32 87 a1 3d d7 47 0e 3e cc 4f 61 3d e0 51 0f bd
       0.078871146 0.13894592 0.05500774 -0.03499019
000020 40 8c 20 bb d8 db b4 bc 5e 2c f3 3d 9f a7 18 be
       -0.0024497658 -0.022077486 0.11873697 -0.14907692
000030 a5 29 10 3e 58 4e df bd a4 dd 2c be bb f8 26 3e
       0.14078386 -0.10903615 -0.16881424 0.1630582
000040 01 0d 2f 3e 9a 4d df 3d 1f 81 1b be 53 bd fb bd
       0.17094804 0.10903473 -0.15185975 -0.1229197
000050 18 8d a9 bc 72 d3 15 be a0 39 65 bc 00 52 0f 3b
       -0.020697162 -0.14631441 -0.01399079 0.0021868944
000060 0e 7a a7 3d 90 2a 96 3c a0 37 0e 3c 00 64 31 39
       0.08177577 0.018330842 0.008680254 0.00016917288
000070 fc 92 4b bd f6 1d c7 3d 61 0c 16 3e 06 f7 0c be
       -0.049700722 0.097225115 0.1465316 -0.13766107
000080 f4 6f 7e 3d b7 1e 15 3e 42 b7 b9 3d a0 bd 1b bc
       0.062118486 0.14562498 0.09068157 -0.009505659
000090 c0 14 64 bc 87 ce ad bd 98 83 95 bc 60 a0 7e 3c
       -0.013920963 -0.084866576 -0.018251225 0.015541166
0000a0 30 9b d8 3c 20 bc 01 be 00 28 da 38 2f 3f 1b 3e
       0.026441187 -0.1266942 0.000104025006 0.15160821
0000b0 38 15 8a bd 4a 7c 23 be 40 15 d4 3c c2 fb 88 bd
       -0.067423284 -0.15965381 0.025889039 -0.06688644
0000c0 8c 2d b4 bd 56 68 af 3d 21 d6 01 3e 80 2d 2c 3d
       -0.0879775 0.085648224 0.1267934 0.04203558
0000d0 ae 84 9f 3d 62 50 f5 3d 26 bb b9 3d be f1 b0 3d
       0.077889785 0.119782224 0.09068899 0.08639859
0000e0 c7 be 14 be ff 40 ad bd 4a 62 fc 3d e0 a5 bd 3c
       -0.14525901 -0.08459663 0.12323435 0.023150384
0000f0 65 07 31 3e f1 96 13 3e a1 c6 1e 3e 93 4c d9 bd
       0.17287977 0.14413048 0.15505458 -0.106103085
000100 50 2f 38 bc b8 e7 c0 3c 91 96 10 3e 20 9a a3 3b
       -0.011241749 0.023547992 0.14119937 0.0049927384
000110 b0 83 e7 3c 0d 3c 2c 3e 30 f5 3e bc a1 69 2f 3e
       0.028261036 0.16819783 -0.011655137 0.17130138
000120 40 30 73 3c 81 d1 b9 bd 7e ec c7 3d b7 6c 0c 3e
       0.014843047 -0.09073163 0.09761904 0.13713346
000130 fe 78 b4 3d 84 6d 28 3d 1a a2 ff 3d e8 12 51 bd
       0.0881214 0.041120067 0.1248209 -0.05104342
000140 30 68 77 3d 00 58 78 bc dd ff 1e 3e 24 7d 6a 3d
       0.060402095 -0.0151577 0.15527292 0.05724825
000150 50 2a 07 be 36 ee 0a be da c2 fd bd d9 1e 2d 3e
       -0.13199735 -0.13567433 -0.123906806 0.16906299
000160 30 34 d1 bc 0c 26 22 bd 08 64 cb bc 40 4c 47 bb
       -0.02553758 -0.039587066 -0.024827972 -0.0030410439
000170 5a a8 1d be cb 6e 1d 3e 90 a5 38 3d e4 41 15 bd
       -0.15396252 0.15374295 0.045079768 -0.03643979
000180 83 f5 2f be 7c 3c 1e bd 2b 01 d5 bd 44 be 83 3d
       -0.17183499 -0.0386319 -0.104006134 0.06432775
000190 b2 86 2d be 75 fa 87 bd 28 e9 bc 3c 8a 26 9a 3d
       -0.16945913 -0.06639568 0.023060396 0.07526882
0001a0 77 dc da bd 50 e4 92 bd 1f 5d 2c 3e 76 60 f9 bd
       -0.106865816 -0.071724534 0.16832398 -0.121766016
0001b0 ad 1b 32 3e aa 61 75 bd 2d 20 30 3e 8f 20 12 3e
       0.1739337 -0.059907593 0.17199774 0.14270233
0001c0 28 eb 63 bd 03 e9 10 3e 00 ea 09 ba 5c 57 83 3d
       -0.055644184 0.14151387 -0.0005261004 0.06413147
0001d0 7e ab f7 3d 52 95 ec bd 45 be 29 be b5 97 06 3e
       0.120932564 -0.11551918 -0.16576488 0.13143809
0001e0 23 5a 2a be 02 f3 e8 3d 90 ba 0a 3d 15 39 e4 bd
       -0.16635947 0.11374475 0.033869326 -0.111437
0001f0 6a 25 9c 3d b0 e4 ee 3c 46 4e b8 3d 34 bf 10 be
       0.07624324 0.029161781 0.089993045 -0.14135438
000200 70 64 1d bc 80 71 0b 3c 16 6e a0 3d c0 1d ed bc
       -0.009606466 0.008510947 0.07833497 -0.02894485
000210 9f 82 24 be dc 13 71 bd 41 a5 f8 bd 00 1d cc ba
       -0.16065453 -0.05885683 -0.12140895 -0.0015572608
000220 38 01 33 3d 39 e3 26 3e d2 49 b5 3d 09 e1 c6 bd
       0.043702334 0.16297616 0.08851971 -0.09710891
000230 c2 94 a2 3d 97 ae 25 3e 80 99 ba ba 5e 96 24 be
       0.079385296 0.16179882 -0.001423642 -0.16072986
000240 5b d2 28 3e d7 a7 03 be 80 62 ec bc 2f b5 25 3e
       0.16486494 -0.12856995 -0.028855562 0.16182397
000250 66 5d e8 3d 2c 66 7e bd 38 59 0d be c6 c9 f1 bd
       0.11345939 -0.062109157 -0.13803566 -0.11806063
000260 a8 ef ac bc 90 72 59 bd de dc a9 bd a4 07 bc bd
       -0.02111037 -0.05308777 -0.0829408 -0.09181145
000270 3e 10 d2 bd 0e be 9e 3d b8 fe 87 bc 5a 89 e6 3d
       -0.10257004 0.07751094 -0.016600952 0.112566665
000280 0d 12 bc bd f2 58 9d bd 9a 20 bc bd 7a 56 96 3d
       -0.091831304 -0.076829806 -0.09185906 0.07340713
000290 e8 79 5b bd ce a4 d9 3d 00 00 e3 36 80 6c 49 3d
       -0.053583056 0.10627137 6.765127e-06 0.04917574
0002a0 ae 91 93 3d dc 0c d9 bd c8 5d 91 3c 90 00 37 3d
       0.072055206 -0.10598156 0.017744914 0.04467827
0002b0 51 b1 d9 bd 23 2a 03 3e 95 10 c8 bd e0 c2 a4 bc
       -0.106295235 0.12809043 -0.09768788 -0.020112455
0002c0 3e 82 b0 3d ef 41 2e be e5 8d 2b be 52 28 2f be
       0.08618592 -0.17017339 -0.16753347 -0.17105225
0002d0 84 fb 6b 3d 28 e0 6c 3d 6c 40 23 3d 2e 8e 59 bd
       0.05761291 0.05783096 0.03985636 -0.05311411
0002e0 02 b4 1a be 37 9c bb bd d0 6e 79 bd 61 0b 22 be
       -0.1510773 -0.09160655 -0.060896695 -0.15824653
0002f0 ec 72 18 bd 16 b0 df 3d 95 d9 06 be 64 e3 22 be
       -0.037218973 0.109222576 -0.13168938 -0.15907055
000300 b4 c1 12 bd 12 62 34 be b6 37 90 3d 2c 0b 33 3d
       -0.03582926 -0.17615536 0.07041876 0.043711826
000310 3a f9 d5 3d 25 02 2d 3e bd 44 d1 bd ca d3 f0 bd
       0.10447927 0.1689535 -0.10218189 -0.117591456
000320 ae 88 fb bd 00 05 3b 3a ec 7f 8f bd 17 86 32 be
       -0.12281929 0.0007134229 -0.07006821 -0.17433964
000330 46 c3 c9 3d c4 c7 50 3d b6 04 81 3d fa 33 0d be
       0.098516986 0.05097176 0.06299727 -0.13789359
000340 20 46 cc bc ac fa 25 3d 12 eb d2 3d 09 a4 22 3e
       -0.024935782 0.040522262 0.10298742 0.15882887
000350 dc da 80 3d 01 a3 32 3e d5 1e 22 be 20 7d 27 3c
       0.06291744 0.17444994 -0.15832074 0.010222703
000360 ca 0f d2 3d 34 09 13 be fd e1 01 3e e5 eb 12 3e
       0.10256918 -0.1435898 0.12683864 0.14347799
000370 64 20 0b bd 1c 0a 16 be 26 8d c4 3d 18 52 a4 bc
       -0.033966437 -0.14652294 0.095972344 -0.020058677
000380 90 e0 99 3c 01 5a 2a be 19 fa 1c be 10 7e 3e 3d
       0.018783838 -0.16635896 -0.1532978 0.04650694
000390 60 a7 d6 3c 4b d7 a0 bd 6c 97 76 bd 2e 41 99 3d
       0.026202857 -0.07853564 -0.060203 0.07483135
0003a0 c0 dc 73 3b 07 85 02 be 00 d0 e0 3a fe 8b ec bd
       0.0037210435 -0.12746058 0.0017151833 -0.11550139
0003b0 23 4b 0d be 5d 96 16 be c1 3f 32 3e ab 3b f3 bd
       -0.13798194 -0.14705797 0.17407133 -0.11876615
0003c0 80 6e b1 bc c2 28 cb 3d 92 c9 d2 bd ea 6c d0 3d
       -0.021659136 0.09919883 -0.10292353 0.10177024
0003d0 50 2f 6c 3d f6 bb 62 bd 70 c8 d3 3c c8 6d 09 be
       0.05766231 -0.055355035 0.025852412 -0.13420784
0003e0 48 45 63 3d 70 99 32 bc 3b 17 00 be 0a 03 8f bd
       0.055485994 -0.01090084 -0.12508862 -0.069830015
0003f0 be e0 af 3d 54 79 03 bd fc 69 0a bd ee 10 33 be
       0.08587788 -0.03209813 -0.03379248 -0.17486927

rnn.bias_ih_l0 f4 [32]
000000 36 0d c8 3d 54 02 27 bd b0 98 7f bc ee 19 45 bb
       0.09768145 -0.040773705 -0.015600368 -0.003007527
000010 10 1e 65 bd 25 0d da 3d 79 69 f4 bd 08 93 42 3d
       -0.055936873 0.10647038 -0.1193418 0.0475035
000020 16 43 21 be bd 9b 9f 3d 87 4d 13 3d cf 47 2b bc
       -0.15748248 0.077933766 0.035962608 -0.010454132
000030 64 c2 ed bc dc ad 0b 3d 09 03 13 be 14 f5 96 bd
       -0.029023357 0.034101352 -0.14356627 -0.07370964
000040 75 be fa 3c 0c 71 ca bd a3 4d 33 3d 5a 3f d9 bd
       0.030608395 -0.09884843 0.043775212 -0.106077865
000050 50 e9 17 bc 17 1e b8 3d a7 b0 36 bd 4f 38 89 3d
       -0.009271935 0.08990114 -0.044602063 0.06700193
000060 0d f7 09 be ac e2 7e 3b a3 1b ba bd 6c 87 1b 3e
       -0.13473149 0.0038892431 -0.090873025 0.15188378
000070 60 0c d0 bd 8b 03 4b 3d 1c 26 85 bd 04 9c 3a 3d
       -0.1015861 0.049563926 -0.065014094 0.045558944

rnn.bias_hh_l0 f4 [32]
000000 f6 98 ba 3d 29 f8 2d bb 46 cb 7f 3c aa 06 f6 3d
       0.09111206 -0.002654562 0.015612429 0.1201299
000010 04 04 65 3d c5 aa da bd 71 ba f4 3d d2 7a 34 bd
       0.055912033 -0.10677103 0.119496234 -0.044062443
000020 8c 20 21 3e f5 f7 9e bd 5d 02 14 bd 95 3b 26 3c
       0.15735072 -0.07762138 -0.036135066 0.010146041
000030 b2 30 ec 3c cc ab f5 bd 8b d1 12 3e 4c 82 96 3d
       0.028831813 -0.11995658 0.14337747 0.07349071
000040 a5 78 b3 bd 8f e4 1c be 27 4f 33 bd de be ab 3d
       -0.087632455 -0.15321563 -0.043776657 0.083860144
000050 2c c7 cf 3a 1f 9e 50 bd f4 08 40 ba 4d 0e f3 3d
       0.0015852205 -0.050932046 -0.0007325553 0.11867962
000060 ad e9 6c bd 16 3f 0d be 63 77 ba 3d fa 44 0a be
       -0.057840038 -0.13793597 0.091048025 -0.13502875
000070 95 33 c5 bc f3 03 e7 bd c2 26 85 3d ca d6 39 bd
       -0.024072448 -0.1128005 0.06501533 -0.045370854

fc.weight f4 [1, 32]
000000 16 4a 83 3d f2 20 28 bd 42 22 89 34 3d d8 51 3d
       0.06410615 -0.041047044 2.5543164e-07 0.05123161
000010 87 01 e8 b3 c8 cc 16 39 d6 90 ac 35 aa 0e d2 36
       -1.080362e-07 0.00014381402 1.2857151e-06 6.260195e-06
000020 be 1f df b5 9c 1e 5d 36 1d 5c 11 37 2e 85 63 37
       -1.6624033e-06 3.2949383e-06 8.66412e-06 1.3561263e-05
000030 a6 00 75 b6 05 16 84 3d c4 62 c0 b6 78 1f 47 39
       -3.6508222e-06 0.064495124 -5.7335437e-06 0.00018989842
000040 ac ed 23 bc 24 9b 07 be e0 bc 7e b2 fb 39 52 3d
       -0.010005396 -0.13242775 -1.4827691e-08 0.051324826
000050 c6 5d 2b 37 df ba 23 3d ca 98 ed 38 a3 01 a1 bd
       1.0214228e-05 0.039973136 0.000113295 -0.0786164
000060 11 fd 7c bd f2 f1 e7 bd c8 cb 6a b9 d8 32 f7 bc
       -0.06176478 -0.11325444 -0.00022391893 -0.030175611
000070 60 8c 94 3d 55 ee 75 bd 84 6b 23 37 8e 9b 12 b5
       0.07253337 -0.060041744 9.74059e-06 -5.46156e-07
