weight/randomly/best_MLP_OR_randomly.pth (torch, 12042 bytes, 5 tensors)

layers.0.weight f4 [64, 2]
0	0xbe06ad79	-0.13152112
1	0x3f486704	0.7828219
2	0xbf6e67c3	-0.9312708
3	0xbc93b39c	-0.01802998
4	0x3e1f9b93	0.1558669
5	0x3f70d4d0	0.94074726
6	0xbe12dfd8	-0.14343202
7	0xbe7a66d4	-0.24453288
8	0x3e841800	0.2579956
9	0x3e38f52b	0.18062274
10	0x3e59f1cf	0.21283649
11	0x3b7059c9	0.003667461
12	0xc0859e0d	-4.1755433
13	0x3e9ee54c	0.31034315
14	0x3edde3d6	0.43337888
15	0x3dc6a350	0.09699118
16	0xbda138d7	-0.078721695
17	0x3eebc432	0.46048123
18	0xbe3621f7	-0.17786394
19	0xbf13d78c	-0.57750773
20	0x3f06d600	0.5267029
21	0xbf022e06	-0.50851476
22	0xbf161387	-0.58623546
23	0x3f498db0	0.7873182
24	0x3f2fd8ef	0.6869039
25	0xbeab8cbc	-0.3350581
26	0xbdf14e44	-0.11782506
27	0x3ebe0191	0.3711057
28	0x3e17a076	0.14807305
29	0x3e7561bd	0.23963065
30	0xbe9fc9a4	-0.31208527
31	0x3e87973e	0.26482576
32	0xbdee0d30	-0.11623609
33	0xbd0505c0	-0.032476187
34	0xbe91b2d9	-0.28456762
35	0x3eaca7c0	0.33721733
36	0xbe7aa148	-0.24475586
37	0xbe848b63	-0.25887594
38	0xbf0abf5f	-0.5419826
39	0xbf76c754	-0.963979
40	0x3ed0771a	0.40715867
41	0x3e095818	0.13412511
42	0x3e979863	0.2960845
43	0xbe03a3cf	-0.12855457
44	0xbe45a2bd	-0.19300361
45	0xbe968cdc	-0.29404342
46	0xbf0e08ee	-0.55482376
47	0x3f516a91	0.8180323
48	0xbf171187	-0.5901112
49	0x3e0ed626	0.13948879
50	0x3e6483ad	0.22315855
51	0x3f25b1d7	0.6472449
52	0x3d7a2cb0	0.061077774
53	0x3f09b319	0.53788906
54	0x3e5c279c	0.21499485
55	0xbec04311	-0.37551168
56	0x3dfb7306	0.12277798
57	0xbd58a6b6	-0.052893363
58	0x3ef43aeb	0.477012
59	0x3f38fe64	0.7226317
60	0x3f1f9ca1	0.6234837
61	0x3f1f5941	0.62245566
62	0xbd17b540	-0.037038088
63	0xbe3a32c8	-0.18183434
64	0xbd905ba8	-0.07048732
65	0xbe214740	-0.15749836
66	0x3f051624	0.5198691
67	0x3f2d97fb	0.6781003
68	0xbe291981	-0.16513635
69	0x3ed6f213	0.41981563
70	0xbf2d2507	-0.67634624
71	0x3c9680e0	0.018372
72	0x3c21a714	0.009866495
73	0xbf213bbc	-0.6298177
74	0xbdc41426	-0.095741555
75	0x3eccd209	0.40003994
76	0x3f42356b	0.7586276
77	0xbf4986ed	-0.78721505
78	0x3ed51d7e	0.41624063
79	0xbecf8e32	-0.40538174
80	0xbdec763a	-0.115459874
81	0x3ee33d1c	0.4438256
82	0xbf3b4386	-0.7314991
83	0x3f4580ea	0.7714983
84	0x3efb496b	0.4907945
85	0x3f23b690	0.63950443
86	0xbda38dd7	-0.07986038
87	0xbe64b55b	-0.22334807
88	0xbf034281	-0.5127335
89	0xbe996304	-0.29958355
90	0x3ed59685	0.417164
91	0x3eaf86ba	0.34282476
92	0xbdeba110	-0.115053296
93	0x3eb51132	0.3536468
94	0xbf0351b2	-0.5129653
95	0x3f5800a0	0.84375954
96	0xbe718956	-0.23587546
97	0xbd825c1f	-0.06365227
98	0xbf8702fa	-1.0547783
99	0x3edd6dff	0.43247983
100	0x3f395943	0.7240183
101	0x3f1fe4cf	0.6245851
102	0x3f07d1ee	0.530547
103	0x39e92611	0.00044469585
104	0x3e3e77e2	0.18600419
105	0xbf2acc40	-0.6671791
106	0xbf253598	-0.645349
107	0x3dd1b6ee	0.10239969
108	0xbcfba860	-0.030719936
109	0xbef5c5f1	-0.4800258
110	0x3de6cb78	0.11269277
111	0x3cc847c0	0.024448276
112	0x3e4670fc	0.19379038
113	0xbdcc76ee	-0.099836215
114	0x3ef7bd30	0.48386526
115	0xbf4cd5d1	-0.8001376
116	0x3e3c51b3	0.18390541
117	0xbe02922d	-0.12751074
118	0xbe34d0b8	-0.17657745
119	0x3eba8182	0.36426932
120	0x3f211887	0.6292805
121	0xbde14a4d	-0.110005
122	0x3ec0e963	0.3767806
123	0x3eb6a64c	0.3567375
124	0xba6b5d54	-0.00089784455
125	0x3f9a7a5b	1.206859
126	0xbaf970c7	-0.0019030803
127	0xbf2351c7	-0.6379666

layers.0.bias f4 [64]
0	0x3d97067d	0.073742844
1	0x3ef8bdd8	0.4858234
2	0xbeb531f5	-0.35389677
3	0xbdd0a840	-0.10188341
4	0xbb225165	-0.0024767753
5	0x3dd566e8	0.104200184
6	0x3e01dfd8	0.12683046
7	0xbf1a4399	-0.60259396
8	0x3d39930b	0.045306247
9	0x3eb5d84e	0.3551659
10	0x3df15959	0.1178462
11	0x3e7fea7c	0.24991792
12	0xbf2a5461	-0.66535
13	0x3d9905ee	0.07471834
14	0x3ea3df99	0.3200653
15	0xbf24103e	-0.64087284
16	0xbf15f594	-0.5857785
17	0xbe86016b	-0.26172957
18	0x3ee14ffa	0.4400633
19	0x3f04d704	0.5189059
20	0xbe8810ed	-0.26575413
21	0x3d859be8	0.065238774
22	0x3eecbb68	0.4623673
23	0x3e21770a	0.15768066
24	0x3ed60b1e	0.41805357
25	0xbde1535d	-0.110022284
26	0xbf2bce02	-0.6711122
27	0x3e5d28df	0.21597622
28	0x3b860c94	0.004090855
29	0xbf22afc9	-0.63549477
30	0xbeaf1873	-0.3419834
31	0xbf342a04	-0.7037661
32	0xbe19496c	-0.14969414
33	0x3e8519e1	0.25996307
34	0x3df2f1b7	0.1186251
35	0xbeb30a54	-0.34968817
36	0x3e0601f2	0.1308668
37	0x3d67d877	0.05660292
38	0xbeb7f49e	-0.35928816
39	0x3e67d0c1	0.22638227
40	0x3ef90bd8	0.4864185
41	0x3f208bba	0.62713206
42	0x3e83b9f3	0.25727805
43	0x3e90cd6d	0.28281727
44	0x3f035fc3	0.51317996
45	0xbe91ebde	-0.28500265
46	0xbf2cc008	-0.67480516
47	0x3ea984ee	0.3310923
48	0x3e7cf5ac	0.24703091
49	0x3e8f7c13	0.2802435
50	0xbeeeaa92	-0.4661451
51	0xbe67cf91	-0.22637774
52	0x3ec0bfc5	0.3764631
53	0x3ed6f038	0.41980147
54	0xbf1d219c	-0.6137941
55	0xbeb45547	-0.3522131
56	0x3c4adf3e	0.012382327
57	0xbe1e28f3	-0.15445308
58	0x3d7677dd	0.060172904
59	0xbf331d41	-0.6996651
60	0xbd0198bd	-0.031639803
61	0x3dfcee3d	0.12350128
62	0xbf2200f3	-0.632827
63	0x3ebb35d6	0.3656451

layers.2.weight f4 [32, 64]
0	0x3e9d6185	0.30738464
1	0x3e8768a3	0.2644702
2	0xbe27ceed	-0.1638753
3	0xbd5e3fa4	-0.05425991
4	0x3dde999e	0.10869144
5	0xbdadc306	-0.084844634
6	0x3eff05ee	0.49809211
7	0x3d19b318	0.037524313
8	0x3e92d598	0.28678584
9	0xbd7911b9	-0.060807917
10	0x3db19ec4	0.0867286
11	0x3e874183	0.2641717
12	0xbdab97ee	-0.08378588
13	0x3e3d7816	0.1850284
14	0x3e072dbf	0.13201044
15	0x3dbb5bb8	0.09148353
16	0x3c6ed230	0.01457648
17	0x3e3642b8	0.17798889
18	0xbcb54145	-0.02212585
19	0xbecb359b	-0.39689335
20	0xbd981517	-0.074258976
21	0xb8ba1106	-8.872342e-05
22	0x3c82ff5d	0.015990907
23	0x3ee35f1d	0.44408503
24	0x3dbf1e5b	0.09331962
25	0x3cc53393	0.024072444
26	0xbd4ead34	-0.050458148
27	0xbcd3a912	-0.025837455
28	0x3ca34498	0.019930169
29	0xbe44bb2f	-0.1921203
30	0x3d87a048	0.06622368
31	0x3dffc3f4	0.12488547
32	0x3d4e46b0	0.05036038
33	0x3db30f96	0.08743207
34	0x3da50cb5	0.08059064
35	0xbd14ee9c	-0.036360368
36	0x3df7a9ad	0.1209291
37	0xbd897405	-0.06711582
38	0xbeab434c	-0.3344978
39	0xbdd05689	-0.10172755
40	0x3d29df1b	0.041472536
41	0x3dab015a	0.08349867
42	0xbbb4a254	-0.005512515
43	0xbd754aa4	-0.059885636
44	0xbd1d5fc6	-0.038421415
45	0xbcb417a2	-0.021983925
46	0xbda235ae	-0.07920395
47	0x3e6b994f	0.23007701
48	0x3d738e59	0.059461925
49	0x3f7788be	0.96693027
50	0x3e2fc6c3	0.17165665
51	0x3e4cbf70	0.19994903
52	0xbdfaad64	-0.12240103
53	0x3f22523a	0.6340672
54	0x3df02094	0.11724964
55	0x3dda8022	0.10668971
56	0x3d3ef9ea	0.046625055
57	0xbe9a8974	-0.30182993
58	0x3d0fd969	0.035119448
59	0x3d2c3db8	0.042051047
60	0x3debc2e2	0.1151178
61	0x3c174678	0.00923311
62	0x3d8c1b23	0.068411134
63	0xbd03319f	-0.032029744
64	0xbc023db0	-0.007949278
65	0x3d42b328	0.047534138
66	0x3d6b8ed4	0.05750926
67	0x3d1ddb8c	0.038539454
68	0x3ba606c0	0.0050667226
69	0xbc828b58	-0.015935585
70	0xbd270c84	-0.04078342
71	0x3d6ff928	0.058587223
72	0x3dd776ae	0.10520683
73	0xbc90a650	-0.017657429
74	0xbd4d727c	-0.05015801
75	0x3d9451b4	0.07242146
76	0x3bce6360	0.0062984675
77	0xbda5334e	-0.08066426
78	0xbd7b4fec	-0.061355516
79	0x3df4c91c	0.11952421
80	0xbc98ca28	-0.018651083
81	0x3dd5fc10	0.10448468
82	0xbda9be12	-0.08288206
83	0xbd959688	-0.07304102
84	0x3da39c24	0.07988766
85	0xbb1f4280	-0.0024301112
86	0x3cb068c8	0.021534339
87	0x3dfffdf2	0.12499608
88	0x3de81be2	0.11333443
89	0x3d90058a	0.070323065
90	0xbdf8c46a	-0.12146838
91	0xbdb93474	-0.09043208
92	0xbd7f6694	-0.062353685
93	0xbde17d0e	-0.110101804
94	0xbdd014ae	-0.10160194
95	0xbd5e5ef8	-0.054289788
96	0x3dea6d14	0.11446586
97	0xbd66cf64	-0.056350127
98	0xbce15b60	-0.027509391
99	0xbd993650	-0.074810624
100	0x3dfb0b46	0.122580096
101	0xbdb1cd2c	-0.086817116
102	0x3c76d050	0.015064314
103	0xbbaf5340	-0.0053505003
104	0x3b92f500	0.0044847727
105	0xbdf53e32	-0.119747534
106	0xbc423980	-0.011854529
107	0xbdf85dc4	-0.121272594
108	0xbc09f780	-0.008420825
109	0xbd11df0c	-0.035613105
110	0x3d8cab70	0.068686366
111	0xbd8f9e2a	-0.07012589
112	0xbd528c54	-0.05140336
113	0x3dcb6884	0.09932044
114	0x3dce5b06	0.10075955
115	0x3d4b3720	0.04961312
116	0xbdb8e92c	-0.09028849
117	0xbd85916c	-0.06521878
118	0xbcad2050	-0.021133572
119	0xbd9c9c7c	-0.076470345
120	0x3db13918	0.08653468
121	0xbd7e14c8	-0.062031537
122	0xbc229e60	-0.009925455
123	0xbd059cb8	-0.03262016
124	0xbdfb67c4	-0.12275651
125	0xbdbb1354	-0.09134546
126	0x3ca1aea0	0.019736588
127	0x3d6ab868	0.05730477
128	0x3e15aacd	0.14615937
129	0x3eaf76da	0.34270364
130	0xbe2466a0	-0.16054773
131	0xbd722f28	-0.059127003
132	0xbca3d2b9	-0.019997941
133	0x3ab103c9	0.0013505156
134	0x3f9237de	1.1423299
135	0x3d703ad8	0.058649868
136	0xbce3878b	-0.027774593
137	0xbdb1d055	-0.08682314
138	0xbe11dc08	-0.14244092
139	0x3e9298ef	0.28632304
140	0x3da30d58	0.079615295
141	0x3e1ade74	0.15123922
142	0x3e04d913	0.12973432
143	0xbce52870	-0.027973384
144	0x3d67daec	0.056605265
145	0x3dae912c	0.08523783
146	0x3b9c1b31	0.0047639837
147	0x3df140f3	0.11779966
148	0xbeddf4c2	-0.43350798
149	0xbc83769e	-0.016047772
150	0x3de193e2	0.110145345
151	0x3f12a1ab	0.57277936
152	0x3ea5217b	0.32252106
153	0x3d228093	0.0396734
154	0x3cde46d0	0.027133375
155	0xbd1b4893	-0.03791101
156	0x3d49ad51	0.049237553
157	0xbf30f969	-0.6913057
158	0xbda7e987	-0.08198839
159	0xbd22c934	-0.039742664
160	0x3c8346e8	0.016025022
161	0x3dcd5187	0.10025316
162	0x3e1617fb	0.14657585
163	0x3d5319a0	0.05153811
164	0x3e1f1c11	0.1553805
165	0x3cddbd3e	0.027067777
166	0xbef9c324	-0.48781693
167	0x3db0bbee	0.08629595
168	0x3d0e65f7	0.03476521
169	0x3e4685c8	0.19386971
170	0x3e034229	0.12818207
171	0xbda87685	-0.08225731
172	0x3d9d63ff	0.07685088
173	0xbe571800	-0.21005249
174	0x3c4dbf20	0.012557775
175	0x3eb34647	0.35014555
176	0xbd6910dc	-0.056900844
177	0x3f991f6d	1.1962715
178	0xbe6feeb9	-0.23430909
179	0x3e214017	0.15747105
180	0xbdbcee38	-0.09225124
181	0x3f1557d4	0.5833714
182	0xbc3b5480	-0.011433721
183	0x3ddadeda	0.10687037
184	0xbe198f28	-0.14996016
185	0xbed10817	-0.40826485
186	0xbd8f83d9	-0.0700757
187	0xbc03e4f0	-0.008050188
188	0xbdf74ef5	-0.12075607
189	0xbcc31bd0	-0.023816973
190	0xbe81328a	-0.2523387
191	0x3bfb1682	0.0076625952
192	0x3ef15172	0.4713245
193	0x3e70f5b0	0.23531222
194	0xbd9527e1	-0.07282997
195	0xbddb38fa	-0.10704227
196	0xbd88c01c	-0.06677267
197	0x3dc96be6	0.09835033
198	0x3f3fba5c	0.74893737
199	0x3c53df30	0.01293163
200	0x3ea2d5d1	0.31803754
201	0xbe1c42e9	-0.15259899
202	0xbd55eb99	-0.052226637
203	0x3ea91686	0.33024997
204	0xbbd2b6e0	-0.006430492
205	0x3d650557	0.055913296
206	0xbda5b941	-0.08091975
207	0x3d8e4a60	0.0694778
208	0x3de496be	0.11161564
209	0xbb380602	-0.0028079753
210	0xbcfac910	-0.030613452
211	0xbe6f83c6	-0.23390111
212	0x3dc27875	0.094956316
213	0xbca84faa	-0.0205458
214	0xbd92aea9	-0.0716222
215	0x3ed85405	0.42251602
216	0x3e6f2e53	0.23357515
217	0x3daa70fc	0.08322331
218	0xbcb0be00	-0.021574974
219	0x3dcda108	0.1004048
220	0xbd9a614d	-0.0753809
221	0xbea987c2	-0.33111387
222	0x3db4c0b2	0.08825816
223	0x3dc603ae	0.096686706
224	0x3dc3cadc	0.09560177
225	0x3d7df7b9	0.062003825
226	0x3d78ec07	0.06077197
227	0x3cccd418	0.025003478
228	0xbda1bba1	-0.078971155
229	0x3ca49a47	0.020093096
230	0xbdfafc69	-0.12255175
231	0xbdd9b5ee	-0.106304035
232	0xbd6f8290	-0.058474123
233	0x3db4e20c	0.088321775
234	0x3d5386d9	0.051642273
235	0x3d2ed914	0.04268749
236	0xbcd50b33	-0.026006317
237	0xbe66c237	-0.22535025
238	0xbdaee398	-0.08539504
239	0x3e2f7767	0.17135392
240	0x3c3856a7	0.011251128
241	0x3f88ddbd	1.0692669
242	0x3db8202e	0.08990513
243	0x3e24c39e	0.16090247
244	0x3dc1ffe1	0.09472633
245	0x3eebff97	0.46093437
246	0x3d979056	0.07400577
247	0x3c0ca770	0.008584842
248	0xbd12c529	-0.035832558
249	0xbe5e6abf	-0.21720408
250	0x3bf4fc86	0.007476392
251	0xbd7f75bc	-0.06236814
252	0x3dc6e3cf	0.0971142
253	0xbc7eacbe	-0.015544115
254	0xbdb3432c	-0.087530464
255	0xbe18ebd4	-0.14933711

layers.2.bias f4 [32]
0	0x3c740769	0.014894345
1	0x3d71a91c	0.058999166
2	0xbca1ae0c	-0.019736312
3	0x3dd857fb	0.10563656
4	0xbd54cc8f	-0.051952895
5	0x3d38123c	0.044939265
6	0x3da9b0b7	0.08285659
7	0x3d71520a	0.05891613
8	0x3a3c440d	0.0007181771
9	0xbe33b7e0	-0.17550611
10	0xbe0ed8aa	-0.13949838
11	0xbdd8503a	-0.10562177
12	0x3dadf114	0.08493248
13	0xbd1c1bb8	-0.038112372
14	0x3dbc80bb	0.09204241
15	0xbd8903e2	-0.06690194
16	0x3d39c915	0.045357782
17	0x3db10ef2	0.08645429
18	0xbd57a4e4	-0.052647486
19	0x3d8904e9	0.0669039
20	0xbdddcaa7	-0.108296685
21	0xbce02958	-0.027363464
22	0xbdb9ccde	-0.090722784
23	0x3d3be96b	0.0458769
24	0xbd65636c	-0.05600302
25	0xbdf46199	-0.11932678
26	0x3dbd251f	0.09235596
27	0xbdd6ccd3	-0.10488286
28	0xbda9c526	-0.08289556
29	0xbdc0824e	-0.09399854
30	0xbd9e9b46	-0.0774446
31	0xbde7a1ea	-0.113101795

layers.4.weight f4 [1, 32]
0	0x3e1ed972	0.15512636
1	0x3dbc3a32	0.091907874
2	0x3ea982b0	0.3310752
3	0x3d225fd7	0.03964218
4	0xbe03f63b	-0.12886898
5	0xbc0f4d80	-0.008746505
6	0x3dd45ee7	0.10369664
7	0x3dffdab2	0.12492885
8	0x3e093dae	0.13402435
9	0x40ffadb7	7.9899554
10	0xbd08e68f	-0.033423003
11	0xbd2a1cc9	-0.041531358
12	0xbe9d949b	-0.3077744
13	0xbcf061e8	-0.02934356
14	0x3e213f0a	0.15746704
15	0x3d6764e8	0.056492716
16	0x3cbc066f	0.022952287
17	0x3e02c456	0.12770209
18	0x3d434280	0.04767084
19	0x3e5e4749	0.2170688
20	0x3dca14ac	0.09867224
21	0x3e151324	0.14558083
22	0xbec3d251	-0.38246396
23	0xbe3205c0	-0.17385006
24	0xbda63752	-0.0811602
25	0xbd07b91a	-0.03313551
26	0xbc90a6c6	-0.017657649
27	0xbd007398	-0.03136024
28	0xbd665558	-0.056233734
29	0x3e0eabc8	0.13932717
30	0xbcb245e8	-0.02176185
31	0xbe745a7a	-0.23862639
