weight/randomly/best_MLP_FE_randomly.pth (torch, 12042 bytes, 5 tensors)

layers.0.weight f4 [64, 2]
0	0x3e210968	0.15726244
1	0x3c77ea40	0.015131533
2	0xbe09ff70	-0.13476348
3	0xbe9d75df	-0.3075399
4	0x3f12ddd7	0.5736975
5	0x3c7e8955	0.015535672
6	0xbf8157ff	-1.0104979
7	0x3f7cf52d	0.9881161
8	0xbe9a65c4	-0.30155766
9	0xbf142c84	-0.57880425
10	0x3ec777e3	0.38958654
11	0xbce07151	-0.027397783
12	0x3f3855fe	0.72006214
13	0x3f06a1ae	0.52590454
14	0xbd83eb1a	-0.064413264
15	0x3a387f14	0.0007037979
16	0x3e027f0a	0.12743774
17	0x3e341443	0.17585854
18	0xbea934ed	-0.33048192
19	0x3f31980c	0.6937263
20	0xbd1344c0	-0.035954237
21	0xbe74c9e2	-0.23905137
22	0x3e6660fc	0.22497934
23	0x3e5d0ea8	0.21587622
24	0xbe829252	-0.2550226
25	0xbee61b83	-0.44942865
26	0xbed0febf	-0.40819356
27	0xbe2b06a4	-0.16701752
28	0xbe25497c	-0.16141313
29	0x3d549840	0.05190301
30	0xbf1b1b0c	-0.60588145
31	0xbeb2246e	-0.3479342
32	0xbde3a618	-0.11115664
33	0x3f0174ba	0.50568736
34	0x3d1caee0	0.03825271
35	0xbde75d10	-0.11297047
36	0xbc98c120	-0.018646777
37	0xbe5cd37c	-0.2156505
38	0xbf21088a	-0.62903655
39	0xbe25b060	-0.16180563
40	0x3da2a6fe	0.079420075
41	0xbeaaec0e	-0.3338322
42	0x3e4932e0	0.19648314
43	0x3c173400	0.009228706
44	0xbe8a1ba7	-0.26974222
45	0x3ec50717	0.38481972
46	0xbbbe12ab	-0.0058005652
47	0xbf8c7ce1	-1.097561
48	0xbe047fcb	-0.12939374
49	0x3f320871	0.6954413
50	0xbf3bb4b9	-0.73322636
51	0xbf1e463e	-0.6182593
52	0x3e8c6002	0.27416998
53	0xbd09b73e	-0.03362202
54	0xbf281fff	-0.6567382
55	0xbf38d63b	-0.7220189
56	0x3eb67f0f	0.35643813
57	0x3c0c8080	0.008575559
58	0xbef43d8a	-0.477032
59	0xbc357fd5	-0.011077841
60	0x3de18678	0.11011976
61	0x3e3c1cc0	0.18370342
62	0x3d3106af	0.043219265
63	0xbf0725a6	-0.5279182
64	0xbe7f5e74	-0.24938375
65	0x3e57d0a4	0.21075684
66	0xbe6fd35e	-0.23420474
67	0xbced2f5a	-0.028953243
68	0xbe918c5e	-0.28427404
69	0xbeb82eb4	-0.35973132
70	0xbdad82b8	-0.08472198
71	0xbe53fd14	-0.2070201
72	0x3d286785	0.04111435
73	0x3e5373d6	0.20649657
74	0x3f1621e9	0.5864549
75	0x3d59d09d	0.053177465
76	0xbe3af210	-0.18256402
77	0xbebb658f	-0.3660092
78	0x3effcffe	0.49963373
79	0xbe3bd464	-0.1834274
80	0x3e72e080	0.23718452
81	0xbe0e5e05	-0.13903053
82	0xbdebf912	-0.11522116
83	0xbe157b5b	-0.14597838
84	0xbf2d32c7	-0.67655605
85	0xbf0fc495	-0.56159335
86	0x3c6204c0	0.013795078
87	0xbead389c	-0.33832252
88	0xbe883248	-0.26600862
89	0xbf30ad41	-0.69014364
90	0x3da95218	0.08267611
91	0x3e8c379c	0.27386177
92	0xbf1ea4b3	-0.6197006
93	0xbd708650	-0.05872184
94	0x3c1f31c0	0.009716451
95	0xbf2e3292	-0.68045914
96	0xbf2e6208	-0.68118334
97	0xbeb8e5c3	-0.36112794
98	0xbf26caaa	-0.6515299
99	0xbd7379a0	-0.059442163
100	0xbda70b28	-0.08156425
101	0xbd2ec640	-0.042669535
102	0x3e244abd	0.16044135
103	0x3f518567	0.8184418
104	0xbe8f386b	-0.2797273
105	0x3ef58d22	0.47959238
106	0xbeee234a	-0.46511298
107	0xbe25cbbc	-0.16191
108	0xbe3423d6	-0.17591795
109	0x3f507729	0.81431824
110	0x3f4a8bd6	0.7911962
111	0xbf296672	-0.66171944
112	0x3ebdb80b	0.37054476
113	0xbeab6a8b	-0.33479723
114	0xbe838be2	-0.2569266
115	0xbf13733e	-0.5759772
116	0xbe5e4cae	-0.21708938
117	0xbf3481bb	-0.70510453
118	0x3ebbaeba	0.36656743
119	0xbe69308d	-0.22772427
120	0xbf302faf	-0.6882276
121	0xbf328c5f	-0.6974544
122	0xbdb36275	-0.087590136
123	0x3ebca160	0.3684187
124	0xbeec79b7	-0.4618661
125	0x3f4f5e25	0.8100303
126	0x3e517bb5	0.20457347
127	0x3f0d991a	0.5531174

layers.0.bias f4 [64]
0	0xbee3bcc4	-0.44479954
1	0xbec84ae6	-0.39119643
2	0x3f130013	0.5742199
3	0xbbe9d35a	-0.007135791
4	0xbb158500	-0.002281487
5	0xbe3d2dfc	-0.18474573
6	0xbef93aad	-0.4867758
7	0x3d1f42e3	0.038882148
8	0x3eadf1c3	0.33973512
9	0xbdd9dcb6	-0.106378004
10	0xbecc218b	-0.3986934
11	0xbf1f4486	-0.62213933
12	0x3ef4c485	0.47806183
13	0xbbc0273a	-0.005864051
14	0xbe99a86a	-0.30011302
15	0xbe8666cd	-0.26250306
16	0x3d6cca89	0.05781034
17	0xbe8e9e9b	-0.2785538
18	0xbeb7a927	-0.3587124
19	0x3f2ff33c	0.6873052
20	0x3e9f47c1	0.3110943
21	0xbf0dd1d7	-0.55398315
22	0x3e312e00	0.17302704
23	0x3da7ba33	0.081898116
24	0x3f1fdf74	0.6245034
25	0x3eb6de8a	0.3571666
26	0x3d80f597	0.062968425
27	0x3f1cb17e	0.6120833
28	0xbc5959cc	-0.013266038
29	0x3ec90da4	0.3926822
30	0xbf1e6ddb	-0.61886376
31	0x3e8ab94f	0.27094504
32	0xbecb37d8	-0.39691043
33	0x3e3545f4	0.17702466
34	0x3ee89f3a	0.4543398
35	0xbe288fe0	-0.16461134
36	0xbb03a5cd	-0.0020087839
37	0xbf081d1c	-0.5316942
38	0x3ed891aa	0.42298633
39	0xbf15d188	-0.58522844
40	0x3dcd0368	0.10010415
41	0x3ec40984	0.3828851
42	0xbeb5a80c	-0.35479772
43	0xbeb5b020	-0.35485935
44	0x3ec57130	0.38562918
45	0xbf1798af	-0.5921735
46	0xbe8b8d1f	-0.27256104
47	0xbe656614	-0.22402221
48	0xbf0e7ae8	-0.5565629
49	0xbeb22507	-0.34793875
50	0xbb98c700	-0.0046623945
51	0xbe4014d9	-0.18757953
52	0xbc289efd	-0.010291812
53	0xbee6f976	-0.451122
54	0x3dba6650	0.09101546
55	0xbeff17c9	-0.49822834
56	0xbcc68472	-0.024233077
57	0xbec9119e	-0.39271253
58	0xbdd60240	-0.10449648
59	0x3b3ed8e0	0.0029120967
60	0xbeeb1680	-0.45915604
61	0xbddcd3b4	-0.10782567
62	0xbeb1cc81	-0.34726337
63	0x3f05546a	0.5208193

layers.2.weight f4 [32, 64]
0	0x3d756878	0.059914082
1	0x3dfc5478	0.12320799
2	0x3de0c0b9	0.10974259
3	0xbdb117c5	-0.08647112
4	0x3cd13028	0.025535658
5	0x3dd41bf5	0.10356895
6	0xbd26b753	-0.040702175
7	0x3ddf08da	0.1089036
8	0xbd9e9903	-0.077440284
9	0xbdcebf0b	-0.10095032
10	0x3d69563c	0.056967005
11	0x3ccd6988	0.025074735
12	0xbd62e55d	-0.05539452
13	0x3dd3d927	0.10344153
14	0x3d799a6c	0.060938284
15	0x3d1e7c88	0.03869298
16	0xbb85ad59	-0.0040795025
17	0xbdd00218	-0.10156649
18	0x3d6c533c	0.057696566
19	0xbdb70cf7	-0.0893802
20	0xbcddc8cc	-0.027073286
21	0xbc8993c0	-0.016794086
22	0x3d267259	0.040636394
23	0xbc877519	-0.016535329
24	0x3dd5c4ab	0.10437902
25	0x3c6c4e58	0.0144229755
26	0xbe09f4e1	-0.1347232
27	0xbcefdf84	-0.029281385
28	0xbd01d969	-0.03170148
29	0x3dbe8e56	0.09304492
30	0x3d9d3c44	0.076775104
31	0xbb39be49	-0.0028342179
32	0xbd454734	-0.048163608
33	0xbdf5abf9	-0.11995692
34	0xbc98bcd2	-0.018644724
35	0xbbdf1b20	-0.0068086535
36	0x3bca39f1	0.006171458
37	0x3d055504	0.03255178
38	0x3cc8bea0	0.02450496
39	0xbc0e20f0	-0.008674845
40	0xbdc7b98e	-0.097521886
41	0xbdf1a193	-0.11798396
42	0xbcd32458	-0.025774166
43	0xbd438f8c	-0.04774432
44	0xbdd4f7f3	-0.10398855
45	0xbdc36708	-0.09541136
46	0xbde54b58	-0.11196011
47	0xbd88830a	-0.06665619
48	0xbd83464c	-0.064098924
49	0x3c526f00	0.012843847
50	0x3dd2a1c8	0.102847636
51	0xbe0029d1	-0.12515952
52	0x3d161984	0.036645427
53	0xbda48cb4	-0.080346495
54	0x3d44c9e3	0.048044097
55	0xbdf44cf7	-0.119287424
56	0xbd576c33	-0.05259342
57	0xbcaa2110	-0.020767719
58	0x3da65198	0.081210315
59	0xbdecf222	-0.11569621
60	0xbbbac660	-0.0056999177
61	0xbda214b9	-0.07914109
62	0x3dade7b2	0.08491458
63	0x3bb897af	0.0056333165
64	0x3ce0bff8	0.027435288
65	0x3defbcd2	0.117059365
66	0xbd5abb36	-0.053401195
67	0x3e4c2d91	0.19939257
68	0xbd153804	-0.036430374
69	0x3f9f5739	1.2448493
70	0xbf614fb8	-0.88012266
71	0xbcc6c195	-0.024262229
72	0xbaf0dd57	-0.0018376511
73	0x3e53974f	0.20663188
74	0xbb950ac0	-0.0045484006
75	0xbde1290a	-0.10994156
76	0x3db00841	0.08595324
77	0x3d9a6922	0.07539584
78	0x3dec2330	0.11530149
79	0x3d11bb2c	0.03557889
80	0x3cbe94a7	0.023264242
81	0xbd35d990	-0.044396937
82	0x3d7b4a74	0.0613503
83	0xbdf2ba3a	-0.11851926
84	0xbd04197f	-0.032250877
85	0x3d81c732	0.063368216
86	0x3cbffe08	0.023436561
87	0x3dc31676	0.095257685
88	0x3d25dc9d	0.040493596
89	0x3deb4dc2	0.114894405
90	0xbdd8fdcd	-0.10595284
91	0x3af2d235	0.0018525781
92	0x3ec32c7e	0.38119882
93	0xbdbfe4a0	-0.09369779
94	0x3db13678	0.08652967
95	0x3c47e61f	0.012200861
96	0xbda7bad8	-0.081899345
97	0x3d65017f	0.05590963
98	0x3d8d69f5	0.06904975
99	0x3dd0b908	0.10191542
100	0xbd3daa1e	-0.046304815
101	0x3e83a8f0	0.25714827
102	0xbe0083cb	-0.12550275
103	0xbda2dbbc	-0.07952067
104	0xbd4e45b2	-0.050359435
105	0x3d102602	0.035192497
106	0x3d4a0b30	0.049327075
107	0xbd06dd4c	-0.03292589
108	0xbded5325	-0.11588124
109	0xbbf6f900	-0.0075370073
110	0x3dbc404c	0.09191951
111	0x3d77715c	0.060410842
112	0x3d5cb304	0.05388166
113	0xbb81dec0	-0.0039633214
114	0xbde054b4	-0.10953656
115	0xbd33564e	-0.04378348
116	0x3c89827b	0.01678585
117	0xbd4f80e8	-0.050660044
118	0x3e225300	0.15851974
119	0xbe3800f0	-0.17969108
120	0xbf7f90c1	-0.9983025
121	0xbc5e3720	-0.0135629475
122	0xbdd30560	-0.103037596
123	0x3d8c0567	0.06836968
124	0xbd5abf70	-0.053405225
125	0xbe184c6f	-0.14872907
126	0x3e987d07	0.29782888
127	0x3db7bf3a	0.089720204
128	0x3d7e4758	0.062079757
129	0xbda09a0a	-0.078418806
130	0x3d9f2219	0.077701755
131	0xbd7fa65c	-0.062414512
132	0x3da53da4	0.08068398
133	0x3d8cb0b6	0.068696424
134	0xbd391349	-0.045184407
135	0xbd91849b	-0.071053706
136	0x3d56b1f8	0.052415818
137	0xbd96da72	-0.07365884
138	0x3cb62fa8	0.022239521
139	0xbdd7ce0c	-0.10537347
140	0xbdf471d4	-0.119357735
141	0x3c307bd0	0.010771707
142	0xbc5d2250	-0.01349695
143	0xbd2c3074	-0.042038396
144	0xbdf28a70	-0.11842811
145	0xbd47232c	-0.048617527
146	0x3da00b20	0.07814622
147	0x3dbdefca	0.09274252
148	0xbdf5c074	-0.11999598
149	0xbd358050	-0.04431182
150	0x3c3a6125	0.0113757
151	0xbdad363f	-0.08457612
152	0xbe098f4a	-0.13433567
153	0x3d1ccb24	0.038279667
154	0x3d9fbba7	0.07799464
155	0xbe102518	-0.1407665
156	0xbdbb75b4	-0.091533095
157	0x3d7017d0	0.05861646
158	0x3c36eb00	0.011164427
159	0x3dd0cc83	0.101952575
160	0xbdb49b66	-0.088187024
161	0xbd186f83	-0.03721572
162	0xbda8ce20	-0.0824244
163	0xbdd9f318	-0.106420696
164	0x3db0141e	0.08597587
165	0xbd575ea8	-0.052580506
166	0xbd848eb6	-0.064725325
167	0xbc93c020	-0.018035948
168	0xbde39269	-0.1111191
169	0xbdb06a52	-0.08614029
170	0x3d69bee0	0.0570668
171	0xbde52688	-0.1118899
172	0xbdaa737a	-0.08322807
173	0xbd833444	-0.06406453
174	0xbdfb3c66	-0.122673795
175	0x3d75e468	0.06003228
176	0xbd7a116c	-0.06105177
177	0xbce49dc8	-0.027907267
178	0x3d46a23c	0.048494563
179	0xbd8148ae	-0.06312691
180	0xbc43a370	-0.011940822
181	0xbdc9dfa6	-0.09857111
182	0xbd235000	-0.039871216
183	0x3da4b807	0.08042913
184	0x3b805f72	0.003917628
185	0xbd96a10a	-0.073549345
186	0x3d9f7d62	0.07787587
187	0xbcac1c60	-0.021009624
188	0xbd533b20	-0.051570058
189	0x3cc8ac20	0.024496138
190	0xbde21200	-0.110385895
191	0xbd2dc2a8	-0.042421967
192	0x3d70d690	0.058798373
193	0xbdb4b5e0	-0.088237524
194	0x3d5762be	0.052584402
195	0xbce91ea3	-0.028456992
196	0xbc1978c0	-0.009367168
197	0xbd942ade	-0.07234739
198	0x3e087785	0.13326843
199	0x3d2e42a4	0.042544022
200	0xbd338a6e	-0.04383319
201	0x3e1b067e	0.15139195
202	0x3d245774	0.040122464
203	0x3d7e32dc	0.062060222
204	0xbd7b47ac	-0.06134765
205	0xbdab63b1	-0.08368624
206	0xbdea6564	-0.1144512
207	0xbc64c0f0	-0.0139620155
208	0x3e82dc46	0.2555868
209	0x3d01e898	0.03171596
210	0x3d3bd3a0	0.04585612
211	0x3c6b46ee	0.014360173
212	0x3dcbc398	0.09949416
213	0x3d97ce74	0.07412425
214	0xbe230b4f	-0.15922283
215	0xbe44a8da	-0.19205037
216	0xbd664897	-0.05622157
217	0xbdf87787	-0.12132173
218	0xbd78e839	-0.06076834
219	0x3e0d4e61	0.1379943
220	0xbd3f846b	-0.046757143
221	0xbd6d443a	-0.057926394
222	0xbd1aa0d0	-0.03775102
223	0x3db68b70	0.08913314
224	0x3d35a0ec	0.04434292
225	0x3e53f570	0.20699096
226	0x3da8ae2a	0.08236344
227	0x3df0718c	0.11740407
228	0xbc450c43	-0.012026849
229	0xbe8e88a5	-0.27838627
230	0xbdd7e2c3	-0.10541298
231	0xbd944650	-0.072399735
232	0xbd09c51f	-0.033635255
233	0xbde9006d	-0.11377034
234	0x3c1d73c0	0.0096101165
235	0x3d420de8	0.047376543
236	0x3d683fdb	0.056701522
237	0xbda3c66a	-0.07996829
238	0x3d8700e6	0.06591968
239	0x3dfed2ea	0.124425724
240	0xbded725e	-0.115940794
241	0xbdaed268	-0.085362256
242	0xbdccb9f4	-0.09996405
243	0xbdc5011a	-0.09619351
244	0xbe0a556f	-0.13509153
245	0xbb6642c0	-0.0035135
246	0x3e132469	0.14369358
247	0x3e9c6fb8	0.30553985
248	0x3aed8e46	0.0018124066
249	0xbdc642ec	-0.09680733
250	0x3cbd2840	0.023090482
251	0x3d9505e6	0.07276516
252	0xbd1687b0	-0.036750495
253	0xbe440615	-0.19142945
254	0x3f06632e	0.52495086
255	0x3cbbb69a	0.02291422

layers.2.bias f4 [32]
0	0xbcde79a8	-0.02715762
1	0x3d7145cf	0.058904465
2	0xbbd9eb51	-0.0066503664
3	0xbc97cb9f	-0.018529711
4	0xbde397fa	-0.111129716
5	0xbe071b02	-0.13193896
6	0xbe0953b9	-0.13410844
7	0xbd5fb519	-0.054616068
8	0x3cd271ba	0.025688995
9	0x3d2e807c	0.042603
10	0x3d4d6727	0.050147202
11	0x3d783dd8	0.060605854
12	0x3d8cbec7	0.068723254
13	0x3d968dac	0.073512405
14	0xbdbc06b4	-0.09180966
15	0xbcbf13d4	-0.023324884
16	0x3db7be78	0.08971876
17	0xbe169207	-0.14704143
18	0x3dafa56b	0.08576473
19	0xbd024c5e	-0.03181111
20	0x3db992f3	0.090612315
21	0x3d41da69	0.047327433
22	0xbce49a30	-0.027905554
23	0xbd95437d	-0.07288263
24	0xbd483488	-0.048878223
25	0x3e02e628	0.1278311
26	0x3dcb698e	0.09932242
27	0xbd09b46c	-0.03361933
28	0xbdbc0865	-0.09181289
29	0x3e11ffd8	0.14257753
30	0x3d9ef6a6	0.07761888
31	0xbdcf1cae	-0.10112892

layers.4.weight f4 [1, 32]
0	0xbdc4f9e2	-0.09617974
1	0x3e1322c6	0.14368734
2	0x3ca543e1	0.020173969
3	0x3cc92b3d	0.02455675
4	0x3bc15460	0.005899951
5	0x3bf912b0	0.0076011047
6	0xbc4e18fc	-0.012579199
7	0xbe8bc0c1	-0.27295497
8	0xbedceeee	-0.4315104
9	0xbc116a67	-0.008875466
10	0x3dd9ad2a	0.106287315
11	0xbe269e8b	-0.16271417
12	0x3dfab0e4	0.122407705
13	0xbd097243	-0.033556234
14	0x3dcb29de	0.09920095
15	0xbdb555d7	-0.08854263
16	0x3d86da1b	0.06584569
17	0xbdfc0ccc	-0.12307128
18	0x3deac41b	0.114631854
19	0xbcd0b873	-0.025478577
20	0xbd9f7786	-0.07786469
21	0x3e210b7b	0.15727036
22	0xbdec3461	-0.11533428
23	0xbe5e1a4b	-0.21689717
24	0x3de0499a	0.109515384
25	0x3d7d9ab7	0.061915126
26	0xbd4cf7a8	-0.05004087
27	0xbe135d9a	-0.14391175
28	0xbee8489f	-0.45367905
29	0x3d8ae691	0.06782258
30	0x3ddd6872	0.10810937
31	0xbd580c52	-0.052746125
