weight/randomly/best_CNNRegressor_DA_randomly.pth (torch, 9764 bytes, 5 tensors)

conv1.weight f4 [16, 2, 3]
-0.28172454 -0.22204581 -0.04408306 0.35952032 -0.39793542 -0.06060636 -0.0042818785 -0.049713474
-0.26241976 0.26074433 0.66765624 0.34694707 -0.19868153 0.28492022 -0.15610239 -0.2374443
0.6412365 0.38836604 0.32400727 -0.24265935 0.16064942 0.19288224 0.61765987 -0.09128389
0.26832104 -0.355333 0.107569754 0.016012847 -0.045414805 0.10078585 0.24598473 -0.42128745
-0.09938997 0.1633839 0.13151298 -0.40810055 -0.010765761 0.16672489 -0.021282673 -0.10083476
0.5809875 -0.21685714 0.049614727 0.098455906 0.14268202 -0.0035761595 -0.40292147 -0.06790534
-0.052918494 -0.0656614 -0.39527854 -0.32298964 -0.35069725 0.033810377 -0.23448846 -0.18293507
-0.14495045 -0.34408444 0.6042635 -0.14742988 -0.3464111 -0.30646443 0.32381517 0.15762174
-0.37134108 0.037511677 0.3407076 -0.24896485 -0.23737003 -0.29911923 -0.083759725 0.24519402
-0.017958552 0.35008293 0.3121407 0.005054891 0.31986 0.18208134 -0.17149873 -0.136193
-0.2183555 -0.3628775 0.31128338 0.13542259 -0.10670626 -0.36452398 -0.16131301 0.3069262
-0.23939507 -0.15943997 0.32013392 0.15482152 0.13314152 0.40282768 0.5599695 -0.08539885
00000000: 333e 90be fa5f 63be 7090 34bd 0c13 b83e
00000010: 31be cbbe 603e 78bd 004f 8cbb 5ba0 4bbd
00000020: e25b 86be 4880 853e 85eb 2a3f 0ca3 b13e
00000030: 2c73 4bbe 10e1 913e 4ed9 1fbe 9924 73be
00000040: 1328 243f ead7 c63e 48e4 a53e b17b 78be
00000050: 4881 243e ec82 453e f51e 1e3f 0cf3 babd
00000060: 6061 893e 35ee b5be 884d dc3d 602d 833c
00000070: e004 3abd d068 ce3d 6ce3 7b3e fdb2 d7be
00000080: f88c cbbd 1c4e 273e 57ab 063e 8ef2 d0be
00000090: e062 30bc eeb9 2a3e 0059 aebc 7482 cebd
000000a0: 99bb 143f cc0f 5ebe d038 4b3d 40a3 c93d
000000b0: 3c1b 123e 005e 6abb b94b cebe f411 8bbd
000000c0: 10c1 58bd 7c79 86bd f361 cabe e65e a5be
000000d0: 978e b3be c07c 0a3d be1d 70be 5553 3bbe
000000e0: e46d 14be d62b b0be 03b1 1a3f dcf7 16be
000000f0: cc5c b1be e8e8 9cbe 1acb a53e 9867 213e
00000100: 6b20 bebe d8a5 193d 3a71 ae3e a4f0 7ebe
00000110: 2111 73be 2826 99be 388a abbd 2414 7b3e
00000120: d01d 93bc 123e b33e e8d0 9f3e 80a3 a53b
00000130: b1c4 a33e 8873 3a3e 5d9d 2fbe 2e76 0bbe
00000140: 9698 5fbe 14cb b9be 8960 9f3e 38ac 0a3e
00000150: d088 dabd e3a2 babe 3d2f 25be 6e25 9d3e
00000160: fb23 75be 3b44 23be 98e8 a33e 8889 1e3e
00000170: 4056 083e 6e3f ce3e 295a 0f3f 98e5 aebd

conv1.bias f4 [16]
-0.0018743863 0.01284912 -0.14408843 0.03461299 0.38142028 0.34615323 -0.027320374 -0.17162824
-0.33414254 0.10196685 0.25478536 -0.30902687 -0.14990021 0.08511445 -0.31187427 0.16182485
00000000: f8ad f5ba 1e85 523c eb8b 13be 5ac6 0d3d
00000010: 8549 c33e ff3a b13e face dfbc 50bf 2fbe
00000020: bb14 abbe ffd3 d03d 3a73 823e c538 9ebe
00000030: 717f 19be 7c50 ae3d fcad 9fbe 6ab5 253e

conv2.weight f4 [32, 16, 3]
-0.1025236 -0.00022463819 0.066616625 0.066801935 0.4338003 -0.054958582 -0.055420987 -0.08260981
-0.03255233 -0.08005438 0.19018285 -0.0076580793 -0.12613297 -0.08186145 0.110078216 0.104198694
-0.0014542262 -0.086460866 0.1087794 -0.049991455 0.12433189 0.0011048168 0.0585244 0.03635256
-0.026367776 -0.019430958 0.14081296 0.13855314 0.13580818 0.028085828 -0.1209659 -0.15101941
-0.09920597 -0.060329832 -0.08201264 -0.015728757 0.13631019 -0.043418743 -0.14423147 0.12963429
-0.093795374 -0.076399796 -0.020402186 -0.1216322 -0.12769756 0.08315873 0.005597523 0.0018605739
0.115264386 0.15855354 0.09072323 0.12350452 0.3998274 -0.088637605 0.0088512 -0.55474335
0.09364486 0.0044501424 0.43632045 0.11134514 0.10277271 0.15688156 -0.13716675 0.12918127
0.11669263 0.104729876 -0.049660653 0.031754542 -0.0057695955 0.108508885 -0.008356571 0.07723105
-0.118997216 0.06601301 0.07363361 0.07838492 0.43517083 0.0128747225 0.015874892 0.16445781
0.0940357 -0.030406684 -0.0587406 -0.13648494 0.024412185 -0.39668208 -0.026410125 0.11176732
0.12856299 0.09092553 0.08913252 -0.03311698 -0.017078951 -0.1164547 0.1995866 -0.019569263
-0.03135147 0.03180651 0.05471714 -0.069710955 -0.19593607 0.14321235 -0.12427157 0.1412059
0.020152956 0.00265795 0.09343827 -0.043250695 0.12645385 -0.13931286 -0.1402948 -0.13290921
0.056192875 0.012231708 -0.13322543 -0.04468555 -0.096278824 0.0080188215 -0.05065319 -0.001398325
-0.0786422 -0.044809833 0.04850933 0.0072230697 -0.18923403 -0.015623838 -0.019006327 0.1396787
-0.034273542 0.055339977 0.019307643 0.07859427 0.11301887 0.094713956 0.037031278 0.04446107
0.1793935 0.0038974881 0.00802061 -0.11193575 -0.08455858 0.10162288 0.07001718 0.09744607
0.067021444 -0.13879748 -0.12256618 0.14127973 -0.13770743 -0.1306368 0.13984215 -0.12668686
-0.026290469 -0.008834511 0.08395394 0.14154413 -0.05905857 0.030603295 -0.0027524382 0.043829665
-0.17188968 0.054386184 0.06852734 -0.09386132 0.11967939 -0.014953151 0.052575603 0.12894416
-0.035967834 -0.029254906 0.07091473 -0.11282739 0.07782689 -0.05322198 -0.10056671 0.020006303
0.113477975 0.122368425 0.10957745 -0.067762695 0.06918958 -0.0029989681 0.0983976 -0.049338154
-0.063077986 0.013856456 -0.024490029 -0.07786619 -0.13855138 0.09345628 0.0038631058 0.07458198
-0.087512866 -0.026925452 0.14286846 -0.009878278 -0.07837864 -0.123900995 -0.14230241 0.09259699
0.04828626 -0.06537207 -0.11377344 0.10188113 -0.14103863 -0.10176653 0.1130712 0.066768855
0.112615526 -0.040915497 0.089684635 0.05230199 0.04548852 0.007393405 -0.061822034 -0.024447389
-0.08359991 0.009511232 0.054615512 -0.110834524 0.026947884 0.1248804 0.03361079 -0.050438374
0.12998983 -0.04651653 0.042172506 -0.014825001 0.09745146 0.101175666 -0.08104046 -0.017923579
-0.15307476 -0.13299744 -0.08279313 -0.073631614 -0.1096834 0.07323718 -0.006610483 0.1380173
0.052290022 -0.08518839 0.05884099 -0.084128916 -0.10136658 -0.037205115 0.08769305 -0.12746845
0.06684585 -0.029070742 -0.042001992 -0.11206877 0.025607273 -0.076737285 0.04389459 0.1247558
00000000: e5f7 d1bd db8c 6bb9 4c6e 883d 74cf 883d
00000010: 131b de3e 401c 61bd 1e01 63bd 552f a9bd
00000020: 9855 05bd 8df3 a3bd 4bbf 423e a0f0 fabb
00000030: 0029 01be faa6 a7bd b070 e13d 2066 d53d
00000040: bc9b beba 6512 b1bd bcc7 de3d d7c3 4cbd
00000050: b8a1 fe3d 80cf 903a 48b7 6f3d 6ce6 143d
00000060: 3c01 d8bc ac2d 9fbc 4631 103e e0e0 0d3e
00000070: 4d11 0b3e 4014 e63c f8bc f7bd d5a4 1abe
00000080: 802c cbbd 6a1c 77bd 3ef6 a7bd 98d9 80bc
00000090: e694 0b3e dad7 31bd 6ab1 13be dabe 043e
000000a0: ca17 c0bd 7f77 9cbd 7c22 a7bc 4e1a f9bd
000000b0: 26c3 02be 204f aa3d 6d6b b73b 80de f33a
000000c0: bc0f ec3d dc5b 223e 1acd b93d f0ef fc3d
000000d0: 2db6 cc3e a287 b5bd a004 113c a903 0ebf
000000e0: e0c8 bf3d 80d2 913b 6565 df3e ec08 e43d
000000f0: 807a d23d 8fa5 203e 7175 0cbe 1848 043e
00000100: 8cfc ee3d 9e7c d63d f868 4bbd 0d11 023d
00000110: e00e bdbb e839 de3d 00ea 08bc 502b 9e3d
00000120: d0b4 f3bd d431 873d 38cd 963d 4688 a03d
00000130: b6ce de3e 80f0 523c 100c 823c a167 283e
00000140: ca95 c03d 7017 f9bc fc99 70bd b5c2 0bbe
00000150: 10fc c73c ea19 cbbe 0c5a d8bc 44e6 e43d
00000160: 04a6 033e 2a37 ba3d 1c8b b63d aca5 07bd
00000170: 28e9 8bbc cd7f eebd 6e60 4c3e b84f a0bc
00000180: 666a 00bd 8b47 023d 141f 603d 9ec4 8ebd
00000190: 77a3 48be 42a6 123e 1882 febd 4898 103e
000001a0: d017 a53c 0031 2e3b 905c bf3d a427 31bd
000001b0: 1e7d 013e 08a8 0ebe 71a9 0fbe 5a19 08be
000001c0: 802a 663d 8067 483c 3f6c 08be 3208 37bd
000001d0: d52d c5bd 6061 033c b879 4fbd 0048 b7ba
000001e0: 290f a1bd 848a 37bd b8b1 463d 80af ec3b
000001f0: 91c6 41be 20fb 7fbc 28b3 9bbc ef07 0f3e
00000200: 6a62 0cbd 2cac 623d 102b 9e3c 08f6 a03d
00000210: 7076 e73d 64f9 c13d 1cae 173d d01c 363d
00000220: eeb2 373e 006d 7f3b e068 033c 923e e5bd
00000230: 0c2d adbd a81f d03d 2b65 8f3d ce91 c73d
00000240: 8a42 893d ed20 0ebe fa03 fbbd a2ab 103e
00000250: 2d03 0dbe a7c5 05be c832 0f3e 33ba 01be
00000260: 1c5f d7bc a0be 10bc 0bf0 ab3d f2f0 103e
00000270: 66e7 71bd c3b3 fa3c 4062 34bb bc86 333d
00000280: d903 30be 0cc4 5e3d 1058 8c3d 5d3a c0bd
00000290: 781a f53d 10fe 74bc 8459 573d f009 043e
000002a0: 0253 13bd fca7 efbc be3b 913d 0c12 e7bd
000002b0: b463 9f3d 4aff 59bd ebf5 cdbd 42e4 a33c
000002c0: 2467 e83d 4c9c fa3d 246a e03d 2bc7 8abd
000002d0: 44b3 8d3d 568a 44bb ae84 c93d ce16 4abd
000002e0: 082f 81bd 3006 633c 509f c8bc 4f78 9fbd
000002f0: 6ae0 0dbe 0266 bf3d 292c 7d3b 70be 983d
00000300: f239 b3bd c492 dcbc 1c4c 123e 80d8 21bc
00000310: fb84 a0bd cebf fdbd b9b7 11be 7ea3 bd3d
00000320: d0c7 453d cbe1 85bd 0d02 e9bd 0ea7 d03d
00000330: 6e6c 10be f86a d0bd e091 e73d 1cbe 883d
00000340: f8a2 e63d 0297 27bd 94ac b73d 9d3a 563d
00000350: 2c52 3a3d 6044 f23b 1a39 7dbd e445 c8bc
00000360: 6e36 abbd 00d5 1b3c 84b4 5f3d 36fd e2bd
00000370: cfc1 dc3c 4cc1 ff3d 78ab 093d 7898 4ebd
00000380: 0e1c 053e 1e88 3ebd 14bd 2c3d 90e4 72bc
00000390: a294 c73d 3035 cf3d 8af8 a5bd 78d4 92bc
000003a0: a1bf 1cbe 7b30 08be 728f a9bd 2ccc 96bd
000003b0: b1a1 e0bd 60fd 953d c09c d8bb 6854 0d3e
000003c0: 102e 563d 4077 aebd 4003 713d c84b acbd
000003d0: 4899 cfbd 6464 18bd 6a98 b33d 1787 02be
000003e0: 7ae6 883d c425 eebc 480a 2cbd 5084 e5bd
000003f0: 58c6 d13c 7028 9dbd d0ca 333d f87f ff3d

conv2.bias f4 [32]
0.073867686 -0.02957643 0.05433717 0.0038085603 -0.063365564 -0.077065356 -0.09065643 0.02095915
-0.09878488 0.14659096 0.14496483 0.00018354475 -0.06827174 -0.18082117 0.12487639 0.15920797
0.052102566 0.099445544 -0.12941697 -0.08172758 -0.109967805 -0.05121416 0.073188744 -0.11472835
0.05470905 0.1566289 0.036177147 -0.056895092 0.057178844 -0.059785165 -0.09161476 0.10055137
00000000: f147 973d 454a f2bc a790 5e3d 0a99 793b
00000010: cec5 81bd 71d4 9dbd 14aa b9bd 86b2 ab3c
00000020: ba4f cabd f11b 163e a971 143e eb75 4039
00000030: 0ed2 8bbd 2f29 39be 31bf ff3d 6a07 233e
00000040: 8069 553d 1baa cb3d e285 04be ca60 a7bd
00000050: cd36 e1bd f0c5 51bd fbe3 953d b2f6 eabd
00000060: 9916 603d 5463 203e 7d2e 143d d40a 69bd
00000070: 5d34 6a3d 4ae1 74bd 85a0 bbbd e0ed cd3d

fc.weight f4 [1, 32]
0.18832047 0.41018316 -0.08193732 -0.032964736 -0.10928349 -0.03902319 -0.08188606 -0.31999284
0.090586975 0.061443597 0.11965205 0.04347002 -0.08463135 -0.45904896 0.17725848 0.119628936
-0.22904381 0.06315855 -0.16158839 -0.058625564 -0.061819606 0.037981126 -0.18409131 0.07425089
0.1766304 0.05748674 0.0062259613 0.10473837 -0.266657 0.016435072 -0.13366829 0.16444382
00000000: 15d7 403e 8703 d23e c1ce a7bd 0806 07bd
00000010: 06d0 dfbd c8d6 1fbd e1b3 a7bd 1ad6 a3be
00000020: aa85 b93d 48ac 7b3d 220c f53d 9f0d 323d
00000030: 3453 adbd 7708 ebbe 3f83 353e 0400 f53d
00000040: 768a 6abe 4559 813d 6d77 25be 5c21 70bd
00000050: 8e36 7dbd 1992 1b3d 6f82 3cbe da10 983d
00000060: 99de 343e 3777 6b3d 2603 cc3b 1281 d63d
00000070: 4487 88be d8a2 863c 57e0 08be f663 283e
