weight/randomly/best_CNNRegressor_FE_randomly.pth (torch, 9764 bytes, 5 tensors)

conv1.weight f4 [16, 2, 3]
00000000: 0d52 cbbe d00a e4bd f50a 25be 50e6 823e
00000010: f00f 39bd fa57 bf3e f737 6fbe 1185 ccbe
00000020: 30b3 ec3d 6c04 113e dce6 b6be 105d 16bd
00000030: 890d a4be 2033 083d 902f 05bd d602 acbe
00000040: 52eb 403f 20ca fb3d 7c3d ae3d f9d6 8b3e
00000050: c9d0 c9be 90e6 d0be c363 e7bd 101a ff3d
00000060: a04a 66bd 1ab4 59be 0c6b 443e 58b3 7dbe
00000070: 99cc d83e 3027 ebbc 408b e2bd 0b3b ebbc
00000080: aef2 ae3e f0bc 92be 68c7 2c3f 00bf 623b
00000090: 00af 13bd 286d 1dbd e85e 813e 3061 16be
000000a0: dcf0 b8bd 0a97 21be ce7a a0be b0a3 80bd
000000b0: a893 5bbd f0a5 973c f841 d23d 8c54 593e
000000c0: 949f 9b3d 5b4c c1be a8a6 96bd 04c1 083e
000000d0: 07cf 77be 00a9 90bc 70e5 ed3c 0043 173e
000000e0: 36d5 31be 8fa2 cebe cc66 d4bd 5606 96be
000000f0: c83c a1be 3a52 bbbe 73d8 afbe 60b0 a63c
00000100: d339 e4bb c817 7a3d 6839 3a3e 8cf4 c63e
00000110: 0cfd 483e 6cc1 8cbd b045 fe3e 8421 293e
00000120: a83d babd 585f 703e 54a9 a73e cc44 9fbe
00000130: 7066 8cbe 62b9 77be 61d7 9abe 2f61 94be
00000140: 3cfe 7a3e 422d a9be d8aa db3c cc4a 123e
00000150: 6015 c4bc 00ba b9bd 7027 2f3d fae4 91be
00000160: 38cd 01bd 08de 0e3e 0859 ed3d 6f0e a3be
00000170: eeb8 b03e 0a5c b7be dbed 5bbe 1c6e 333e
-0.39711037 -0.11134875 -0.16117461 0.2556634 -0.045181215 0.37371808 -0.23361193 -0.39945272
0.11557615 0.14161843 -0.35723007 -0.036709845 -0.32041577 0.03325188 -0.032516062 -0.33595914
0.7535907 0.12294412 0.08507821 0.2731245 -0.39417103 -0.40800905 -0.11298325 0.12456143
-0.05622351 -0.2126011 0.1918146 -0.24775445 0.42343596 -0.02870521 -0.11061716 -0.028714677
0.34169525 -0.28659773 0.6749177 0.0034598708 -0.036055565 -0.038434178 0.2526772 -0.14685512
-0.09030315 -0.15780273 -0.31343693 -0.06281221 -0.053607613 0.018511742 0.10266489 0.21223658
0.075987965 -0.37753567 -0.07356006 0.1335488 -0.24200068 -0.01765871 0.029040068 0.14771652
-0.1736649 -0.40358397 -0.103711694 -0.2930171 -0.31491685 -0.3658617 -0.34344825 0.020347774
-0.006964901 0.061057836 0.18185961 0.3885845 0.1962778 -0.0687283 0.49662542 0.16516691
-0.09093791 0.23473871 0.32746375 -0.31107175 -0.27421904 -0.24191812 -0.30242446 -0.28980395
0.24511045 -0.3304234 0.026814863 0.14286345 -0.023935974 -0.0906868 0.04276222 -0.28495008
-0.031689852 0.13951886 0.11589247 -0.3184695 0.3451609 -0.35812408 -0.21477453 0.17522472

conv1.bias f4 [16]
00000000: 0d8b b1be c761 cabe b60b 3b3e 66be 943e
00000010: 7d16 0e3e cf83 a73d 11a2 d0be be7d 90be
00000020: 7816 823e 26ba 2ebe 514a bd3e f6cc 95be
00000030: 20e0 85be fa15 473e 9061 04bd 80a0 abbe
-0.346764 -0.39527723 0.18266186 0.29051512 0.13875766 0.08179437 -0.40748647 -0.28220934
0.25407767 -0.17063197 0.3697076 -0.29257935 -0.26147556 0.19441977 -0.032319605 -0.3352089

conv2.weight f4 [32, 16, 3]
00000000: ce36 033e 0416 003d c0bb 5fbb 4a79 afbd
00000010: 766c 89bd 28c8 f8bd 9c58 133e a526 9f3d
00000020: c2c9 823d 92c2 35bd 7a61 0f3d 0098 123b
00000030: 80e7 dc3d 6864 85be f0c3 5d3d 6007 833b
00000040: 0ca4 00be 723a 0dbe c038 54bc 9c7e 113e
00000050: 201e eabb cacc b33d 58e4 c73c 8c3c 633d
00000060: 6483 f1bd bd4e 1e3d 9e5d 0ebd 0c95 ed3d
00000070: aaec d3bd 1f17 efbd d089 5bbc c603 e83d
00000080: 9a57 023e 6c30 ec3d 0574 333f 8ca5 023e
00000090: b898 ec3d e21d e1bd f4aa e23d e6da 23bd
000000a0: ed38 773b c48b c03d 00d0 5db9 40ea 0c3e
000000b0: 2649 0d3e 8063 ed3a d09c e1bd 3115 12be
000000c0: b4b2 ab3d 1282 9cbd 30d8 e83d 629c 083e
000000d0: 88e7 093e 54c3 f83d 6494 de3d 56da 3fbd
000000e0: 1872 a23c f04d 8d3c e829 cb3c 9383 12be
000000f0: e404 853d e6af 94bd f8cf 10bd 5c42 b4bd
00000100: 0003 c23a 9c75 0bbd 205b 14bc f447 073e
00000110: f4c9 dc3d 8019 8d3c da7b b6bd b0e8 64bc
00000120: f29c 053e 402b 50bd e807 89bc ceb3 c9bd
00000130: 0eec c83d 6f46 94bd ae11 cd3d 7dea dbbd
00000140: d055 2f3d ac29 473d e4cb d3bd 7f4d abbd
00000150: b43c c33d f81b e9bd ba9c 41bd 6435 8f3d
00000160: b001 3dbd b0f9 343c 7612 4dbd 1c59 123e
00000170: 5559 f7bd 4a3e acbd 348a 60bd 687c 883c
00000180: 84ad 6bbd 1c56 b43d 708c 0bbc b36e e6bd
00000190: 6a2e 53bd 00ec d8bd 1423 8c3d 6deb d7bd
000001a0: 448a ddbc e853 fc3d 5648 43bd 5ef2 89bd
000001b0: 38ae 08be 3a61 18be 6ee8 40bd 9cc5 f3bd
000001c0: 0f50 bc3d f483 fcbd 002c 83bb 005c 723a
000001d0: 8966 b2bd 9482 223d 801b 263b 9037 ac3d
000001e0: 8ed7 a73d bc7b 97bd eeac 053e 1ca9 493d
000001f0: 68ec 883d 28ba b13d e013 65bc 244d 043c
00000200: 3a3a 92bd 1e47 ab3d dc63 d73d b001 373c
00000210: 6ed4 02bd 722b 983d 605e aebb 79ef 98bd
00000220: ded7 ef3d 800d 97bb ac57 fd3d de74 053e
00000230: a43b 9abd 945e 67bd 7075 12be 901f 953d
00000240: dcd8 533d d6ad c83d b4a9 0e3d 81e3 d7bd
00000250: b0e3 0e3e 41fc 92bd f8f6 0ebd da22 623e
00000260: e289 c63d bcab 95bd f7e3 bc3d 7c69 da3d
00000270: e0a7 353d d90c 5e3d 4267 c4bd 081d dd3c
00000280: 5aab 943e f4ba 4ebd 7078 db3c d5a9 8bbd
00000290: 80c3 da3d 00c8 3839 3080 b33d f035 c83d
000002a0: 1804 c63d 9be3 a8be 04a0 9fbc 4444 0b3d
000002b0: 28a0 84bd 1cd4 fc3d c219 063e f14b 123c
000002c0: 9e57 69bd f4b9 5a3d cb73 ba3c 681e f53d
000002d0: 3a23 3fbd 9c6c 29bd e652 f3bd d460 0bbe
000002e0: 344c a0ba 2285 7abd d0e3 ff3c 4a84 64bd
000002f0: 71e1 c4bd 5673 be3d 3c5b f33d 4e00 a13d
00000300: 0afc 56bd 589e e13d c33e f4bd 7073 623d
00000310: 03d3 05be 404b 5b3d 8074 9eba ad3e d53c
00000320: 5ad8 3bbd 983d 023d e442 13be 7e43 41bd
00000330: a0c3 403c f74d 083d 5c8a 60bd 40d2 793c
00000340: 3b1b 343b dc23 aebd 001f 493c 84b9 df3d
00000350: 6878 c93c dd8c 94bd 1c74 8b3d d0b9 54bc
00000360: 7ef2 c53d 951c febd 2c86 ef3d c41f 103e
00000370: e8fb 0a3d 0975 93bd 38a7 903d d4c3 e43d
00000380: 14f1 f2bc 4f5d 08be 6b24 13be 9075 ddbc
00000390: 54db 07be 7ec6 dcbd 7ef0 8cbd 64e9 5b3d
000003a0: 6305 18be fe63 4abd 905f 60bc 3c45 02be
000003b0: 3845 e13d 6c11 dbbd f0ed 98bc bef7 a33d
000003c0: 505b ce3d 90a9 dc3c 7084 f23d 41b0 95bd
000003d0: 4437 b53d b0e5 b1bd d4cb 063d ea34 0b3d
000003e0: b602 37bd 0c20 6f3d 318d 1d3e 2b8c fcbd
000003f0: dea4 ebbd 459a 5c3e e09b bb3d 7c03 f0bc
0.12813875 0.031270996 -0.0034139007 -0.08568056 -0.067101404 -0.12147552 0.1438927 0.07771043
0.063861385 -0.04437501 0.03500507 0.002236843 0.107863426 -0.26053166 0.05414194 0.003998682
-0.12562579 -0.13791826 -0.012952983 0.14208454 -0.0071447045 0.08779295 0.024400875 0.055477664
-0.11792639 0.03864931 -0.03475725 0.11600694 -0.103478745 -0.11674332 -0.013399556 0.11328845
0.1272873 0.11532673 0.70098907 0.12758464 0.11552566 -0.10992028 0.11067763 -0.04000368
0.003772314 0.09401658 -0.00021153688 0.13761234 0.13797435 0.0018111318 -0.11016238 -0.14265896
0.08383694 -0.076419964 0.113693595 0.13340905 0.13467228 0.12146631 0.10868147 -0.04683908
0.019829795 0.017249078 0.024800256 -0.14308004 0.064950734 -0.072601125 -0.035354584 -0.088017195
0.001480192 -0.034047708 -0.009054929 0.13211042 0.10780707 0.017224073 -0.089103416 -0.013971493
0.13048151 -0.050822496 -0.016727403 -0.09848748 0.09810649 -0.07239997 0.10013138 -0.107380845
0.042806447 0.048623726 -0.103416234 -0.083643906 0.095330626 -0.11382288 -0.047268607 0.06992605
-0.046144187 0.011045858 -0.050066434 0.14291805 -0.120775856 -0.08410318 -0.0548193 0.016660884
-0.057538524 0.088054866 -0.00851737 -0.11251583 -0.051557936 -0.105918884 0.06842628 -0.10542951
-0.02704347 0.12320691 -0.047676407 -0.06735681 -0.13347709 -0.14880839 -0.047096662 -0.11902925
0.091949575 -0.123298556 -0.004003048 0.00092452765 -0.08710963 0.03967531 0.002534598 0.08409035
0.08195411 -0.07396647 0.13054249 0.04923354 0.06685716 0.086780846 -0.013981789 0.008075032
-0.07140012 0.08363174 0.105170935 0.011169836 -0.03194087 0.074301615 -0.005321309 -0.07467551
0.11711095 -0.0046097636 0.12370238 0.13032863 -0.07530907 -0.05648668 -0.14302611 0.07281411
0.051720485 0.097987816 0.03482981 -0.1054144 0.13954043 -0.0717702 -0.034903497 0.22083607
0.09694268 -0.07308146 0.09223168 0.10664651 0.04434955 0.05421147 -0.09590007 0.026991382
0.2903698 -0.05047126 0.026790828 -0.06819502 0.1068182 0.00017622113 0.08764684 0.09775913
0.096687496 -0.3298615 -0.019485481 0.03400065 -0.0647586 0.12345144 0.13095763 0.008929239
-0.056968324 0.053399995 0.022760293 0.1196869 -0.046664454 -0.041363344 -0.11881046 -0.13611156
-0.0012229742 -0.06116212 0.03123656 -0.055790223 -0.09613312 0.09299342 0.11882636 0.07861386
-0.052486457 0.1101653 -0.11926033 0.05528587 -0.13068776 0.05353856 -0.0012089163 0.026030863
-0.045860626 0.03179702 -0.14380985 -0.047183506 0.011765391 0.033277478 -0.05481945 0.015247881
0.002748205 -0.085029334 0.012275457 0.10924056 0.024593547 -0.0725343 0.068092555 -0.012983754
0.09665392 -0.12407795 0.11695513 0.14074618 0.033931643 -0.07200057 0.070631444 0.11170164
-0.02965597 -0.13316844 -0.14369361 -0.027033597 -0.13267261 -0.10780047 -0.06881808 0.053689376
-0.14845805 -0.049411766 -0.013694659 -0.12721723 0.109995306 -0.10696682 -0.018668145 0.080062374
0.1007601 0.026936322 0.11841667 -0.073090084 0.08848432 -0.086863875 0.03290923 0.03398601
-0.04468032 0.05838017 0.15385891 -0.123314224 -0.11506055 0.21543224 0.0916059 -0.029298536

conv2.bias f4 [32]
00000000: 3e74 a4bc 6bee a6bd f8bc b1bd 1faa c7bd
00000010: 5eaf 303b 4c61 863d c7a6 a83d 83d2 f23d
00000020: 6cdd f13c cc3d c0bd 56ec 0f3d ece8 673c
00000030: 61c7 cdbd 8ddf ae3d 6207 cbbd 4e0d 1c3e
00000040: 80db 383d b0ce 2ebd c0b4 5c3c 552e 913d
00000050: e4d0 acbd 9abe 0ebe 8dc3 bd3c 4de7 af3d
00000060: b03d 263c 57a3 b13d 9d37 0fbe 7893 c83d
00000070: c214 d8bd 4569 bdbc 25b1 d53c 4978 6d3d
-0.02007496 -0.08150943 -0.08678621 -0.09749245 0.0026959996 0.06561527 0.08234935 0.11856558
0.029524527 -0.09386787 0.035137497 0.014154654 -0.10047794 0.08538733 -0.099135175 0.1523945
0.045131207 -0.04267758 0.0134708285 0.07088915 -0.0843828 -0.13939896 0.023164535 0.08589039
0.010146543 0.08673733 -0.13986059 0.097937524 -0.10550834 -0.023121485 0.026085446 0.05797604

fc.weight f4 [1, 32]
00000000: f7dc 25be 9bd2 2e3e 8ef0 0dbe 9981 c2be
00000010: aec9 c2bd be94 3e3e 2fde 16be c04f 06be
00000020: 4295 43be 902f c6bd d9c4 dcbe c500 123e
00000030: c67c 553e 1b42 d5be b411 9ebe 7e0b 0a3e
00000040: 6d41 a5bd 3e3c e73d a271 9b3d f95d 213d
00000050: d729 1c3e 21c8 babd 692e 46be 7e39 e8bd
00000060: e0dd e63b 40c9 793c cf00 203e 50d1 99be
00000070: af7f 743d 4299 393e ad9d fe3d 61b1 ff3d
-0.16197573 0.17072527 -0.13861296 -0.379895 -0.095111236 0.18611428 -0.14733194 -0.1311636
-0.19099906 -0.096770406 -0.43118933 0.14258106 0.20848379 -0.41651997 -0.3087288 0.13480946
-0.080691196 0.11290787 0.07590033 0.03939626 0.15250336 -0.09120203 -0.19353642 -0.11339091
0.0070454925 0.015245736 0.15625308 -0.30042505 0.05969208 0.1812487 0.12432418 0.12485004
