weight/randomly/best_RNNRegressor_OR_randomly.pth (torch, 7652 bytes, 5 tensors)

rnn.weight_ih_l0 f4 [32, 2]
00000000: 0a27 85bd 3120 973e 81e2 c6be 7a80 68bf
00000010: 1016 2b3c 713a ce3e a900 45be 3e50 81bd
00000020: aabf b4be bf4a 9a3d bdf6 183e a751 0f3e
00000030: 3885 0f3e 458e e33c 5b2b 35bd 15ea a9bb
00000040: 4a94 15be 9735 2bbf 4116 153f 9513 ec3f
00000050: 8628 4f3d 8a55 f13e 055d 763e 63d6 883e
00000060: db41 cebd 3234 6c3e d090 8dbd 1dcc a13e
00000070: 723e e2bd 32fe 8c3e 7554 883e 3d79 f23e
00000080: 1e60 b13b a174 e039 828d fe3c 5bb3 063f
00000090: 636d 333e d09b 65be e474 153f 8bde e63f
000000a0: b0ff b03f 2299 fabf d153 b13b 5c41 e139
000000b0: f454 2f3d 5547 fdbe 95a3 f2bd 6ee2 92bc
000000c0: a1c2 f53c b8f8 cebe 1721 dcbd 8fa2 85be
000000d0: e240 81bf 20b9 9d3f 1881 96c0 c12d ab3f
000000e0: 9680 f5bd 1fed 0fbe 6d67 ff3c 775f e93b
000000f0: 8327 15be f8c6 d3bb 152c f2bd 04c3 c23e
-0.06501587 0.29516748 -0.38844684 -0.9082104 0.010442272 0.40278962 -0.19238533 -0.06314133
-0.35302478 0.07533788 0.14937873 0.13995992 0.14015663 0.0277778 -0.0442308 -0.0051853755
-0.14607349 -0.66878647 0.5823708 1.8443476 0.050575756 0.47135574 0.24058922 0.26726064
-0.10071155 0.23066786 -0.069123864 0.3160104 -0.11047067 0.27537686 0.26626936 0.47358122
0.0054130694 0.00042811505 0.031073336 0.52617425 0.17522196 -0.22422719 0.58381486 1.8036665
1.382803 -1.9577982 0.005411603 0.0004296404 0.042805627 -0.49468485 -0.11847607 -0.017930236
0.030000033 -0.40424132 -0.10748499 -0.26100585 -1.0097926 1.2322121 -4.7032585 1.3373338
-0.119874164 -0.14055298 0.031177247 0.007121976 -0.14565854 -0.006462928 -0.11824814 0.3803941

rnn.weight_hh_l0 f4 [32, 32]
00000000: c531 183e 09fc 063e fe12 a13d ee93 df3d
00000010: 8069 27bb 4097 ac3b 6b70 123e b9cd 2e3e
00000020: d043 7d3d 03fe 0ebe 5570 0fbe 190f b8bd
00000030: a16f 1f3e d84a e5bd 28af 44bd 9818 b7bd
00000040: 6e73 f5bd 51bf 20be eb0a ccbd 3cb6 733d
00000050: 9fd1 d3bd f58b 323e 40a8 45bb 7b78 12be
00000060: 4e89 a63d b0d6 65bc c109 09be e0a2 87bc
00000070: e0af 20bc 3bed 00be 4084 e63c 9bc5 25be
00000080: 44cf 92bd 22c6 bf3d d01d 68bc 1807 0abd
00000090: aa2d 9b3d 408e 40bd 41e3 adbd 6006 cbbc
000000a0: ffcf 1f3e 08e6 38bd c3b1 183e 6a09 f4bd
000000b0: 381f 783d a931 143e 40fe 673d b6dc a53d
000000c0: 3328 aebd dfb6 c9bd 741b 1dbe 8a68 d5bd
000000d0: 95e3 88bd 184c 2b3d 3039 b73c 2060 2fbd
000000e0: 4819 bdbc 0ffc 1f3e 64ee 093d 60a8 863b
000000f0: 8cb9 adbd 118a 18be c944 07be 7ae1 a73d
00000100: ef05 2b3e 1130 babd 2c02 093d ff61 a3bd
00000110: 6c83 213d c631 0fbe f697 64bd 304a 393d
00000120: f6f9 ee3d 9088 e0bc 17e7 253e 4675 34be
00000130: e0d2 993c ebca 0dbe 90fb 1bbe d8ad 6b3d
00000140: 3001 013c 808b a4bd 5880 8d3c 1091 0bbd
00000150: e0f7 f33b f6dc a23d 688d 8c3d b0e9 f0bc
00000160: f4f5 1abd 620b d8bd ff4d 003e c0b2 2dbb
00000170: b07a ff3c 8856 03bd 1340 bfbd c190 0b3e
00000180: 3b64 223e c854 6cbd 7442 fdbd 80a0 19bb
00000190: c86d 063d ac9f fbbd 7884 31be 50e2 783c
000001a0: 2492 16be 40bb 6b3d 9d76 83bd 2b0b c4bd
000001b0: ad46 163e 0222 a73d 15c2 163e 5473 0b3d
000001c0: e0a4 26bd 2d4f c5bd 74a4 6b3d 5645 e43d
000001d0: 3f3a 05be 37bc 253e ebfa e0bd cf4c afbd
000001e0: f64e 993d b4cc f3bd 9f9c 19be b44c 443d
000001f0: 0099 42bd 1654 f03d 2e52 bc3d f61d 29be
00000200: 3778 0b3e 22fe f43d 7da4 e8bd 3e73 f03d
00000210: 180e 19be 0098 263a 8037 debd 885a 973c
00000220: 8442 82bd 298a 2ebe bfe9 0c3e f0bf 843c
00000230: 6060 cebb 1029 7ebc 5773 dcbd 3011 24be
00000240: 72e2 1fbe 5368 173e c26e c93d 386b e0bd
00000250: 5abe 993d 2673 f03d aa24 b23d f829 80bc
00000260: 1331 00be c0c5 cfbc 94ab 223d 61bf 13be
00000270: 95b9 1e3e f54d 19be 38af fbbc c0a9 46bd
00000280: 15e6 0b3e c826 0e3d f413 8f3d 06c3 1ebe
00000290: a038 f3bb 32f0 89bd 2f10 c4bd b0c3 08bc
000002a0: 78aa f4bc 2e07 fa3d bee0 ad3d 98e8 15be
000002b0: c23b c4bd 3851 2cbe eec3 b8bd 58d4 e73c
000002c0: b8f7 a9bc 1284 6cbd b81e 8cbc 1ed9 ebbd
000002d0: 696b 83bd 5b80 063e bb80 ebbd aebd b73d
000002e0: bc05 f0bd 3af5 ca3d 380d 0dbe 6fd2 1cbe
000002f0: 1ab6 a33d f2fa e03d 5035 e5bc e8a5 523d
00000300: f039 873d aaa1 11be 1b80 083e c620 b53d
00000310: 98f3 873d 857e d2bd 6d30 c8bd 83e2 f1bd
00000320: 36be f03d 479a 303e 922b d13d bac7 1dbe
00000330: aa9b 65bd 68cc 523d 280e 683d b010 0cbe
00000340: 04ab ecbd 1403 39bd 1695 9e3d eba1 f8bd
00000350: 41aa adbd 6078 2f3d d514 0d3e 700f 903d
00000360: 3ed1 e33d a21d c03d c3a8 303e a06d 8dbb
00000370: f69d c33d 5866 6ebd 728a c13d 16b6 f7bd
00000380: 7a49 a33d 9f10 173e 87d8 0e3e 4268 1bbe
00000390: 6094 063c 9de3 173e 1929 123e 2120 8bbd
000003a0: 38f8 6bbd cb44 0ebe d256 d13d ec51 26be
000003b0: a849 e0bc ee94 df3d 655a 25be f109 adbd
000003c0: 2722 84bd 7a30 8b3d 400b 5fbd c461 1dbe
000003d0: 382c f93c 308f 75bd 002a f03b 83f3 083e
000003e0: 0425 4f3d a14b 2e3e 2807 11be 29ed 063e
000003f0: f6ff 1abe cee2 a63d 096a 323e 42f2 f63d
0.14862736 0.13182081 0.078649506 0.10916887 -0.002554506 0.005267054 0.14300697 0.17070664
0.06183225 -0.13964085 -0.14007695 -0.08987255 0.15569927 -0.11195916 -0.048018605 -0.08940238
-0.11984907 -0.15697981 -0.0996302 0.059499964 -0.103427164 0.17436202 -0.00301601 -0.14303772
0.081316575 -0.014028236 -0.13382627 -0.016557157 -0.009807557 -0.12590496 0.028139234 -0.16188662
-0.07168439 0.09363963 -0.014167264 -0.03369817 0.07577069 -0.04701066 -0.08490611 -0.024783313
0.15606688 -0.04514125 0.1491156 -0.11915858 0.060576648 0.14472069 0.056638956 0.08098738
-0.08503761 -0.09849333 -0.15342504 -0.1042033 -0.06684033 0.041820616 0.022366136 -0.04281628
-0.023083344 0.15623496 0.033674613 0.0041094273 -0.08482656 -0.14896418 -0.13209833 0.08197303
0.16701482 -0.09091199 0.033449337 -0.07977676 0.039431974 -0.13983831 -0.055808984 0.045236766
0.1166877 -0.027408868 0.16201435 -0.17622861 0.01877731 -0.13846938 -0.15232682 0.057538837
0.007873818 -0.0803442 0.017273113 -0.03407389 0.0074453205 0.07952301 0.068629086 -0.029408306
-0.037832215 -0.10549046 0.12529753 -0.0026504248 0.031186432 -0.032064945 -0.09338393 0.13629438
0.15858547 -0.05769804 -0.123661906 -0.0023441613 0.03281954 -0.12286314 -0.17335689 0.015190676
-0.14704186 0.057551622 -0.06419108 -0.095724426 0.14675398 0.08160783 0.14722474 0.034045532
-0.04068458 -0.09634242 0.05752988 0.11146037 -0.130105 0.1618508 -0.10985359 -0.08559572
0.07485764 -0.119042784 -0.15001152 0.047924712 -0.047509193 0.11734788 0.09195362 -0.16515335
0.13620077 0.119625345 -0.11359499 0.11740731 -0.14946783 0.0006355047 -0.108504295 0.018475786
-0.06360343 -0.17044891 0.13761042 0.016204804 -0.00629811 -0.01551272 -0.10764187 -0.16022182
-0.15613726 0.1478589 0.098355785 -0.1095795 0.0750701 0.11740713 0.08698399 -0.015645012
-0.1251872 -0.02536285 0.03971441 -0.14428474 0.15500481 -0.14971144 -0.0307232 -0.04850173
0.13661988 0.034704953 0.06986228 -0.15504083 -0.0074225217 -0.06735267 -0.09573399 -0.008347437
-0.029866442 0.12208401 0.08490132 -0.14639509 -0.095817104 -0.16827857 -0.090217456 0.028299496
-0.020748004 -0.05774314 -0.017104492 -0.11516021 -0.06416971 0.13134901 -0.11499163 0.089717254
-0.11719844 0.099100545 -0.13774574 -0.15314649 0.079937175 0.10985364 -0.027979523 0.05142775
0.066028476 -0.14221826 0.13330118 0.08844142 0.06638259 -0.10278038 -0.097748615 -0.11810782
0.1175503 0.17246352 0.102133885 -0.15408221 -0.056056656 0.05146447 0.056654125 -0.13678241
-0.11556056 -0.04516895 0.0774328 -0.121402584 -0.08479739 0.042839408 0.13777478 0.070341945
0.11123894 0.09380652 0.17251877 -0.004316047 0.09551613 -0.05820307 0.094502345 -0.12095277
0.07972999 0.14752434 0.13949786 -0.1517649 0.008214086 0.14832921 0.1427349 -0.067932375
-0.057609767 -0.1389343 0.10221638 -0.16242188 -0.027378872 0.10917078 -0.16147764 -0.08449162
-0.064518265 0.067963555 -0.05445409 -0.15369326 0.030416593 -0.059951007 0.0073292255 0.13374142
0.05057241 0.17021038 -0.14162886 0.13176407 -0.15136704 0.08148728 0.17423262 0.12057926

rnn.bias_ih_l0 f4 [32]
00000000: fb95 9d3d 8857 82be 67b0 90be dd8f aabc
00000010: 3baf a4bc 5cbe 543e 47e9 5c3e 6873 c13c
00000020: ba41 773e 99eb 803e 7b32 febd af71 873d
00000030: ecc1 52be 8d66 54bd 5ea4 4ebe e00c 963e
00000040: 353b 203c ec2d c0bc c312 bdbd 7b4e 073e
00000050: e376 8a3d a765 e1bb 652d 8f3d b22f 333d
00000060: 5a57 1e3d 9bae 8fbd 5587 adbd f095 ee3d
00000070: dd56 413d c2ae e53a 379b 9fb8 8aac 26be
0.07694622 -0.25457406 -0.28259584 -0.020820552 -0.020103088 0.20775741 0.21573363 0.0236146
0.24146166 0.25179747 -0.12411972 0.0661348 -0.20581788 -0.051855613 -0.20179889 0.29306698
0.009779741 -0.023459397 -0.09232094 0.13213532 0.06760957 -0.006878573 0.0699108 0.043746658
0.038657524 -0.07015725 -0.08473078 0.11649692 0.04720198 0.0017523395 -7.610622e-05 -0.16276756

rnn.bias_hh_l0 f4 [32]
00000000: c360 0bbe 5697 a8be 99b1 e93c 8039 1d3e
00000010: 6128 9e3d c78e 8d3e ae13 68bd c624 033c
00000020: 8b28 5e3d 9fd7 a73e 773b d8bd 4f00 5d3e
00000030: bdff 81bd 2c69 a6bd 9ba4 c0bb 19ce 603e
00000040: afa4 5ebc 9d12 93be 96d7 0e3e e7ab bd3e
00000050: 763a 0cbe 2f34 493b d582 c33d a66a 183d
00000060: e8ac 1d3e 6349 5f3e 01f8 78bd e83c a63d
00000070: 4362 3f3d f1f2 c6bc 4b0b c63d d1f5 563d
-0.1361113 -0.3292796 0.028527068 0.15353966 0.077225454 0.27647993 -0.056659393 0.008004373
0.054237884 0.32781693 -0.10558217 0.21582149 -0.06347606 -0.08125529 -0.0058789975 0.2195362
-0.013589068 -0.28725138 0.13949427 0.37045214 -0.13694176 0.003070127 0.095464386 0.037211083
0.1539799 0.21805339 -0.06078339 0.08117086 0.04672457 -0.024285765 0.09670123 0.052480523

fc.weight f4 [1, 32]
00000000: 0699 cbbd 3ec4 85be 607b c4be 30ab 98bd
00000010: f06b b03d e67f 733e f8f6 d63d f553 8cba
00000020: bd35 a63e cf60 943e 1ae3 edbd 2cf2 533e
00000030: c6f6 42be 319e 4ebe 8d4f 5bbe 613c 6b3e
00000040: bfae 873a 1502 0dbf c8b5 f03d 392f ca3e
00000050: 5252 08bf 92d7 873a 22d7 423e e306 13bd
00000060: 002d 433e f198 253e 4ceb 903e c86b 933f
00000070: df2e 69bc 0960 3b3a 0458 5ebd 8c79 39be
-0.09941296 -0.26126283 -0.38375378 -0.074545264 0.086143374 0.23779258 0.10496324 -0.0010706173
0.32462874 0.2898011 -0.11615582 0.2069785 -0.19039449 -0.20177533 -0.21417065 0.22972251
0.0010351761 -0.550813 0.11753422 0.39489153 -0.5325061 0.0010363928 0.19027379 -0.03589524
0.19060135 0.16171624 0.28304517 1.1517267 -0.014232366 0.0007147794 -0.054283157 -0.18112773
