weight/randomly/best_MLP_DA_randomly.pth (torch, 12042 bytes, 5 tensors)

layers.0.weight f4 [64, 2]
000000 bc 44 0d bf 19 db bc be 46 d8 24 3f 21 40 0e 3f
       -0.55183005 -0.36885908 0.6439251 0.555666
000010 ea c0 0a bf fb 9b 85 be aa e2 c2 be 1a 98 0e 3f
       -0.54200613 -0.26095566 -0.38063556 0.5570084
000020 4f 60 5f 3e 68 46 f0 3e 0b 10 22 bf 92 c1 80 3e
       0.21814083 0.46928716 -0.6330573 0.25147682
000030 dd 1e 25 3f fd 09 4a 3e 95 e1 10 bd 55 fb d0 bc
       0.6450022 0.19730373 -0.03537138 -0.02551047
000040 60 72 f6 bd b8 db ec bd 96 50 d3 3e c6 4e 1c 3f
       -0.12033534 -0.115653455 0.4127242 0.610577
000050 b0 e0 3e be 35 6b b8 be e0 c1 19 be b8 50 af be
       -0.18640399 -0.36019292 -0.15015364 -0.3424127
000060 be 85 82 bc 3f 62 a9 be 51 1c 0b bf 3d 72 33 bf
       -0.015932914 -0.33082768 -0.5434008 -0.7009619
000070 3c 4f ef be 29 8e 47 3f e6 ae cd be 31 84 e6 be
       -0.4674014 0.77951294 -0.401725 -0.4502273
000080 e9 db 0b bf 50 96 c0 3e 28 80 fe be c7 ef 93 be
       -0.5463243 0.3761468 -0.4970715 -0.28893873
000090 b0 2e d1 3d 1e 91 c7 be d0 b9 fc 3e 0f 1b c2 be
       0.10213983 -0.38977903 0.49360514 -0.3791127
0000a0 16 cf f7 3e d0 d0 5d 3f 44 49 08 be 30 c7 ea 3d
       0.48400182 0.8664675 -0.13309199 0.11463773
0000b0 40 b9 5b 3e 2f 6a 2e 3f c2 7d aa 3e 22 5e 00 3f
       0.21457386 0.68130773 0.3329907 0.50143635
0000c0 f3 38 f0 be 2e b9 0c c0 4e c4 12 3d 9e 30 9b bd
       -0.4691845 -2.1988025 0.035831742 -0.07577632
0000d0 94 13 06 3f 93 9d d0 3e 60 b5 01 3f 09 9b ba 3e
       0.52373624 0.4074522 0.5066738 0.36446407
0000e0 37 c1 3c 3f 8f 53 87 be de 32 cc 3e 4d 26 a3 3e
       0.7373232 -0.26430938 0.3988256 0.3186516
0000f0 38 3b 07 be e8 68 11 be 10 67 2c 3d c0 83 1c 3d
       -0.13206184 -0.14200175 0.042090476 0.038211584
000100 a8 80 85 3e 5c 39 bb 3e 1b 74 12 bf 60 41 9d bc
       0.2607472 0.365672 -0.5720841 -0.019196212
000110 69 25 30 bf d0 54 00 bf dd 24 ed 3d fa bf 05 3f
       -0.68807083 -0.50129414 0.11579297 0.5224606
000120 ab d0 3e bf f5 f5 3a 3f 30 42 b6 bf 07 cf 08 3f
       -0.7453715 0.7303155 -1.4238949 0.534409
000130 22 7f 4e 3e d8 06 c4 3e aa 72 b9 be 7f 25 39 3f
       0.20165685 0.3828647 -0.36220294 0.7232284
000140 a0 37 91 bc c0 74 de 3d 8b be ca be c2 eb de be
       -0.01772672 0.10862112 -0.39598498 -0.43539244
000150 de 41 19 bf 0c 74 a5 3c 76 b4 c4 be 15 25 0e bf
       -0.5986613 0.020196937 -0.3841893 -0.5552533
000160 cd c6 c3 be c0 a7 44 3e 65 17 cf 3e 05 bd 70 bf
       -0.3823761 0.19204617 0.40447536 -0.9403842
000170 03 4a 19 bd 1b 85 27 bf ce ad ba 3e f1 bb 83 3a
       -0.0374241 -0.6543748 0.36460727 0.0010050518
000180 c8 94 f3 bd 20 18 25 3d d8 99 7c be a4 b4 5c be
       -0.11893612 0.04030621 -0.24668062 -0.21553284
000190 96 b4 e9 3d a6 b3 5b 3f c0 af 03 3c 1a 7d cc 3e
       0.11411397 0.85820997 0.0080375075 0.39939195
0001a0 e1 12 33 3f 20 fd 32 3e 22 71 12 bf de ec a1 3e
       0.6995068 0.17479372 -0.57203877 0.31626028
0001b0 8d 46 bc 3c 8a d5 0f 3f 88 2b fa bd 74 a4 eb 3d
       0.02298286 0.5618521 -0.12215334 0.11505976
0001c0 55 c0 23 bf 4e 11 06 3f 26 9c 5e be c3 66 c2 be
       -0.6396535 0.52370155 -0.21739253 -0.37969026
0001d0 34 d6 47 3e dc c9 1f be a7 75 3d 3f e9 40 8c 3e
       0.19515306 -0.15604347 0.7400765 0.27393273
0001e0 18 2f 0d bf d9 e0 0c bf f4 25 f3 be 4e 6b 6b bf
       -0.55149984 -0.5503059 -0.47489893 -0.9196061
0001f0 8e e3 cb 3e 08 d9 40 be 26 df c6 be 7c 63 43 3f
       0.39822048 -0.18832791 -0.38842124 0.76323676

layers.0.bias f4 [64]
000000 6e ca 9e be 02 33 be 3e fd 70 92 be f9 d5 2b 3e
       -0.31013817 0.3714829 -0.28601828 0.16780843
000010 2c a5 aa 3e a4 f9 cc be aa 9d 50 3e a7 49 0b 3f
       0.3332914 -0.4003421 0.20372644 0.5440926
000020 3d 50 8a be de d9 0b bf 55 cf 71 3e 80 13 f4 bd
       -0.27014342 -0.54629314 0.23614247 -0.11917782
000030 67 51 4e 3e 33 b5 c8 3e 96 e3 14 bc 07 fd bd 3e
       0.2014824 0.39200744 -0.009087464 0.37107107
000040 40 8d d7 bd ad 80 1e bf a8 13 0c be 6d 72 c6 bd
       -0.10524988 -0.61915094 -0.13679373 -0.09689794
000050 23 f0 0b bf 80 65 59 be 94 f5 cd 3e 74 16 5f be
       -0.54663295 -0.21230125 0.40226424 -0.21785909
000060 91 07 07 3f 22 38 f7 3d ee 0e 6f 3c a1 1a c0 be
       0.5274592 0.12071253 0.014590962 -0.37520316
000070 59 1d 78 be 32 41 2c bf 6b 53 23 bf 48 00 b8 bd
       -0.24229945 -0.6728698 -0.6379916 -0.08984429
000080 6a 0e f6 3e 20 9a c1 bd 5e 1f f2 be 98 86 15 bd
       0.48057872 -0.09453225 -0.47289556 -0.03650531
000090 a8 d6 f8 3e 65 27 53 3a 9c ce de bc f0 53 85 3d
       0.4860127 0.00080548815 -0.027198128 0.065101504
0000a0 13 17 b2 be 08 e7 4a be 84 45 c8 3e 13 3c a3 3e
       -0.3478323 -0.19814694 0.39115536 0.3188177
0000b0 77 79 2a bf 54 c2 d4 3d 50 f3 4b 3e 01 d8 2d bc
       -0.6659159 0.10388628 0.19917035 -0.010610581
0000c0 c4 40 67 be 37 86 30 bf 00 6f 9d be 2d 29 2e bf
       -0.225833 -0.68954796 -0.3074875 -0.6803158
0000d0 09 f2 3c bf 33 6a 13 bf dd 1a 29 3d cc a8 9c 3e
       -0.73806816 -0.5758392 0.041285384 0.30597532
0000e0 14 4b ce 3e e9 9a d5 3e a9 01 30 bf 08 ad 0e bf
       0.40291655 0.4171975 -0.68752533 -0.55732775
0000f0 94 e4 5a be ae c7 6f 3e 34 41 2a bf 86 90 ea be
       -0.21376258 0.23416016 -0.6650574 -0.45813388

layers.2.weight f4 [32, 64]
000000 82 fd a3 3d 05 5e de 3d 44 81 29 bd 99 7c 0e be
       0.08007337 0.108577766 -0.041383043 -0.13914718
000010 8d 74 bf bd 04 cf 25 bd d6 40 ca 3d d2 ed f4 3d
       -0.09348402 -0.04048063 0.09875648 0.11959423
000020 08 39 1f 3d 4f fe e7 3d c1 01 af 3d 08 b8 cc 3c
       0.03887275 0.113278024 0.085452564 0.024990097
000030 94 9a 96 bd cb 25 36 3e be 69 93 bf 44 e2 f0 3d
       -0.07353702 0.17787854 -1.1516645 0.11761907
000040 ad 25 ad 3d 48 3a 4b bd d0 6e 44 3d ef 91 83 bd
       0.08454452 -0.04961613 0.04795724 -0.06424319
000050 b6 ed 0d 3e 70 bb 79 3d 50 73 a5 bd 40 bc c9 3e
       0.13860211 0.06096977 -0.08078635 0.39401436
000060 40 55 75 bd 87 c8 21 3d 10 ff ba 3d 11 df 54 3e
       -0.059895754 0.03949788 0.091306806 0.20788218
000070 5d 78 df bc b9 d6 a8 3c 20 c1 e6 3d 18 13 81 3c
       -0.027279073 0.0206102 0.112673044 0.015756175
000080 42 ef 5f bd 20 d8 fc 3c 90 fa bb 3c 28 20 c8 3d
       -0.054671533 0.030864775 0.022946626 0.09771758
000090 d0 af 89 3e 2b f6 e6 c0 91 90 9b bc 0c ea e4 be
       0.26891947 -7.21755 -0.018989833 -0.44709814
0000a0 0e 69 8c bd 30 dd 18 3d f3 06 a0 be 08 5a 05 bf
       -0.06855975 0.037320316 -0.31255302 -0.520905
0000b0 7c ed a1 bd 3a e3 8c 3c a7 44 f6 3d a6 b9 aa 3d
       -0.07906625 0.017198194 0.12024813 0.08336191
0000c0 e0 5e 73 3d 68 39 fd 3c 6a 74 d3 3e a2 a2 84 bd
       0.05941665 0.030911162 0.41299754 -0.06476332
0000d0 d7 23 b1 3e 80 e5 d0 bd 77 d2 10 3d a9 b6 52 bd
       0.34597656 -0.10200024 0.035356965 -0.05144373
0000e0 69 41 90 be bd ba 55 bd 76 ff e7 bd 41 dd 5a be
       -0.28174904 -0.05218004 -0.11328022 -0.21373464
0000f0 20 52 f8 bd 08 6b 32 3f a2 1c 93 bd 1a c5 89 c0
       -0.12125039 0.69694567 -0.07183196 -4.3053102
000100 8c 1f 67 bd a0 1e 8c bc 02 74 f2 3d c5 4a bf 3c
       -0.05642657 -0.017104447 0.11838533 0.023351083
000110 89 37 4b bd c8 0b 6f bd a8 d4 fe ba 54 60 2d 3d
       -0.04961351 -0.058360845 -0.0019442039 0.042328194
000120 04 c8 bd bd 52 2f 6a be cb 38 18 be 80 29 97 bb
       -0.092666656 -0.22869614 -0.14865415 -0.0046131015
000130 3a a5 47 bc e6 dd 5c bc 06 56 2d bc 9d 26 85 bc
       -0.012185389 -0.013480639 -0.010579592 -0.016253764
000140 da 5f 00 3e e8 da 4f bd 18 16 a2 3c 20 65 90 3d
       0.12536564 -0.050745875 0.019785926 0.07050538
000150 6c a0 ef 3d 4c b3 8d bd da 86 33 3d 70 dc 01 be
       0.1170052 -0.06918964 0.043829776 -0.12681746
000160 21 00 4c 3d de 73 81 3d 34 01 98 bd e7 1b 21 3d
       0.04980481 0.06320928 -0.074221045 0.03933325
000170 08 f1 30 be 0b c8 32 3e d6 c5 ff bd 40 e0 a4 3d
       -0.17279446 0.17459123 -0.12488906 0.08050585
000180 81 52 e4 3d fc 26 11 bd 86 b9 fe bd 2b be 07 3e
       0.11148549 -0.03543757 -0.124377295 0.13256137
000190 a3 70 03 be d4 7e 40 bd 42 9e 15 3e c9 1f 86 3e
       -0.12835936 -0.046995953 0.14611152 0.26196125
0001a0 5c 37 3a 3d 6a 64 9b bd d5 6f 04 bb 96 9d 0f bc
       0.04546295 -0.07587512 -0.0020208259 -0.008765599
0001b0 b8 b0 a0 bc 00 ae aa 3d a3 dc f5 bc 41 2b 80 3d
       -0.019615516 0.08333969 -0.030012434 0.0625825
0001c0 d4 2a 69 3d 80 83 3c bb 3b 92 13 be 74 88 8d 3d
       0.05692561 -0.0028764904 -0.14411251 0.06910792
0001d0 7d 14 1e be d6 79 e0 3d ed 98 0d 3e 2d 50 19 3d
       -0.15437503 0.10960738 0.13827868 0.037429977
0001e0 3c 3f 5b 3e 85 21 6d 3d 90 73 ef bd 89 5c 81 3e
       0.21410841 0.057893295 -0.11691964 0.2526591
0001f0 ac 3c 4d bd 9f b3 e2 be d6 98 ca bd e7 b3 ea bd
       -0.05010669 -0.44277665 -0.098924324 -0.11460095
000200 a8 69 7c bd 14 55 20 bd 28 d9 e3 bd 10 d3 5c bd
       -0.0616242 -0.039143637 -0.11125404 -0.053912222
000210 3c b7 d5 bd 1a be f8 bd 18 c1 8e bc c8 10 a2 3d
       -0.1043534 -0.12145634 -0.017426059 0.07913357
000220 52 b8 d9 3d ba e0 b3 bd 34 1a 31 bd 38 a5 d7 bc
       0.106308594 -0.087830976 -0.04323788 -0.0263239
000230 e0 49 df bc a0 c5 f2 3c b0 1e e3 3c 78 d0 94 bd
       -0.027256906 0.02963525 0.027724594 -0.07266325
000240 b6 66 85 3d 48 98 04 bd e6 bc 81 3d 10 8c 6b bd
       0.06513731 -0.03237179 0.06334858 -0.05750662
000250 cc 7c ef bd fc 6f 7a 3d 60 0f 6e bd c2 98 ee bd
       -0.11693725 0.061141953 -0.05812013 -0.1165023
000260 e0 7a 8e bc d0 b6 e3 bc 94 22 f1 3d 5e e8 bd bd
       -0.017392576 -0.027797133 0.117741734 -0.09272836
000270 92 21 ad 3d 48 ca 94 3c 96 2d 9f bd 2e 43 9b bd
       0.08453669 0.018162861 -0.07772367 -0.07581173
000280 84 dd fb bd 00 32 bf bc 86 c3 96 bd ec b0 21 bd
       -0.1229811 -0.023339272 -0.07361512 -0.039475366
000290 98 a7 cc bd 8a 6a 81 3d 2a 9f 90 3d 78 44 2b 3d
       -0.099929035 0.06319149 0.07061608 0.041813344
0002a0 dc 27 3c 3d 88 2c b2 3d 7a 28 f5 3d a8 42 00 3d
       0.04593645 0.086999 0.11970611 0.03131357
0002b0 18 59 6e bd 9e 1a 8c bd 28 c2 b8 3c fe 94 ef 3d
       -0.058190435 -0.06841014 0.022553518 0.1169834
0002c0 00 7d cd bc 18 cf 82 3d ac 13 92 3d 90 d1 73 3d
       -0.025084019 0.06387156 0.07132658 0.059526026
0002d0 66 dc d0 bd 08 fc e3 bd 86 97 80 bd 06 df cd 3d
       -0.10198288 -0.111320555 -0.06278901 0.10052304
0002e0 02 d0 e5 3d 5e b5 bb bd c0 15 23 bd f8 d1 b8 bc
       0.11221315 -0.091654524 -0.039815664 -0.022561058
0002f0 58 43 fd bc e4 26 97 3d f8 7c be 3d 64 07 59 bd
       -0.030915901 0.07380465 0.0930118 -0.052985564
000300 bc bc df bd cf 9b ce bc 8e ca 9d bd 1c fe f3 3d
       -0.1092467 -0.02522078 -0.0770465 0.11913702
000310 28 4e be 3d fe d0 cf 3d 44 c5 a5 3d 85 e2 c8 3c
       0.09292251 0.10147284 0.08094266 0.024522075
000320 64 43 fd 3d bb 04 9c be 06 53 75 bc ca 29 f9 3d
       0.12366369 -0.3047236 -0.014973408 0.12166174
000330 aa b3 27 3d d3 a3 54 bc 7f f2 9e bd cf bb 8f bd
       0.040942825 -0.012978512 -0.07761096 -0.070182435
000340 3f 00 12 3e 20 17 a9 bc 28 36 ae bd fd ff 7f bd
       0.14257906 -0.02064091 -0.08506423 -0.06249999
000350 6e 4a 11 3e b0 33 0c bd 99 69 44 3d 1a 3f b6 bd
       0.14188549 -0.03422898 0.04795227 -0.088987544
000360 94 d2 aa bd 66 42 ce bd 79 27 cc bd 3b 3f 04 bc
       -0.08340946 -0.10071258 -0.09968466 -0.008071716
000370 38 ea 44 3d 60 8c 41 bd b2 15 a9 bd d0 39 99 bd
       0.04807493 -0.047253013 -0.08256091 -0.0748173
000380 e6 c2 02 3e 00 8a dc b9 90 6c 79 3c a9 16 ef bb
       0.1276966 -0.00042064488 0.015223637 -0.0072964025
000390 2b 30 63 3d 9f 06 ad bd aa 95 fc 3d 40 03 90 3e
       0.05546586 -0.084485285 0.12333234 0.2812748
0003a0 44 2a 52 3d ce 58 e7 bd d6 d8 ef 3d 33 73 16 3e
       0.05130984 -0.11296235 0.1171128 0.14692383
0003b0 36 e1 81 3d 4f 83 d1 bc bd 67 8a 3b 1b 6d d5 bb
       0.06341784 -0.025575308 0.0042237923 -0.0065132505
0003c0 4a 7a 91 bd b0 64 29 bd 27 1d 29 be 20 2e be 3d
       -0.07103403 -0.04135579 -0.16515027 0.092861414
0003d0 6f c0 9a be a6 11 e7 bd fa 3d be 3d 4b d9 a1 bd
       -0.3022494 -0.11282663 0.09289165 -0.079027735
0003e0 8f a7 68 3d 20 fd aa bd c2 0e b2 bd d1 ab 65 3e
       0.05680042 -0.08349061 -0.08694221 0.22428824
0003f0 34 7b 98 3d 85 f3 d3 bd 34 c3 d8 3d 82 23 7f be
       0.07445374 -0.10349182 0.10584107 -0.24915889

layers.2.bias f4 [32]
000000 42 6a b4 3d 5f 97 9c bd b4 fb 1a bd 55 5b 84 3d
       0.088093296 -0.07646059 -0.0378377 0.06462733
000010 a8 73 f8 bd a1 5f a6 3c f0 d1 13 3c 3b 56 df 3d
       -0.12131435 0.020309271 0.009022221 0.10905119
000020 12 c9 4c 3c 1c 88 fa bc 4c ca 55 3d b0 54 33 bc
       0.012499111 -0.03058248 0.05219488 -0.010945484
000030 98 0b 9b 3c b2 28 56 3c ed 2e cb 3d b2 38 ac 3d
       0.018926427 0.013071226 0.0992106 0.08409251
000040 78 34 ff 3c 00 20 51 3a 65 c7 a1 bd b3 6a af 3b
       0.031152949 0.00079774857 -0.078993596 0.0053532957
000050 52 61 43 3d c8 48 60 bd 1e 77 78 bd ba 7a d6 bc
       0.047700234 -0.05475691 -0.060660474 -0.026181567
000060 22 9b ba 3c 00 5f 46 bc 49 7c ee bb ac 38 10 3d
       0.022779051 -0.012107611 -0.0072779995 0.035210297
000070 ae e8 e3 3d e6 74 83 bb 92 a5 6b 3b 6e a8 8c 3d
       0.111283645 -0.004011738 0.0035956842 0.06868063

layers.4.weight f4 [1, 32]
000000 f6 b1 06 be 53 25 5e 3d 91 d8 2e 3e 1b 2c ce 3d
       -0.13153824 0.054234814 0.17074801 0.10067006
000010 45 be 29 3e 14 91 ba 3d ed a3 2b 3e af 0d 34 3d
       0.16576488 0.09109703 0.16761751 0.043958362
000020 91 f2 1c be 0d 3f 40 bd 16 32 30 bd d8 42 d6 3d
       -0.15326907 -0.04693513 -0.043016516 0.10461968
000030 9d 20 29 3e 06 89 ac bf f0 52 86 3d 5f 3b b3 3c
       0.16516347 -1.3479316 0.06558788 0.021878896
000040 b2 ce 95 3d f6 1c 99 bd 77 c0 7c 3e 47 b1 da bd
       0.073148146 -0.07476227 0.24682795 -0.10678344
000050 37 e0 2c be c5 41 ff bd b9 b1 c5 3d d6 2b f7 bd
       -0.16882406 -0.124637164 0.096530385 -0.12068908
000060 23 3c 56 3d e0 69 3c 3d f6 68 7f 3e 24 95 28 bd
       0.052303445 0.045999408 0.24942383 -0.041157857
000070 d3 1d b9 3e 3b 77 6a be 90 57 ef b9 e0 f0 a9 bd
       0.36155567 -0.22897045 -0.00045650871 -0.082978964
