weight/randomly/best_CNNRegressor_OR_randomly.pth (torch, 9764 bytes, 5 tensors)

conv1.weight f4 [16, 2, 3]
0.28771806 0.08819252 0.39834774 -0.24855629 -0.24492656 -0.38736662 0.39983732 0.19612418
0.031143367 0.11469239 -0.036134433 0.01932022 0.044157565 0.5518078 -0.073556155 -0.26594096
1.0787882 -0.23228565 -0.26751325 0.20189172 -0.39763695 0.08455163 -0.37972483 0.07497555
-0.2654872 -0.05750946 0.03803003 0.1977489 -0.19588126 0.38919312 0.1879409 -0.2872387
-0.34258497 0.1658619 1.053215 0.008870304 -0.0083964765 0.259508 0.39316404 -0.3629413
-0.18078974 -0.21993265 0.278463 0.35044625 0.40669537 -0.030940443 -0.46461523 0.19738746
-0.02770558 -0.14136872 -0.039670885 0.09523785 0.7148911 0.18410295 -0.17338578 -0.53000665
0.13845152 -0.0994713 0.3831404 -0.3421253 0.3827601 0.6115778 0.23777038 -0.30683923
-0.105497375 -0.17535953 0.023564994 0.23962522 0.006749004 -0.3103501 -0.16265433 0.30867916
0.29471862 0.07865232 0.06750816 0.27443898 1.5222725 0.31794363 0.33897156 0.060035944
-0.36274225 0.07139826 0.29332483 0.3555277 0.10039258 -0.29471126 0.105501235 0.25057298
-0.1470552 0.1958487 0.016108423 0.47742584 0.3658436 0.19590664 0.99752283 -0.1933504
00000000: c84f 933e 489e b43d 3cf4 cb3e 8a85 7ebe
00000010: 07ce 7abe eb54 c6be 7ab7 cc3e c7d4 483e
00000020: 6020 ff3c d8e3 ea3d b301 14bd 7045 9e3c
00000030: 90de 343d 4743 0d3f 9ca4 96bd 6a29 88be
00000040: bb15 8a3f 4adc 6dbe 7ff7 88be b4bc 4e3e
00000050: 1297 cbbe 6829 ad3d 4b6b c2be c88c 993d
00000060: f0ed 87be 0a8f 6bbd 60c5 1b3d b07e 4a3e
00000070: 1995 48be 5244 c73e 9473 403e f310 93be
00000080: 4c67 afbe b4d7 293e c0cf 863f c054 113c
00000090: 6091 09bc 3cde 843e cc4c c93e 71d3 b9be
000000a0: f220 39be 0636 61be b492 8e3e b16d b33e
000000b0: 603a d03e d076 fdbc 0ce2 edbe f01f 4a3e
000000c0: d0f6 e2bc f6c2 10be f07d 22bd 100c c33d
000000d0: 1a03 373f 7c85 3c3e 0b8c 31be 84ae 07bf
000000e0: 3cc6 0d3e 9cb7 cbbd fa2a c43e 0c2b afbe
000000f0: 22f9 c33e 5d90 1c3f 147a 733e 081a 9dbe
00000100: 020f d8bd 7391 33be 600b c13c 5060 753e
00000110: c026 dd3b 35e6 9ebe db8e 26be 320b 9e3e
00000120: 5ce5 963e 7814 a13d b841 8a3d 4483 8c3e
00000130: d3d9 c23f 82c9 a23e ae8d ad3e 40e8 753d
00000140: 5ab9 b9be 4039 923d ac2e 963e ba07 b63e
00000150: a09a cd3d 65e4 96be 0811 d83d 1a4b 803e
00000160: a395 16be 908c 483e d0f5 833c 2971 f43e
00000170: da4f bb3e c09b 483e a85d 7f3f a6fd 45be

conv1.bias f4 [16]
-0.34920868 0.018222183 -0.0039182934 -0.39373964 0.15896554 0.17114305 -0.21490969 0.29838803
-0.15002987 0.25554043 0.052425645 -0.26054963 -0.075274564 -0.37397954 0.40372017 -0.0019306033
00000000: 7bcb b2be b046 953c 0765 80bb 3e98 c9be
00000010: ddc7 223e 2040 2f3e 4911 5cbe 51c6 983e
00000020: 6ea1 19be 32d6 823e 46bc 563d c366 85be
00000030: 8d29 9abd 3f7a bfbe 69b4 ce3e 4c0c fdba

conv2.weight f4 [32, 16, 3]
-0.103680074 0.064269885 0.07770169 -0.0533873 0.0072293766 -0.1205084 -0.12508237 -0.011383997
-0.042418957 -0.1319666 0.0114712715 -0.029215619 0.09173608 0.035523154 -0.076822765 0.01275146
0.35130814 -0.111918785 -0.005783543 -0.13826993 0.127617 0.0952439 -0.051382143 -0.018072575
-0.10401282 -0.19304097 -0.13194676 0.053260192 0.34824333 0.14189118 -0.00264889 0.16206156
0.1438472 0.00019139051 -0.013603926 -0.0041790158 -0.027210183 0.04759819 0.060179263 -0.0431298
0.12282008 0.026400566 -0.0032910109 0.22105229 0.13037774 0.1196748 -0.084891215 -0.12146901
-0.08408916 -0.031709082 -0.037518233 -0.030200548 -0.06340909 -0.13127711 0.13434222 -0.007360077
-0.001136139 0.0817516 0.09200814 -0.1255936 0.09713161 -0.05627304 0.12676671 -0.09242889
0.48471224 0.09020412 -0.05842352 -0.1344957 0.074386775 0.061998025 0.11398351 -0.017942145
-0.033975475 -0.22685504 -0.12624031 0.14426479 0.3708815 0.12889692 0.13927859 0.15572645
0.08267096 0.12869382 -0.08412546 -0.08889231 0.012956902 -0.041745663 0.0012804866 -0.11449075
-0.10552123 0.107133955 0.10789636 0.09134993 -0.13295846 0.071718454 -0.15478666 0.096386746
0.010026574 -0.021646053 0.11138973 -0.050235637 -0.06344071 -0.13530989 0.099838704 0.009729713
-0.0046981573 -0.047772184 0.09296799 0.09975053 -0.06341857 -0.058205344 -0.13529533 -0.11075419
-0.121510535 0.025675207 -0.0063828826 0.028779179 -0.01611343 0.0030096471 -0.12265961 0.11673668
-0.039467752 -0.12993987 0.09601684 0.11227295 -0.07648784 0.11744571 0.10208343 -0.024593659
0.010418773 0.048333153 0.07170035 -0.09591338 0.10233167 -0.11273408 -0.051096164 0.03636083
-0.009532958 0.08897045 -0.11333372 -0.050138496 0.10106067 0.0021312535 -0.112932585 -0.075032786
-0.071526006 -0.04327084 -0.088554904 -0.025501296 0.11621505 0.09589915 0.0649426 -0.13193035
-0.03337325 -0.094775245 0.14140359 -0.09519061 0.11922002 0.13928893 -0.052821964 -0.050917976
-0.1333453 -0.030048981 0.1378985 -0.031983286 0.10588837 -0.09260234 0.035993144 0.07426225
0.11046171 0.013021752 -0.010112435 -0.1280585 -0.017764896 0.06405681 0.069282845 0.031718045
0.09699252 -0.035070695 0.12489352 -0.088150635 0.08392158 -0.023807794 -0.040079124 0.12237996
-0.10291526 -0.08370444 0.1076687 -0.03294362 -0.096377224 -0.019478805 0.062292114 -0.020910226
-0.104033 -0.06957127 0.11665055 0.12788108 0.06598424 -0.07554472 0.080797985 0.004738551
0.11355716 0.05814904 0.053754434 0.06568052 0.070392355 -0.09911412 0.11869261 0.067907915
-0.016127234 0.031103373 -0.06992143 0.01294674 0.11636275 0.12456706 -0.031290088 -0.100307405
0.009845316 0.063272394 -0.0508172 -0.04750397 -0.1021653 0.12856084 0.038972124 -0.05997286
-0.057890072 0.13000637 -0.13954884 0.096118495 0.015651405 0.062127333 0.057422265 -0.12666033
-0.024913944 -0.017486706 -0.055373944 0.052389473 0.041565374 0.08750297 -0.03671611 0.06829564
0.02150087 0.08531259 0.1361559 0.08644505 0.10815647 0.08082166 0.06620917 -0.09667482
-0.09503996 -0.071743906 0.06797153 -0.082748935 -0.10511478 0.048247103 0.07315861 0.054684773
00000000: 3856 d4bd ee9f 833d 1022 9f3d a4ac 5abd
00000010: 68e4 ec3b 1ccd f6bd 9815 00be f283 3abc
00000020: 80bf 2dbd 4122 07be 00f2 3b3c 9855 efbc
00000030: 20e0 bb3d ba80 113d 4155 9dbd 80eb 503c
00000040: a9de b33e ad35 e5bd e083 bdbb a296 0dbe
00000050: 08ae 023e 3c0f c33d 1576 52bd f00c 94bc
00000060: ac04 d5bd 88ac 45be 0d1d 07be 5c27 5a3d
00000070: f34c b23e ec4b 113e 0099 2dbb 77f3 253e
00000080: ae4c 133e 00b0 4839 00e3 5ebc 20f0 88bb
00000090: e4e7 debc 52f6 423d 887e 763d e0a8 30bd
000000a0: 1889 fb3d 0046 d83c 00ae 57bb 885b 623e
000000b0: be81 053e 1018 f53d 72db adbd bfc4 f8bd
000000c0: f036 acbd 62e1 01bd b8ac 19bd 2467 f7bc
000000d0: a0dc 81bd 826d 06be 0291 093e cd2c f1bb
000000e0: 80ea 94ba 626d a73d c46e bc3d 9c9b 00be
000000f0: f0ec c63d 8f7e 66bd 22cf 013e 5c4b bdbd
00000100: 342c f83e f0bc b83d 804d 6fbd 3eb9 09be
00000110: 1858 983d a4f1 7d3d 3070 e93d 68fb 92bc
00000120: de29 0bbd b04c 68be 2445 01be 26ba 133e
00000130: 2ee4 bd3e 8efd 033e 0c9f 0e3e c176 1f3e
00000140: 644f a93d 50c8 033e f849 acbd 2c0d b6bd
00000150: 3049 543c 80fd 2abd 00d6 a73a 207a eabd
00000160: 841b d8bd 0c69 db3d c4f8 dc3d ac15 bb3d
00000170: 4326 08be 20e1 923d 6580 1ebe 6a66 c53d
00000180: 8046 243c 1053 b1bc 4c20 e43d e2c3 4dbd
00000190: 34ed 81bd ad8e 0abe 3c78 cc3d 6069 1f3c
000001a0: 00f3 99bb c4ac 43bd 0066 be3d 024a cc3d
000001b0: 98e1 81bd ba68 6ebd dc8a 0abe 18d3 e2bd
000001c0: 84da f8bd d054 d23c 8027 d1bb 50c2 eb3c
000001d0: 5000 84bc 803d 453b f634 fbbd a413 ef3d
000001e0: f0a8 21bd f50e 05be 7aa4 c43d 5cef e53d
000001f0: a8a5 9cbd 6087 f03d 1e11 d13d a478 c9bc
00000200: 80b3 2a3c fcf8 453d a2d7 923d 3c6e c4bd
00000210: 4493 d13d 20e1 e6bd 364a 51bd 18ef 143d
00000220: 2030 1cbc 2436 b63d 821b e8bd 065e 4dbd
00000230: e6f8 ce3d 80ac 0b3b 3349 e7bd caaa 99bd
00000240: 3a7c 92bd c43c 31bd 465c b5bd 18e8 d0bc
00000250: 2802 ee3d c666 c43d a000 853d c018 07be
00000260: 64b2 08bd 8619 c2bd 1acc 103e 4bf3 c2bd
00000270: a029 f43d c2a1 0e3e d85b 58bd 5e8f 50bd
00000280: ac8b 08be 4829 f6bc 4435 0d3e e800 03bd
00000290: 00dc d83d 4ca6 bdbd 8c6d 133d ce16 983d
000002a0: c039 e23d 3059 553c a0ae 25bc c421 03be
000002b0: b087 91bc 3830 833d 2ae4 8d3d c8ea 013d
000002c0: 04a4 c63d 4aa6 0fbd 2cc8 ff3d 5288 b4bd
000002d0: 14df ab3d 9008 c3bc 022a 24bd 58a2 fa3d
000002e0: 3cc5 d2bd 3c6d abbd 6881 dc3d e4ef 06bd
000002f0: 6c61 c5bd 0492 9fbc 0426 7f3d ec4b abbc
00000300: 410f d5bd 627b 8ebd 7ce6 ee3d 42f3 023e
00000310: bf22 873d 31b7 9abd 6a79 a53d d945 9b3b
00000320: a890 e83d b02d 6e3d 9c2d 5c3d 8283 863d
00000330: de29 903d 58fc cabd 1c15 f33d 4e13 8b3d
00000340: 431d 84bc 80cc fe3c f732 8fbd 901e 543c
00000350: 984f ee3d 041d ff3d 092a 00bd f86d cdbd
00000360: 404e 213c f594 813d b225 50bd 8693 42bd
00000370: 0a3c d1bd 74a5 033e 3ca1 1f3d 1aa6 75bd
00000380: 241e 6dbd 6420 053e e4e5 0ebe c6d9 c43d
00000390: 6037 803c 3b79 7e3d 9c33 6b3d 3fb3 01be
000003a0: 5418 ccbc 4840 8fbc cacf 62bd 5896 563d
000003b0: 7440 2a3d c234 b33d a263 16bd 96de 8b3d
000003c0: 9822 b03c 5eb8 ae3d 746c 0b3e 1a0a b13d
000003d0: 2481 dd3d d485 a53d ac98 873d 73fd c5bd
000003e0: 50a4 c2bd 78ee 92bd a834 8b3d 4678 a9bd
000003f0: 6b46 d7bd c19e 453d 2ed4 953d 24fd 5f3d

conv2.bias f4 [32]
0.051843833 0.044320133 0.05509396 -0.1188266 -0.17406622 0.021662356 -0.2499617 0.07670644
0.02959453 -0.10520902 0.078508124 -0.10542448 -0.07647668 0.09809576 -0.08371376 0.047398955
0.115415916 -0.083293565 -0.04580309 -0.14946862 -0.051377166 0.17119516 0.0026077654 -0.043432273
-0.060827315 0.10172939 -0.04875593 0.11497921 0.07894422 0.018798307 -0.117029786 0.06047392
00000000: 335a 543d 0789 353d 34aa 613d 5c5b f3bd
00000010: 6a3e 32be 4175 b13c f6f5 7fbe 4418 9d3d
00000020: 3a70 f23c d477 d7bd dec8 a03d cae8 d7bd
00000030: ce9f 9cbd 6ee6 c83d 1f72 abbd 6825 423d
00000040: 2e5f ec3d d195 aabd 059c 3bbd 4d0e 19be
00000050: dd70 52bd c94d 2f3e 0be7 2a3b 0ae6 31bd
00000060: 1026 79bd 8057 d03d 4cb4 47bd 387a eb3d
00000070: 82ad a13d e8fe 993c 50ad efbd 80b3 773d

fc.weight f4 [1, 32]
0.16809863 0.121656716 -0.092723526 0.098743215 0.10697422 0.20125856 4.6208773 0.24179275
-0.07377122 -0.02782686 -0.08766415 -0.05705169 0.08590617 -0.2828071 0.110448346 -0.04221758
0.73529553 0.15078388 -0.5660636 -0.12245607 -0.13818865 0.21043678 1.0458447 -0.1699265
-0.10376343 0.15971541 -0.021358626 0.072274715 -0.09111315 0.09690969 -0.116404876 -0.26385468
00000000: 0c22 2c3e 2827 f93d d5e5 bdbd e239 ca3d
00000010: 4d15 db3d b916 4e3e 3ade 9340 8598 773e
00000020: 5e15 97bd 28f5 e3bc 4389 b3bd 08af 69bd
00000030: 93ef af3d 18cc 90be be32 e23d 57ec 2cbd
00000040: 543c 3c3f 1767 1a3e 8be9 10bf 3fca fabd
00000050: 5381 0dbe bd7c 573e 3dde 853f 3601 2ebe
00000060: ec81 d4bd 708c 233e 49f8 aebc c404 943d
00000070: 8899 babd 9678 c63d ae65 eebd f617 87be
