weight/randomly/best_RNNRegressor_FE_randomly.pth (torch, 7652 bytes, 5 tensors)

rnn.weight_ih_l0 f4 [32, 2]
00000000: e01b 4e3b ab4c 48be c166 ae3e 3851 543f
00000010: 916e b936 f5ac 23b8 e6b6 d6b8 2a28 003e
00000020: d959 06bc c427 f4bd c853 a8b7 5ee6 b538
00000030: 8d7a b5be 54c0 333f 1564 a63b c629 ba3d
00000040: 5a7c 1c3c 4efe 86bd 80f1 94be 0fb9 cbba
00000050: f59e a73e 8acd 633e b4cb 3bbf 5342 833d
00000060: 85c8 0b3c 17c4 c5be b119 a13e cfaf afbe
00000070: cd48 d43d e3ea af3d f7dd 163e af15 523c
00000080: 9cab 78bc 366f 22be 72d8 3c36 9607 67b8
00000090: 8de5 ec3d a526 953d 05b3 cab8 d032 c639
000000a0: e40d 933c 0b70 a53c 3a2b aebd bd4c 8abd
000000b0: 5f99 88bd 309a d13d 8ba7 5abd e97b 62bd
000000c0: e016 253e 9baf 85be 1b5e e33d 4a6a 833d
000000d0: 1367 9e3d 4f4a 17be 2281 63bf 99e6 b2c0
000000e0: 5cf6 75be fef2 05be 401c c43b 8be1 953b
000000f0: 2417 b2bf 52bf 8ebd 9b88 4d3c 4fad 0fbe
0.003144972 -0.19560497 0.3406277 0.8293643 5.5263013e-06 -3.9023307e-05 -0.00010238383 0.12515321
-0.008200132 -0.11921647 -2.0066174e-05 8.673662e-05 -0.3544506 0.70215344 0.0050778487 0.09089999
0.009551132 -0.065914735 -0.290905 -0.0015542823 0.32738462 0.22246376 -0.733577 0.06409135
0.008531694 -0.38626167 0.31464913 -0.3431382 0.10365448 0.08589723 0.1473311 0.012822553
-0.015177634 -0.15862736 2.814017e-06 -5.5081757e-05 0.11567221 0.072827615 -9.6654556e-05 0.0003780336
0.01795096 0.020195028 -0.085043386 -0.06752918 -0.06669878 0.10234487 -0.053382438 -0.05529395
0.16122007 -0.2611054 0.111019336 0.064167574 0.077345036 -0.1477444 -0.88868916 -5.590649
-0.2401976 -0.13080975 0.005984813 0.004574006 -1.3913312 -0.06970085 0.012544776 -0.14030956

rnn.weight_hh_l0 f4 [32, 32]
00000000: 706f 4a3d 47cc 173e 801f 0dbe ac97 31be
00000010: 80d1 65bc 7a1e e13d 408f b6bd 60b6 e9bc
00000020: ed21 193e 0fb7 0a3e 50de 93bc a6dc c4bd
00000030: 65b7 153e 64a3 78bd 50a9 3cbc f9e2 00be
00000040: 5060 82bd 3b77 0abe 0867 9e3c 2884 12be
00000050: cda9 153e 7095 74bc ab10 debd 66ac d83d
00000060: dd12 15be f4e0 563d ef67 2f3e 929f 83bd
00000070: 24b4 c3bd 1076 e2bc ee17 c4bd 1bc0 2b3e
00000080: 52c5 8e3d 305c 23bd 1f55 05be 4666 dd3d
00000090: 52c9 be3d 4064 423c 0c94 153d 1050 9abc
000000a0: 50f5 453c 3c40 0ebd bfd9 15be b08a debd
000000b0: 30e3 4d3c 75c9 89bd 3218 ef3d 3ecf a73d
000000c0: 1925 293e baae a5bd 8f58 b0bd 7850 f8bc
000000d0: 841d 50bd a9e1 023e 5819 de3c 71d1 293e
000000e0: fd45 d5bd f849 f5bc 1406 2ebe 7258 f2bd
000000f0: 8440 7d3d 57be 96bd 4071 2f3b 1cc0 7a3d
00000100: 9c88 1bbd 0036 97bc 33c6 1a3e 5811 81bc
00000110: 38a9 f4bc 1888 903d 4497 363d 10b8 f93c
00000120: 8194 cabd ee39 a93d 8d5c 0c3e 948e 413d
00000130: 422c 913d 2f63 2b3e 1a86 a73d a01b f23c
00000140: 890d 023e a08d 873c d2af 1bbe f5cc cbbd
00000150: 3230 8fbd 24af 4bbd 96cf 973d 36a2 10be
00000160: 5869 f93c d8bb 00be 4492 f5bd 9cef a4bd
00000170: 9050 00bd 75c0 213e 4dde efbd 70e9 30be
00000180: 33fe 90bd bff4 193e 3481 28bd 892b 313e
00000190: 7a9e f53d 0ac7 f73d c0e9 1abe c507 053e
000001a0: c1e5 0fbe 62d4 25be d8bb 3dbd a6f6 22be
000001b0: 1723 f6bd a0b0 023d e02c 153c 7ae4 22be
000001c0: 12a5 cd3d c019 88bc b7cf 0b3e 47c8 91bd
000001d0: 4ec0 a3bd ea91 d83d 72eb 953d f8d5 c5bd
000001e0: 0008 1bb9 0074 033c 78fc 82bc 7555 92bd
000001f0: a02e e2bc c3b1 0a3e 3219 04be 5054 5b3c
00000200: ee68 ec3d c209 5cbd b625 16be 2da5 023e
00000210: 103b 07be e79f 313e b791 cfbd f774 043e
00000220: 3fb6 0dbe 80db 093c a13d 33be 2858 d2bc
00000230: e2e9 e93d e833 a43c 383a 21be 6440 a2bd
00000240: a6ef f1bd 6f40 a2bd 4d51 2f3e 8a70 01be
00000250: d09f 48bd 4a99 a2bd 0e11 efbd c6d4 cebd
00000260: 4017 1c3c 4b1a 0c3e 607c ec3b 2b72 003e
00000270: 804b 6c3c ebe7 1a3e 727a 94bd a509 2b3e
00000280: 8685 ad3d 6807 6f3d 1a50 d43d 7881 f63c
00000290: 597a 223e 0099 39bb b678 a03d 37e5 e3bd
000002a0: 02a3 b63d 7e3b 923d 1aa4 913d 6f88 1a3e
000002b0: 6f22 11be 94ae 873d 06e3 d03d 3ef4 0bbe
000002c0: 4d05 18be 4967 083e 6a55 bc3d f199 2a3e
000002d0: 6417 d2bd 5c03 8f3d 5e9a 893d 6048 193d
000002e0: 6977 d9bd fb56 cbbd 042c 09be 00c4 f939
000002f0: 6db4 d4bd d21d 82bd 603e c03c 1a96 e73d
00000300: 6ab9 dd3d 10ae 48bc 53f9 063e c0d8 ea3b
00000310: 7326 ddbd 3c6c 0ebd 1d36 31be 985f cbbc
00000320: 7a45 dcbd 9a4c ccbd 94ca 4fbd a499 dfbd
00000330: d005 03be 14e9 5b3d 001e 1ebc 8e80 973d
00000340: 0a07 e83d 34c0 15be 0f67 c0bd e01e 5d3d
00000350: f8af 873c 65b0 2f3e f505 1e3e dbd4 193e
00000360: ab28 2a3e 1413 19be 2cd3 823d e021 72bc
00000370: 3008 2c3c e82c 06be da34 e93d b64d 8b3d
00000380: 2471 48bd a655 c23d 7032 97bc cca7 1cbd
00000390: 58e0 d0bc 58ff ad3c 0314 33be 6dc8 2f3e
000003a0: 02c8 c0bd ccd9 adbd d9d9 18be adfd 1a3e
000003b0: 55dd 233e 9f29 203e 8640 e63d 011b 0a3e
000003c0: 70bc 293d e021 c33b 8990 2cbe beca d2bd
000003d0: c809 4b3d f43f 743d d19f 1c3e e279 da3d
000003e0: 15db 023e ef77 0d3e 7895 d8bc 60d8 6bbc
000003f0: 98c9 de3c 5806 c93c b18a b9bd 438f debd
0.04942268 0.1482402 -0.13781548 -0.17343014 -0.0140269995 0.10992141 -0.089140415 -0.028529346
0.14954348 0.13546394 -0.018050343 -0.09612398 0.1462074 -0.060702696 -0.011514977 -0.12586583
-0.063660264 -0.13522045 0.019336239 -0.14308226 0.14615555 -0.014928207 -0.10843023 0.105797574
-0.14557977 0.052460626 0.17129491 -0.0642692 -0.095558435 -0.027644187 -0.09574877 0.16772501
0.069712296 -0.03988284 -0.13020752 0.10810523 0.093157426 0.011864722 0.03651814 -0.018837005
0.012082413 -0.034729227 -0.14633845 -0.10866296 0.012566373 -0.06727878 0.11674537 0.08193825
0.16518058 -0.08089967 -0.08610641 -0.030311808 -0.0508094 0.12781395 0.027111694 0.16583802
-0.1041374 -0.029942498 -0.16994506 -0.11833276 0.061829105 -0.07360523 0.0026770383 0.061218366
-0.037972078 -0.018458366 0.1511467 -0.01575534 -0.029865846 0.07057208 0.044577852 0.030483276
-0.09891606 0.08263002 0.1370718 0.047255114 0.0708852 0.16737054 0.08179875 0.029554188
0.12700476 0.016547024 -0.15203789 -0.09951202 -0.069916144 -0.049727574 0.07412641 -0.14124379
0.03044574 -0.12571657 -0.119907886 -0.08053514 -0.03132683 0.15796073 -0.117123224 -0.1727655
-0.07079735 0.1503477 -0.041138843 0.17301764 0.11993118 0.120985106 -0.15128231 0.12991245
-0.14052488 -0.16194299 -0.04632172 -0.15914401 -0.120184116 0.031906724 0.009104937 -0.1590747
0.1004125 -0.016613841 0.13653456 -0.07118278 -0.079956636 0.10574706 0.07320298 -0.09659952
-0.00014784932 0.008023262 -0.015989527 -0.07145206 -0.027610123 0.13544373 -0.12900236 0.013386801
0.11543451 -0.053720243 -0.14662823 0.12758322 -0.13206124 0.17346154 -0.10135215 0.12935244
-0.13839053 0.008414149 -0.17503978 -0.025676802 0.11421563 0.020044282 -0.15744865 -0.07922438
-0.118132874 -0.07922446 0.17120858 -0.12640586 -0.048980534 -0.07939394 -0.11673175 -0.10099177
0.009527028 0.13681905 0.007216975 0.12543552 0.0144222975 0.15127532 -0.07249917 0.16702898
0.08472733 0.058356673 0.10366841 0.030091032 0.15866984 -0.0028319955 0.07835524 -0.11127704
0.0891781 0.071402535 0.07111378 0.15091108 -0.14173292 0.06625095 0.10199551 -0.1366739
-0.14845772 0.1332065 0.09195979 0.16660286 -0.10258368 0.069830626 0.06718896 0.037422538
-0.10618479 -0.099286996 -0.13395697 0.00047639012 -0.10385976 -0.06353344 0.023467243 0.113079265
0.108263806 -0.012248531 0.13181047 0.007166952 -0.10798349 -0.03477119 -0.17305799 -0.024825856
-0.10755439 -0.09975548 -0.050730303 -0.109179765 -0.12795186 0.053689077 -0.009650707 0.07397567
0.113294676 -0.14624101 -0.09394657 0.053984523 0.0165634 0.17157133 0.1543196 0.15022604
0.16617076 -0.14948684 0.06387934 -0.014778584 0.010499999 -0.13103068 0.11387034 0.068019316
-0.048936024 0.094889924 -0.018456668 -0.03824596 -0.0254976 0.021239921 -0.17488103 0.171663
-0.094131485 -0.08488807 -0.14926852 0.15135832 0.160024 0.15640877 0.112427756 0.13486864
0.041439474 0.005954966 -0.16852011 -0.10292576 0.049569875 0.059631303 0.1529534 0.106677786
0.12778886 0.13815282 -0.02643846 -0.01439485 0.027195737 0.024539158 -0.090596564 -0.10867169

rnn.bias_ih_l0 f4 [32]
00000000: 1a5b c03d c64e 74bd 4e4e 87bd 6109 213e
00000010: e771 6bbe b3b3 063c ec91 263e c720 233e
00000020: 8121 4f3e 8330 303d d978 f8bd da88 f93d
00000030: 5099 b8bd 8357 123e 6b93 e8bd f755 143e
00000040: 98ed 20be 8fdf 84bd 1b8b 193e 6df3 d53d
00000050: 701e 0a3e c1c5 ffbc 3b42 8e3d 1070 66be
00000060: bcd8 8c3d ae64 45bd 9e7a cebd 25ae 00bf
00000070: 3d74 ab3d 67fb 6a3c c976 ebbe 9b2a ccbd
0.09392376 -0.059645437 -0.06606732 0.15726234 -0.22992669 0.008221555 0.16266602 0.15930472
0.20227624 0.043015014 -0.12132425 0.121843055 -0.09013617 0.14291196 -0.11356243 0.14485918
-0.15715635 -0.06487953 0.14994471 0.104468204 0.13488173 -0.031222226 0.06946226 -0.22503686
0.06877276 -0.04819172 -0.10081981 -0.50265723 0.0837178 0.014342166 -0.45989063 -0.09969064

rnn.bias_hh_l0 f4 [32]
00000000: b409 ecbd 9202 7abd c850 873d 51bd 09bb
00000010: 0570 b2bd 8ed0 06bc b4a9 51bc 9319 d03c
00000020: 748c e7bd cb83 303d bd7a cebc 5a18 0e3e
00000030: c796 dd3c 49a1 d93d bfad 123e 2586 cabd
00000040: f6b0 c8bb 67e3 843d 09e3 57bd a700 d6bd
00000050: cc43 6d3e ac72 123e 39f0 0b3c b9aa 003d
00000060: 023a 94bd 0f33 f33d bee4 1abe 0be3 a9be
00000070: 4ca9 2c3c 00f0 62be f0d2 53be 9434 083d
-0.11525288 -0.061037607 0.06607205 -0.0021017382 -0.08712772 -0.008228434 -0.012796808 0.02540282
-0.11306086 0.043094438 -0.02520501 0.13876477 0.027049435 0.10626466 0.14324091 -0.09888867
-0.006124611 0.06488686 -0.052706752 -0.10449343 0.23170394 0.14301556 0.00854116 0.031412814
-0.072376266 0.11874973 -0.1512632 -0.33181033 0.01053841 -0.22161865 -0.20685935 0.033253267

fc.weight f4 [1, 32]
00000000: b852 103d 4278 fb3d f07d 38b6 d675 3abd
00000010: b6a7 4b3e 6ca8 fe36 e040 873e 793a c9bd
00000020: 5261 a8bd 4442 ec3d e62e 6cbd da3f 973e
00000030: 8e4c 5dbd 5841 e43d b791 2cbe d469 c7bd
00000040: 625f 473e b06b 7db6 edf9 3dbe 00bf f937
00000050: 71b7 cbbd a625 8fbd 2656 5ebd 6883 523e
00000060: b70a 253c 98b4 fbbd 54be af3d 6752 8ebe
00000070: 3733 173d e784 283e 2d50 79be 3c71 6d3d
0.035235137 0.12278797 -2.7491442e-06 -0.045522533 0.19888195 7.589397e-06 0.26416683 -0.09825606
-0.082216874 0.11536077 -0.057661913 0.29540902 -0.054028086 0.11145276 -0.16852461 -0.09736982
0.1946998 -3.776262e-06 -0.1855237 2.9772054e-05 -0.09947098 -0.06989603 -0.054281376 0.2055794
0.010073355 -0.12290305 0.08581224 -0.27797243 0.036914077 0.16456948 -0.24346991 0.057969317
