weight/randomly/best_RNNRegressor_DA_randomly.pth (torch, 7652 bytes, 5 tensors)

rnn.weight_ih_l0 f4 [32, 2]
00000000: 24e6 3a3e b087 17bf 0c86 c2be c250 823e
00000010: 319c 033f bda9 823f 388a a4bf 174a 10c0
00000020: 96b3 3336 ba2e 6e37 2cd2 123e 8a55 1b3d
00000030: 9e5a 56be 8f9b 313f c39a 39bc 942b 703d
00000040: 97fb 81be af22 9abc 8c75 fabd 8cde b6bb
00000050: cc3c 733c 4aba 5abe 3c71 ac3e 42eb 9dbe
00000060: 94db 13bb c588 233b 673d 04bb 4f80 79be
00000070: 18a1 053f 6b5d b1bf 5b02 0abe b94e 8b3d
00000080: 370a efbe ab3a 053f cdcd 84bd 3be0 90be
00000090: 12c0 563d be6b 9abe 370d 3d3e b133 1dbf
000000a0: 1972 203f 6bab 14bf c8bb b23f af6b b3bf
000000b0: 0465 1bbe aadf 93be d98c 2dbe 8a28 303f
000000c0: 40d5 173f ceb3 893f 196f 35b8 7d83 13b9
000000d0: 4a1f 693e d258 0ebe 41c0 173e 4875 aebe
000000e0: 84ef 26be c290 933d 4ef7 843d c192 10be
000000f0: 5e4e 8c3e f986 53be 2598 543e 671c abbd
0.18251854 -0.5919142 -0.37992895 0.25452238 0.51410204 1.020805 -1.2854681 -2.254522
2.6777611e-06 1.4196785e-05 0.14337987 0.037923373 -0.20933005 0.6937799 -0.011328402 0.05863531
-0.2538726 -0.018815367 -0.122294515 -0.005580729 0.014846038 -0.21360126 0.3368014 -0.3084355
-0.0022561299 0.0024953347 -0.00201782 -0.24365352 0.52198935 -1.3856634 -0.13477461 0.068021245
-0.4668748 0.52042645 -0.06484566 -0.28296074 0.052429266 -0.30160326 0.18462072 -0.61407
0.626741 -0.58074063 1.3963556 -1.4017237 -0.15175253 -0.2888158 -0.1694826 0.6881186
0.5930977 1.0757997 -4.325723e-05 -0.00014067996 0.22765842 -0.1390107 0.14819433 -0.34073853
-0.16302305 0.07205345 0.06492482 -0.14118482 0.2740354 -0.20656957 0.20761164 -0.08355027

rnn.weight_hh_l0 f4 [32, 32]
00000000: ee0c 953d 00a4 a73c ea21 bcbd 8091 493b
00000010: 13d3 03be 4071 d0bc 0239 873d d52b d4bd
00000020: c8e8 943c 6077 723d 7c6e 25be 2a47 d23d
00000030: 0042 c7bb c16a 063e 25f7 0e3e 8e06 2bbe
00000040: 179f cebd 4015 c9bb da2a a03d d60a fe3d
00000050: 69fa 263e 390a 263e 80f0 b2bb a2be 993d
00000060: ea37 09be 1013 f03c de8b f43d e447 34be
00000070: 9812 9d3c 60bd aebd e70a 17be 301e 0f3d
00000080: 9542 123e 10d1 06bd 1ecb 933d 5184 cabd
00000090: 78ab ab3c 29a5 e0bd a0e9 3bbc 0c79 78bd
000000a0: 9cc1 903d 9267 b43d 0d05 0b3e cab5 bd3d
000000b0: 68d0 c1bc 1281 e93d e826 fabc 00c0 d637
000000c0: 6b80 bdbd 5a04 d13d 538a 0d3e 30d6 45bc
000000d0: 4885 4fbd a537 043e 72c7 f73d 2a67 e83d
000000e0: a5ed 093e 6fb0 d7bd eb97 bdbd a97c 1d3e
000000f0: fc81 09be cad3 c83d a839 203d efb3 0e3e
00000100: 385d 683d c0c8 103b ae52 a23d 4fe2 b9bd
00000110: 955b 0a3e dc70 2cbe 7f83 12be a612 a23d
00000120: c81f 44bd 8580 edbd 0067 333b d22c 81bd
00000130: fdcf 10be 096b 243e 3ade c13d 52be c6bd
00000140: 4708 283e 3c74 aabd a869 043d 0087 92bc
00000150: 0c92 afbd 6dca 333e 7280 11be c0af 513d
00000160: fecc 9c3d e80d 0dbe 4605 fe3d 3ddf e5bd
00000170: c009 2abc 187e 9b3c 5ec1 993d 5a44 6bbd
00000180: f4f1 643d 8002 34be 9496 00be d1c1 b2bd
00000190: eaaf 2dbe b066 0cbc 088a 10be 2820 02bd
000001a0: 18c4 1cbe 4cdb 24be 809e f5bc 34ba 423d
000001b0: 47ae 263e ed85 c0bd 3cca 3a3d 84d9 c7bd
000001c0: 1f29 ecbd 9044 b1bc c638 b83d d225 f0bd
000001d0: 6e4c 26be 78c2 953d c062 5e3d e0b2 13bc
000001e0: a9bd c8bd bc71 293d 7319 143e 8005 12bb
000001f0: 3476 4ebd e433 25be 20a3 853b f81d cabc
00000200: 7f36 1b3e 4585 84bd 141b 013d 17c3 bcbd
00000210: a02e fcbc 9a48 65bd b759 a4bd 0c67 00bd
00000220: a8eb db3c 40fe 0dbc 86fa f2bd 0c08 5abd
00000230: bba1 1e3e b0d8 943d 786f eebd c0e3 773c
00000240: 2176 31be 1e6f ebbd 690d 163e f061 133d
00000250: 9821 f9bd b9e7 05be 4e33 f43d e0ae 1b3d
00000260: 30c4 b0bc b390 e4bd e02e c13c b3dc 1abe
00000270: 20f5 883c 10d4 5fbc 460b e73d 0a0b 2abe
00000280: c0c0 13bc 7871 91bd 80c1 c23a 1df9 343e
00000290: 3b66 c2bd 9f9a 25be 35ee 2e3e 0b8e 1cbe
000002a0: 28a7 033d 5cd7 31bd d60c 1fbe f095 273c
000002b0: 589e 83bc feb6 b53d 9e06 f13d f0b8 cf3c
000002c0: 8f81 283e 0f09 adbd 7287 ff3d b2df fd3d
000002d0: 6087 b13c a3c5 a6bd 9870 2fbd 92bc debd
000002e0: 4727 2a3e b893 9fbc 71eb 113e 546b 2f3d
000002f0: c92f 173e 400b dd3c 46c5 f6bd 3367 e0bd
00000300: 9669 de3d 78c0 ed3c d68e 953d cd44 343e
00000310: ae80 db3d e470 3e3d 2ac6 fdbd e1c8 d8bd
00000320: 9a5f 903d 1b18 d5bd c9db 0b3e e79c 053e
00000330: d109 143e 68be 353d b4a3 053d 35ad 213e
00000340: 98e2 efbc 004b 013b fa33 a13d b923 13be
00000350: 2634 da3d 97de a1bd 7e6b b03d b828 cbbd
00000360: d9e5 093e 1685 aa3d 0fba 0d3e b75a 133e
00000370: 6952 0c3e 1862 e4bd 77ca 32be b0f9 093c
00000380: 0102 163e 5853 613d fac5 fb3d fa16 11be
00000390: 6098 883c ddec 243e 1046 d6bd e454 7f3d
000003a0: b147 1fbe ecc3 013d 6d92 9cbd e03b c7bc
000003b0: a835 8b3c 1eb1 73bd 702f 2d3c 5896 10bd
000003c0: 40ff dcbb 5918 1e3e 2e3b f5bd 0ece 8bbd
000003d0: c883 8a3d f094 5c3c a343 9abd 40ac f23c
000003e0: 6e46 a13d 6c6c 47bd 0ced 04be fa95 f13d
000003f0: 300b 773d 0830 d63c 6d12 26be 60fc 61bc
0.07277857 0.020463943 -0.09186156 0.003075689 -0.12873487 -0.025444627 0.0660267 -0.10359923
0.018177405 0.059195876 -0.16155428 0.1026748 -0.006080866 0.13126661 0.13961466 -0.16701719
-0.10088938 -0.0061365664 0.07820673 0.124044105 0.16306461 0.16214837 -0.0054607987 0.075070634
-0.13400236 0.029305965 0.1194074 -0.17605549 0.019173905 -0.08532214 -0.14750253 0.0349409
0.14283212 -0.03291422 0.07216476 -0.098885186 0.020955786 -0.10969002 -0.011469275 -0.060662314
0.07068178 0.08808817 0.13576145 0.09263189 -0.023658946 0.11401571 -0.03053613 2.5600195e-05
-0.092530094 0.10205908 0.13822298 -0.012074992 -0.050664216 0.12911852 0.12098588 0.11347802
0.1346956 -0.10531699 -0.09257492 0.15379585 -0.13428491 0.098060206 0.039117485 0.13935827
0.056729525 0.0022092313 0.07925926 -0.09076368 0.13511498 -0.16839927 -0.14307974 0.07913713
-0.04788187 -0.11596779 0.0027374625 -0.06307377 -0.14141841 0.16056456 0.094662145 -0.097042695
0.16409408 -0.08322951 0.032327324 -0.017886639 -0.08572778 0.17557688 -0.14209154 0.051193
0.07656287 -0.13774836 0.124033496 -0.1122422 -0.010378301 0.018981025 0.07507585 -0.057438232
0.055894807 -0.17579079 -0.12557441 -0.08728374 -0.16961637 -0.0085694045 -0.14115155 -0.031768948
-0.15309179 -0.1609928 -0.029982805 0.04754086 0.16277419 -0.09400544 0.045603022 -0.09758285
-0.11531281 -0.021639138 0.08995204 -0.11725964 -0.16240093 0.073124826 0.054293394 -0.009014815
-0.098018 0.04136823 0.14462833 -0.002228111 -0.050405696 -0.16133076 0.004078284 -0.024672493
0.15157507 -0.06470732 0.031519964 -0.09216898 -0.030783951 -0.05597744 -0.08024924 -0.031348273
0.026845768 -0.008666575 -0.1186419 -0.05323033 0.15491383 0.07267892 -0.11642355 0.015129983
-0.17330219 -0.11495803 0.14653553 0.035982072 -0.121646106 -0.13076676 0.11923848 0.03800857
-0.021577924 -0.11160412 0.023581922 -0.15123253 0.016718447 -0.0136613995 0.11281447 -0.16605774
-0.009018123 -0.071017206 0.0014858693 0.17673154 -0.09492155 -0.16172265 0.17083056 -0.1528856
0.032141834 -0.043418273 -0.1553224 0.010228619 -0.016066715 0.088727936 0.1176884 0.02535674
0.16455673 -0.084489934 0.12477006 0.12396182 0.021670997 -0.08143165 -0.042831987 -0.10875811
0.16616546 -0.019479617 0.1424997 0.042826965 0.14764322 0.026982903 -0.12049346 -0.10957184
0.10859983 0.02902244 0.073026344 0.1760437 0.10717903 0.04649438 -0.123913124 -0.105851896
0.070494846 -0.104049884 0.1365806 0.13048135 0.1445687 0.04437104 0.032626823 0.1578873
-0.029282853 0.0019728541 0.07871242 -0.14369096 0.10654478 -0.07903784 0.086142525 -0.09919876
0.13466586 0.083261654 0.13840507 0.14390074 0.13703312 -0.111515224 -0.17460047 0.008421347
0.14649202 0.055011123 0.122936204 -0.14168921 0.01667422 0.16105981 -0.10462582 0.062336817
-0.15554692 0.031680986 -0.07645116 -0.024320543 0.016993359 -0.059495084 0.010570392 -0.03529963
-0.0067442954 0.15438975 -0.11974178 -0.06826411 0.067634165 0.013463244 -0.07532432 0.02962315
0.078747615 -0.048687384 -0.12981051 0.11796184 0.060313404 0.02614595 -0.16217966 -0.013793081

rnn.bias_ih_l0 f4 [32]
00000000: 3e43 99bb 17e2 02bd 2a97 70bc 574e 8cbe
00000010: 3f50 88bd 1e3f 1ebe 6cdd 2f3d 6e51 013e
00000020: 4789 cc3d a8bd 2f3c 1800 123d aef3 343e
00000030: de34 ed3d 608f 8d3d b53f 7abe a895 87bd
00000040: 875f 09be f5a3 a53d 56af 35bd 8af4 3d3d
00000050: 490b 7c3d 166c 6ebe d0f9 5b3e 464d 79bd
00000060: 8f34 ccbd ba16 d73d 300f 333d 4a5e 6f3d
00000070: 7fce 163e 05c5 bebd 8850 6abd 964e 6dbd
-0.0046772053 -0.031953897 -0.014684478 -0.2740352 -0.06655931 -0.15453765 0.042935774 0.12628719
0.09987121 0.01072637 0.03564462 0.17671081 0.11582349 0.06912112 -0.24438365 -0.066203415
-0.13415347 0.08087913 -0.044356667 0.04637579 0.0615342 -0.23283419 0.21482015 -0.06086471
-0.09970962 0.105023816 0.043715656 0.05843953 0.1472721 -0.09314922 -0.057205707 -0.057936274

rnn.bias_hh_l0 f4 [32]
00000000: 3055 30be e97a 83bd b18c f63c f1a3 a6be
00000010: af4e 883d a837 a73d 339b 1b3e 2385 083d
00000020: e547 df3c 2484 65bc 8782 bcbc d046 543c
00000030: e69b e9bd a924 1fbd 92cc 92be b4c4 973b
00000040: a1ae 62be 5744 833d 31bd aa3c 6273 55be
00000050: 4a4e 8e3e 40b3 5bbe ee49 193e dac6 133e
00000060: 0329 853c 0404 d7bd a697 003d ba3f 28be
00000070: 85f2 1abe 47ca cf3d 7784 383e b1d8 953d
-0.17219996 -0.064199276 0.030096384 -0.32546952 0.06655633 0.081649125 0.15195923 0.033330094
0.027255962 -0.014008556 -0.023011459 0.012956336 -0.114066884 -0.03885332 -0.286717 0.004631603
-0.22136928 0.06409519 0.020842167 -0.20844796 0.27794105 -0.21455097 0.14969608 0.14431325
0.016254907 -0.10498813 0.031394623 -0.1643056 -0.15131576 0.10146003 0.18019281 0.07316721

fc.weight f4 [1, 32]
00000000: aeb1 333e c96b 6a3e 588e 873e 7b62 1bbf
00000010: fe72 f933 6561 94bc d964 48be efb2 cdbd
00000020: cfe4 1d3d 374d d13d 93c6 193b c20e 6cbe
00000030: d9d3 ff39 5be2 193d 879d d23e 9147 fd3d
00000040: c0c5 493e de54 713d 07ae da3d 9c16 203e
00000050: 40ab 88be 354f ecbe 4b14 563e 9987 bdbe
00000060: 802e c53e ae85 ecb5 e7f5 4dbe 4e82 a73d
00000070: fa21 253d 76e8 0e3d 82f7 41be 8952 35be
0.17548248 0.2289268 0.26475787 -0.60697144 1.1615883e-07 -0.018112848 -0.1956972 -0.100438945
0.038548287 0.10219806 0.0023464307 -0.23052505 0.0004879523 0.037569385 0.4113581 0.12367166
0.19704342 0.058918826 0.10677724 0.15633625 -0.26693153 -0.4615418 0.20906179 -0.37017515
0.3851204 -1.7622276e-06 -0.20113336 0.081791505 0.040315606 0.03488966 -0.18942073 -0.17707266
